modeloD3.pth (torch, 210898 bytes, 6 tensors)

layers.1.weight f4 [128, 256]
0.07521548 0.053981636 0.027798275 -0.07198662 0.047580782 0.020965632 -0.017569253 0.055351384
-0.01155091 -0.008044763 0.07291263 0.0016309627 0.06907885 0.052645866 0.04617503 0.013026495
-0.03701307 0.023088347 0.048873484 -0.048664942 0.021225927 -0.04178706 0.051614076 -0.02219813
0.027273238 -0.010591408 0.04630629 0.025639795 0.04061158 0.03851952 0.011377665 0.028817821
0.066544406 -0.06052775 0.015337519 0.05265138 0.046476543 -0.017294766 0.032488573 -0.008138269
0.070833035 -0.037694834 0.06759379 -0.025740445 -0.03359031 -0.045872338 -0.022296432 0.020559894
0.01686017 0.04638842 -0.015138394 -0.0022191377 -0.030044345 -0.0051406072 -0.007228601 0.035645954
-0.04074546 -0.034585584 0.02476498 -0.00405266 0.06573828 0.06417937 -0.047665898 -0.04283613
-0.0032637792 0.03189521 -0.013533863 0.025264153 -0.02941064 -0.018076971 0.051110998 0.02578199
0.037195057 -0.007961319 -0.032056402 -0.04275627 -0.009427641 -0.018695913 0.015591121 0.06682622
0.017886704 -0.0025164643 -0.02601875 -0.1841706 -0.035113446 -0.0059357174 -0.0019663526 0.05527037
0.0094893295 -0.051252667 -0.030985553 0.04780314 0.0015420397 0.063140176 -0.040391076 -0.0072736964
-0.020523153 -0.030470574 0.0043826085 0.011955516 -0.04710215 -0.017850956 -0.041193895 0.05622
-0.015158238 -0.021807523 -0.000903663 0.014824927 -0.017938245 -0.04539879 0.021435928 0.0367311
0.022055421 -0.042660546 -0.034341298 -0.030129315 -0.051310223 -0.033807684 0.027814658 -0.049124613
-0.0027856936 -0.033663318 0.04119436 0.031913582 0.05276676 0.05362857 0.027400672 0.03489738
-0.0852584 0.0043706247 -0.07684749 -0.00910017 -0.05394089 0.024040842 -0.06307009 0.03933458
-0.010248367 0.03310507 -0.040182967 0.044878785 0.05057257 -0.008852768 -0.036150903 0.06077882
-0.014836462 0.040728703 0.014896903 -0.023080176 -0.013655109 0.058750752 -0.017063051 -0.015952894
-0.020328153 0.067122 -0.053888697 -0.048018128 0.035348848 0.006951835 -0.034324713 0.0052398792
0.058583267 -0.022886459 -0.020597184 0.03257249 -0.07013083 -0.04322652 -0.0675086 -0.05290759
-0.07820751 -0.03374104 -0.036481246 0.059270993 0.0040091793 0.0440461 0.04611651 0.01575484
0.043359067 0.053343426 0.0013611488 0.044983596 0.05335892 0.037153333 0.020296339 -0.023730611
0.048931107 -0.024538416 0.06344565 -0.011682563 -0.0078088194 0.0065603442 -0.03567103 0.030686948
-0.007989196 0.036591485 -0.060095828 0.023577675 0.023594528 0.03880578 0.02353351 -0.0038403892
0.06918524 -0.009499364 0.04256357 -0.045463342 -0.034282148 0.021743467 0.037866376 0.008259734
-0.037928525 0.0056907074 -0.0024137385 -0.02795509 -0.036056142 -0.013689622 -0.017935617 -0.020599835
-0.040946763 -0.0057698614 -0.01697501 -0.054106288 0.0035076553 0.0032609373 -0.020409219 -0.038629673
-0.0518016 0.020956587 -0.07038204 0.007395136 -0.014126999 -0.030603992 -0.032382462 -0.046498653
-0.013318177 -0.021008294 0.015589756 -0.06516946 -0.012323508 -0.051707804 0.009419891 -0.080053784
0.046425816 -0.044324983 0.028780337 0.020255875 -0.018440884 -0.0106505 -0.0001351356 -0.03216946
0.021095201 0.054602724 0.024442703 0.011164927 0.019326849 -0.04340289 0.03328373 0.07371854
00000000: 930a 9a3d d91b 5d3d 35b9 e33c b96d 93bd
00000010: 11e4 423d 1ec0 ab3c 65ed 8fbc 22b8 623d
00000020: 0740 3dbc 2ece 03bc 3853 953d 07c6 d53a
00000030: 3679 8d3d 31a3 573d 0722 3d3d 156d 553c
00000040: 049b 17bd c623 bd3c 902f 483d e454 47bd
00000050: ffe1 ad3c e928 2bbd 4869 533d dad8 b5bc
00000060: 206c df3c 9687 2dbc aaab 3d3d 8c0a d23c
00000070: 5458 263d a5c6 1d3d 6369 3a3c 5a13 ec3c
00000080: 6f48 883d f2eb 77bd 384a 7b3c f9a8 573d
00000090: 305e 3e3d c1ad 8dbc bd12 053d 6056 05bc
000000a0: e910 913d e665 1abd 9d6e 8a3d a0dd d2bc
000000b0: fe95 09bd a2e4 3bbd 02a7 b6bc 396d a83c
000000c0: 571e 8a3c c901 3e3d 0707 78bc f46e 11bb
000000d0: 8f1f f6bc 8a72 a8bb e6dd ecbb 7e01 123d
000000e0: b6e4 26bd 9da9 0dbd eddf ca3c 2dcc 84bb
000000f0: cba1 863d 7970 833d 513d 43bd f074 2fbd
00000100: 21e5 55bb 8da4 023d 23bd 5dbc c5f6 ce3c
00000110: 95ee f0bc 2816 94bc c459 513d c034 d33c
00000120: d859 183d 3170 02bc 934d 03bd 3321 2fbd
00000130: 6476 1abc 2c28 99bc e771 7f3c 2fdc 883d
00000140: 2387 923c 44eb 24bb 4625 d5bc 3897 3cbe
00000150: 1ed3 0fbd 6880 c2bb ecdd 00bb 2f63 623d
00000160: 2279 1b3c 51ee 51bd 6ad5 fdbc 3acd 433d
00000170: 441e ca3a a34f 813d 1d71 25bd 3058 eebb
00000180: 2c20 a8bc 6d9d f9bc fc9b 8f3b 12e1 433c
00000190: 2fee 40bd 2b3c 92bc eeba 28bd f146 663d
000001a0: 425a 78bc b1a5 b2bc cce3 6cba 40e4 723c
000001b0: 3af3 92bc 15f4 39bd 669a af3c 5a73 163d
000001c0: 92ad b43c d3bc 2ebd 76a9 0cbd c1d1 f6bc
000001d0: ab2a 52bd ed79 0abd 91db e33c e436 49bd
000001e0: 2f90 36bb 8ce2 09bd 6bbb 283d d1b7 023d
000001f0: f521 583d a2a9 5b3d 6077 e03c 8ef0 0e3d
00000200: f59b aebd 7537 8f3b 3862 9dbd e118 15bc
00000210: 1ff1 5cbd 4df1 c43c e42a 81bd 4c1d 213d
00000220: c4e8 27bc 2f99 073d e596 24bd d1d2 373d
00000230: 2f25 4f3d 330b 11bc f812 14bd 36f3 783d
00000240: a214 73bc 24d3 263d 2412 743c a312 bdbc
00000250: aeb9 5fbc a1a4 703d d0c7 8bbc a5af 82bc
00000260: 3a87 a6bc 4277 893d 65ba 5cbd a8ae 44bd
00000270: f4c9 103d 38cc e33b 1298 0cbd 4bb3 ab3b
00000280: 02f5 6f3d 627c bbbc 6dbb a8bc bb6a 053d
00000290: c1a0 8fbd 4b0e 31bd f341 8abd a1b5 58bd
000002a0: 422b a0bd 0b34 0abd 5c6d 15bd 24c6 723d
000002b0: 6f5f 833b af69 343d aae4 3c3d 4b10 813c
000002c0: 4799 313d a37e 5a3d 9368 b23a b840 383d
000002d0: e28e 5a3d 182e 183d 8244 a63c b366 c2bc
000002e0: fc6b 483d ca04 c9bc cbef 813d 3968 3fbc
000002f0: 20e1 ffbb 28f8 d63b c91b 12bd 3263 fb3c
00000300: 1ee5 02bc f4e0 153d 0b27 76bd f825 c13c
00000310: 5049 c13c cff2 1e3d 59c9 c03c 0aaf 7bbb
00000320: feb0 8d3d 38a3 1bbc 2357 2e3d c537 3abd
00000330: 706b 0cbd 5b1f b23c c619 1b3d d653 073c
00000340: f15a 1bbd 1d79 ba3b d02f 1ebb 1302 e5bc
00000350: 9baf 13bd 704a 60bc b7ed 92bc fcc0 a8bc
00000360: cbb7 27bd 1b11 bdbb 2d0f 8bbc 8e9e 5dbd
00000370: b1e0 653b 73b5 553b 3c31 a7bc 263a 1ebd
00000380: ea2d 54bd 26ad ab3c 7624 90bd e652 f23b
00000390: ee74 67bc 39b5 fabc 79a3 04bd 5f75 3ebd
000003a0: 7c34 5abc 9619 acbc 2d6c 7f3c 9177 85bd
000003b0: 8ae8 49bc 90cb 53bd e355 1a3c 3df3 a3bd
000003c0: ff28 3e3d 1d8e 35bd bec4 eb3c a6ef a53c
000003d0: 5611 97bc 6f7f 2ebc 30b3 0db9 20c4 03bd
000003e0: d8cf ac3c 1ba7 5f3d 103c c83c 19ed 363c
000003f0: 5753 9e3c 3bc7 31bd 8554 083d bff9 963d

layers.1.bias f4 [128]
0.039405808 0.025677053 0.014265038 -0.020362983 -0.018708482 -0.026862917 -0.015490452 0.024494803
0.092813306 0.01576555 -0.02557901 -0.07136556 0.032920886 0.015490811 0.011825524 0.068512045
0.06325173 -0.055290494 -0.031295005 -0.04313732 0.07987258 0.012621793 -0.029214842 0.013026717
-0.00025650623 0.032808077 0.04951168 -0.07002592 0.058685575 0.02337464 0.025387399 -0.013937533
-0.012905052 0.009997985 0.023290725 0.05679133 0.01926759 -0.012560826 -0.026973672 -0.07778615
0.048785705 0.04665094 -0.011369825 -0.07823646 -0.006808414 -0.025645835 0.008915811 -0.058895655
-0.04614819 -0.05549964 0.013144358 -0.027036967 -0.07837349 -0.001058388 0.07293818 -0.0037739612
0.025372328 0.037045375 -0.07675958 0.07100204 0.06143946 0.07323053 0.0020505835 -0.029479187
-0.07327709 -0.00614718 -0.030903522 -0.023990279 0.017990317 -0.078873664 0.015720272 0.044707365
-0.022301858 -0.027968552 0.011476354 -0.019829152 -0.012058884 -0.0039585326 0.046272397 -0.038920265
0.04125907 0.06298349 0.049306713 -0.085768044 0.058725856 -0.027699297 0.010659621 -0.0038701082
0.02862128 -0.043218717 -0.055026382 0.011182884 -0.011488913 0.020914637 0.030713554 0.016226172
0.04276745 0.027154075 -0.043099802 -0.025579033 -0.02973608 0.007986306 0.09243145 -0.020093488
-0.02862622 -0.007852685 -0.08738828 -0.04251876 0.030877214 -0.062672086 0.017828314 -0.023077432
-0.006054125 0.031170119 -0.0277554 0.033845734 -0.0052791047 0.031404443 0.031285964 -0.042871453
-0.030704208 -0.000658499 -0.018885287 0.07891176 0.04390073 -0.012076037 -0.005621059 0.036943343
00000000: fc67 213d af58 d23c e8b7 693c 45d0 a6bc
00000010: 8842 99bc 9f0f dcbc aacb 7dbc 53a9 c83c
00000020: e714 be3d c126 813c 128b d1bc 1b28 92bd
00000030: 0dd8 063d 2ccd 7d3c d8bf 413c 0b50 8c3d
00000040: 1f8a 813d 4978 62bd 312f 00bd c2b0 30bd
00000050: 3c94 a33d a3cb 4e3c f753 efbc 036e 553c
00000060: af7b 86b9 c361 063d c2cc 4a3d c069 8fbd
00000070: 4960 703d 2c7c bf3c 3cf9 cf3c 405a 64bc
00000080: b66f 53bc 97ce 233c 31cc be3c 079e 683d
00000090: 11d7 9d3c eccb 4dbc e4f7 dcbc 584e 9fbd
000000a0: 85d3 473d 0e15 3f3d 8148 3abc 703a a0bd
000000b0: 1e19 dfbb 3717 d2bc 9f13 123c 923c 71bd
000000c0: e205 3dbd 9753 63bd 6f5b 573c a17c ddbc
000000d0: 4882 a0bd 9cb9 8aba 9d60 953d 9054 77bb
000000e0: a1d9 cf3c e4bc 173d 2034 9dbd 8469 913d
000000f0: f1a7 7b3d e3f9 953d 1563 063b 567e f1bc
00000100: 4d12 96bd 496e c9bb 6229 fdbc 4387 c4bc
00000110: 6e60 933c 8488 a1bd cdc7 803c 121f 373d
00000120: 63b2 b6bc 4e1e e5bc 5107 3c3c bf70 a2bc
00000130: a092 45bc 94b6 81bb 2088 3d3d db6a 1fbd
00000140: 45ff 283d 7dfd 803d d6f5 493d 28a7 afbd
00000150: 868a 703d a3e9 e2bc b1a5 2e3c a4a1 7dbb
00000160: 2d77 ea3c 1c06 31bd 5863 61bd 6a38 373c
00000170: fe3b 3cbc 2c55 ab3c fe9a fb3c c0ec 843c
00000180: ec2c 2f3d 3972 de3c 6b89 30bd 1f8b d1bc
00000190: 1499 f3bc ffd8 023c b34c bd3d 199b a4bc
000001a0: 8981 eabc 8ca8 00bc a0f8 b2bd 2728 2ebd
000001b0: 36f2 fc3c 395a 80bd af0c 923c e20c bdbc
000001c0: ae61 c6bb 7a58 ff3c 4b5f e3bc d3a1 0a3d
000001d0: 57fc acbb f2a1 003d b625 003d fa99 2fbd
000001e0: 6487 fbbc 1f9f 2cba 51b5 9abc 7d9c a13d
000001f0: 40d1 333d 92da 45bc dc30 b8bb e751 173d

layers.2.weight f4 [144, 128]
-0.059606712 -0.09720786 0.047581296 0.020396076 0.057620343 -0.020825954 -0.07796295 -0.0724338
-0.017950993 -0.046206042 -0.08336373 0.039939586 -0.060498517 -0.04672125 0.057610698 0.05629063
0.024029994 0.097984046 -0.0057668122 -0.006411139 -0.06474852 -0.019171845 0.0026123011 0.014536604
-0.0076198485 -0.074586675 -0.087342784 -0.031783972 -0.0038728744 0.0044750064 -0.03580138 0.041052323
0.06266942 0.08925803 -0.03703603 0.047419522 0.011648487 0.013299376 -0.02511863 -0.03296577
-0.09840098 -0.04834311 -0.047584433 0.023595374 -0.036955833 0.012560047 -0.08119163 0.09114951
0.06803707 -0.0039453306 -0.029064825 0.06338167 -0.026526434 -0.0059618023 0.042326324 0.078389265
0.06445427 0.038761117 0.095400356 0.038444314 -0.08003115 0.006883579 -0.07306635 -0.020648444
0.016693898 -0.0021061278 -0.047310352 0.06374467 -0.05309267 0.016622476 0.07399518 -0.028733341
0.052755915 0.008733678 -0.054492246 0.04222475 0.065586776 0.08926536 0.101013474 0.06603797
0.06466916 -0.037721604 -0.013361749 -0.018275345 0.045709208 0.06383463 -0.04606432 -0.037233956
0.073845066 -0.058617774 -0.0890483 -0.04867444 -0.045115616 0.025831873 0.0046097157 0.010319304
-0.060006734 -0.090966105 -0.069231786 -0.014696625 0.023223596 -0.04605573 0.009757259 -0.012476965
0.048904706 -0.033635613 0.003092182 -0.047833234 -0.08669326 0.039455183 -0.08385773 0.09753272
0.096396014 0.047687877 -0.09105858 0.04359212 -0.08371844 -0.044251557 -0.03535473 0.0060925772
-0.05475493 0.08099395 0.08616054 0.039841253 -0.055866126 0.032531314 -0.008366962 0.11253559
0.03775768 0.08969497 -0.0627103 -0.020475645 0.032903012 -0.0058346507 -0.028915625 -0.054491322
0.031693805 0.046549227 0.016587274 -0.038027067 0.043058004 0.019900642 -0.027813379 -0.064577736
0.016554333 -0.012945679 -0.031211039 0.058204714 0.045421258 0.07242303 0.04219085 -0.038498394
-0.075769484 0.078408144 0.020900318 0.17200595 -0.033496693 0.03452806 -0.009326142 -0.029075826
-0.001033216 0.02392671 -0.07503785 -0.03079233 -0.07934868 0.09026528 -0.074844584 -0.04352438
0.094372146 -0.04362088 0.104584314 0.043328825 0.07634407 0.04991354 -0.042540897 -0.092736594
0.010130619 -0.08202373 0.029291047 0.06830523 0.042250607 0.06680112 0.08837402 0.034519855
0.060253695 0.038223952 -0.008592129 -0.04854488 0.036862776 0.040024534 0.07417976 0.04777261
0.03975341 -0.043551184 0.06774686 -0.05098448 -0.043530043 -0.039221108 -0.05986853 -0.0020496876
0.004049505 -0.035002608 0.07167871 0.056976322 0.035063125 0.0067510833 -0.10054771 0.058114853
-0.058537412 -0.1754948 0.07501672 0.017628994 0.038298447 -0.04132371 -0.061857093 0.023738762
-0.04084649 0.052390125 0.041044522 0.034372523 -0.046839964 -0.05888793 -0.031980395 0.03331684
-0.036151167 0.023778139 0.04019575 -0.033877082 -0.025231479 0.02520925 0.07158117 0.068223834
0.025855372 0.047358777 -0.056037575 -0.028928643 -0.026082125 -0.017324151 0.057979353 -0.04857893
0.02750442 -0.06466054 -0.051775984 -0.02605368 0.006835837 0.02168411 -0.035490204 0.002836945
0.04743679 0.039109435 -0.046889566 0.018023575 -0.05479752 -0.08614466 0.04036936 -0.079211555
00000000: 2b26 74bd ea14 c7bd 9be4 423d ac15 a73c
00000010: 4f03 6c3d 319b aabc 0aab 9fbd 2c58 94bd
00000020: f60d 93bc 8c42 3dbd 9aba aabd b197 233d
00000030: 4bcd 77bd c85e 3fbd 32f9 6b3d 0191 663d
00000040: 8dda c43c dcab c83d 87f7 bcbb 8814 d2bb
00000050: df9a 84bd 460e 9dbc 2433 2b3b f02a 6e3c
00000060: ecaf f9bb e6c0 98bd c6e0 b2bd e92f 02bd
00000070: 0dd0 7dbb 13a3 923b 78a4 12bd 7b26 283d
00000080: d358 803d eacc b63d 18b3 17bd f93a 423d
00000090: 4cd9 3e3c a0e5 593c 96c5 cdbc 1e07 07bd
000000a0: 7486 c9bd 6d03 46bd e5e7 42bd 164b c13c
000000b0: 005f 17bd a8c8 4d3c cc47 a6bd 98ac ba3d
000000c0: 0557 8b3d d547 81bb 5b19 eebc 40ce 813d
000000d0: f74d d9bc 395b c3bb 5e5e 2d3d 8d8a a03d
000000e0: 9a00 843d fac3 1e3d 4361 c33d c977 1d3d
000000f0: 5fe7 a3bd a58f e13b cfa3 95bd ed26 a9bc
00000100: a4c1 883c f606 0abb 80c8 41bd 918c 823d
00000110: b377 59bd dc2b 883c c98a 973d 2f62 ebbc
00000120: 9616 583d b317 0f3c 4333 5fbd dcf3 2c3d
00000130: 5c52 863d c2d0 b63d 27e0 ce3d ea3e 873d
00000140: 4471 843d f881 1abd 3deb 5abc 2db6 95bc
00000150: 9439 3b3d bbbb 823d f1ad 3cbd a282 18bd
00000160: 153c 973d 3119 70bd f55e b6bd d95e 47bd
00000170: 27cb 38bd 5d9d d33c 190d 973b 4c12 293c
00000180: 9fc9 75bd 704c babd 65c9 8dbd 1dca 70bc
00000190: 693f be3c efa4 3cbd e9dc 1f3c 2f6c 4cbc
000001a0: 4d50 483d 7fc5 09bd 35a6 4a3b c8ec 43bd
000001b0: 3c8c b1bd c29b 213d 9abd abbd 3cbf c73d
000001c0: 466b c53d 5d54 433d ec7c babd a78d 323d
000001d0: 9374 abbd 1f41 35bd 1fd0 10bd 3ea4 c73b
000001e0: b546 60bd 28e0 a53d f074 b03d 9530 233d
000001f0: e1d3 64bd 8e3f 053d 9515 09bc 0f79 e63d
00000200: cca7 1a3d ffb1 b73d 426e 80bd 8abc a7bc
00000210: 4fc5 063d 9930 bfbb 76e0 ecbc 4b32 5fbd
00000220: 5dd1 013d 67aa 3e3d 09e2 873c 45c2 1bbd
00000230: 975d 303d ac06 a33c e2d8 e3bc 5541 84bd
00000240: f49c 873c 1d1a 54bc 4bae ffbc 1168 6e3d
00000250: a40b 3a3d 8752 943d 50d0 2c3d 7eb0 1dbd
00000260: 082d 9bbd 7394 a03d 2537 ab3c 5422 303e
00000270: d433 09bd 4c6d 0d3d adcc 18bc 6d30 eebc
00000280: fa6c 87ba f301 c43c 72ad 99bd 3240 fcbc
00000290: 9081 a2bd 01dd b83d 1e48 99bd 9f46 32bd
000002a0: 2f46 c13d cfab 32bd 4d30 d63d 9179 313d
000002b0: 485a 9c3d 2472 4c3d 5d3f 2ebd afec bdbd
000002c0: e5fa 253c 0ffc a7bd c7f3 ef3c 9de3 8b3d
000002d0: f90e 2d3d 07cf 883d 70fd b43d b164 0d3d
000002e0: 94cc 763d b890 1c3d 00c6 0cbc ffd6 46bd
000002f0: 6cfd 163d c4f0 233d 8feb 973d 36ad 433d
00000300: 79d4 223d ba62 32bd debe 8a3d 1ad5 50bd
00000310: 8f4c 32bd 50a6 20bd b438 75bd 0d54 06bb
00000320: b6b1 843b e55e 0fbd 4acc 923d 0160 693d
00000330: 5a9e 0f3d 3138 dd3b f5eb cdbd d709 6e3d
00000340: edc4 6fbd e9b4 33be 5ea2 993d ae6a 903c
00000350: d5de 1c3d 0d43 29bd dd5d 7dbd cb77 c23c
00000360: a64e 27bd 0797 563d 4d1e 283d 34ca 0c3d
00000370: 43db 3fbd 7834 71bd e0fd 02bd 3d77 083d
00000380: 3f13 14bd 5fca c23c 4ca4 243d b2c2 0abd
00000390: 3fb2 cebc a183 ce3c 2699 923d f0b8 8b3d
000003a0: a5ce d33c 47fb 413d a887 65bd c3fb ecbc
000003b0: 2eaa d5bc 61eb 8dbc c27b 6d3d b3fa 46bd
000003c0: f350 e13c bf6c 84bd 0e13 54bd 876e d5bc
000003d0: 28ff df3b e0a2 b13c 2d5e 11bd 0aec 393b
000003e0: 144d 423d 3731 203d 460f 40bd 2da6 933c
000003f0: 5d73 60bd 9d6c b0bd 585a 253d ab39 a2bd

layers.2.bias f4 [144]
-0.038242973 0.0145657435 0.051934432 0.08020925 0.024409004 0.047174886 -0.008851054 -0.096411526
0.056375735 -0.0076477253 0.09245634 0.048219636 0.05567452 0.031780392 -0.040868912 -0.01744856
0.021792885 0.026984727 0.06783605 -0.009012767 0.04568566 0.04679718 0.041331887 0.06978736
0.061408993 -0.011225723 0.004714381 0.025509853 0.031738218 -0.025130482 -0.02030015 0.054124083
-0.046105035 -0.03839761 -0.07506871 0.007972428 -0.024606332 0.02812629 -0.009752253 -0.018724136
0.06659669 0.009973439 -0.035675593 0.05131396 0.08737582 -0.017618626 0.063804485 -0.08817623
-0.025116445 -0.0037640764 0.05254166 0.054586545 -0.0066958605 0.07772797 0.026853416 -0.0048058364
-0.007814916 -0.030056225 -0.0678618 0.10180148 -0.06291097 -0.0029345981 0.045885883 -0.06334601
0.029250454 -0.029814852 -0.08021182 -0.06965609 -0.01898722 -0.0107019115 -0.025861003 -0.025828715
-0.064133 -0.028360855 0.023653835 0.063947916 -0.06382789 0.009080746 0.07478468 -0.06333507
-0.0737868 -0.014823199 -0.0058083287 0.054282684 0.07144369 -0.026757807 -0.04572209 0.07179089
-0.014614789 0.08354139 -0.07045214 0.046024527 0.062861696 -0.045047496 -0.07398557 0.021304624
0.012988167 0.03881835 0.03543908 0.078519695 -0.040080816 -0.091649674 -0.07740855 0.02907749
-0.002319993 0.058932237 0.0960661 -0.015514823 0.0007179972 0.06543655 0.019070106 -0.035436053
0.08823002 -0.033539735 0.049373064 0.002568056 -0.03579675 -0.07155915 -0.013194613 -0.05585474
0.051430304 0.021274498 -0.059229225 0.0069099837 0.01553894 -0.012960123 0.06820808 -0.016019015
-0.01334891 -0.0847387 0.048992787 0.009082529 0.06458714 -0.06903038 -0.05997773 0.0051941937
0.025078667 -0.009333955 -0.025200484 -0.06889922 0.023865255 0.0365221 0.0833508 0.057956975
00000000: aaa4 1cbd 28a5 6e3c 33b9 543d bf44 a43d
00000010: 64f5 c73c 743a 413d 0304 11bc 6873 c5bd
00000020: 3eea 663d c599 fabb c059 bd3d f481 453d
00000030: f70a 643d 282c 023d 2966 27bd 48f0 8ebc
00000040: fe86 b23c 130f dd3c a1ed 8a3d 49aa 13bc
00000050: e320 3b3d 66ae 3f3d a04b 293d adec 8e3d
00000060: ff87 7b3d 18ec 37bc 187b 9a3b 0afa d03c
00000070: efff 013d 71de cdbc 804c a6bc 37b1 5d3d
00000080: a2d8 3cbd d046 1dbd a0bd 99bd c99e 023c
00000090: 3893 c9bc 1b69 e63c eac7 1fbc 5c63 99bc
000000a0: d863 883d a367 233c 9220 12bd 962e 523d
000000b0: 18f2 b23d f054 90bc edab 823d bd95 b4bd
000000c0: 01c1 cdbc b9ae 76bb ec35 573d 2496 5f3d
000000d0: f368 dbbb d82f 9f3d b2fb db3c 477a 9dbb
000000e0: 220a 00bc 7938 f6bc 21fb 8abd 4b7d d03d
000000f0: 77d7 80bd 6352 40bb d6f2 3b3d 8ebb 81bd
00000100: a69e ef3c 473e f4bc 1846 a4bd daa7 8ebd
00000110: 168b 9bbc 1257 2fbc 74da d3bc be96 d3bc
00000120: 2a58 83bd 0655 e8bc b0c5 c13c 20f7 823d
00000130: 32b8 82bd 69c7 143c b628 993d d1b5 81bd
00000140: 891d 97bd 01dd 72bc cb53 bebb 8557 5e3d
00000150: 1251 923d 3033 dbbc 1647 3bbd 1a07 933d
00000160: de72 6fbc c017 ab3d 3649 90bd 3784 3c3d
00000170: a2bd 803d b983 38bd bf85 97bd 0987 ae3c
00000180: 52cc 543c fdff 1e3d 9228 113d efce a03d
00000190: c82b 24bd d3b2 bbbd 6088 9ebd eb33 ee3c
000001a0: 060b 18bb ee62 713d 4ebe c43d e231 7ebc
000001b0: fa37 3c3a 9903 863d e938 9c3c 6525 11bd
000001c0: f1b1 b43d f660 09bd 693b 4a3d d54c 283b
000001d0: 9d9f 12bd 9b8d 92bd 382e 58bc f1c7 64bd
000001e0: 95a8 523d db47 ae3c 589a 72bd 256d e23b
000001f0: 0a97 7e3c b256 54bc aeb0 8b3d 4f3a 83bc
00000200: 63b5 5abc 7c8b adbd a9ac 483d e3ce 143c
00000210: 4346 843d cd5f 8dbd 35ab 75bd 0e34 aa3b
00000220: c771 cd3c 72ed 18bc 3f71 cebc 091b 8dbd
00000230: 1181 c33c 3398 153d d3b3 aa3d 4b64 6d3d

layers.3.weight f4 [4, 144]
0.01518484 0.026862403 0.02095001 -0.05171551 0.00038661942 0.0009487962 -0.051673464 -0.021810737
-0.04698535 -0.07218079 0.081703976 0.057853997 -0.07383605 -0.016343322 0.054634303 0.03557127
0.03538512 0.06280788 -0.026429145 0.025014563 -0.03641137 0.051298667 0.047160577 -0.021355502
-0.027344916 0.063646264 -0.0449761 -0.07436104 -0.05047445 -0.050135583 0.009790621 0.044719636
-0.014085884 0.03520406 0.021817328 -0.052913696 0.039607953 0.011016016 0.009393671 -0.08634857
-0.033823147 -0.0029614915 0.00711685 0.060521163 -0.010053855 -0.036394455 0.0079801995 0.05954912
0.05405015 -0.05274717 -0.0077347686 -0.057169378 0.06008321 0.034993675 -0.059841517 -0.0075102323
0.031057958 -0.06282391 0.040331572 -0.062995195 -0.030047473 -0.009055141 -0.06441249 0.055411223
-0.0056575504 0.048654318 0.06770272 -0.00036954784 -0.019807318 -0.024189353 -0.07546107 -0.040880427
-0.027885223 -0.047762442 0.080600105 0.010268032 -0.07217094 -0.009743851 0.06828738 0.0212251
-0.057398528 0.0018657708 0.059702262 0.044150088 -0.015849462 -0.06604905 -0.045452237 0.058177907
-0.04122286 -0.071640484 0.0044999523 -0.052263867 -0.0061738766 0.040812507 0.02060323 -0.048339836
-0.04520309 -0.045569107 0.05194573 -0.036418777 0.08190563 0.052640647 -0.0071773217 0.06990627
0.08174329 0.017125329 0.030820705 0.036693446 -0.05130117 0.068890944 -0.060890842 -0.052466013
-0.051576987 0.0028113613 -0.07811412 -0.0022503268 -0.012167501 -0.018543309 -0.048458833 0.050012488
-0.018522518 0.048424255 -9.9935365e-05 0.070475936 0.064875595 -0.039677683 0.0018047997 -0.054636687
-0.0351641 0.0036160082 -0.078641616 -0.03432848 0.009351916 0.058318947 0.011710964 -0.046052463
0.014257945 0.05416718 0.021769347 0.060619913 -0.0064297915 -0.033842433 -0.008458233 0.06824294
0.003577259 0.014749113 0.07397414 -0.02025019 -0.07320341 -0.014536972 0.06349883 0.081942886
0.069779426 -0.053585023 -0.021868981 0.08249671 -0.07408238 -0.0778335 -0.06667006 0.07888492
0.06837364 -0.02285492 0.0605654 -0.00991015 0.04523679 -0.072414756 0.051130638 -0.06811609
-0.054672264 0.070068106 0.060662184 -0.010138597 0.018023707 -0.08129779 0.01858666 0.011400398
-0.03939684 0.065015696 0.075266235 0.0046209963 0.05352973 -0.058751345 -0.04729145 0.024470951
0.077393614 -0.02127245 -0.010387473 0.022290755 -0.049717035 0.02921567 -0.036221195 -0.0023629442
0.030073352 -0.032819472 -0.06060585 -0.042430595 0.07058161 0.076315105 0.04007713 0.011643664
-0.074863486 -0.026923737 0.079929285 -0.06377707 -0.033199202 0.021981126 -0.07955518 -0.033905897
-0.0025490539 0.020375624 0.031163704 0.00013421869 -0.050528634 -0.0055869184 -0.079291664 0.04356052
0.011466282 -0.068270944 0.064897165 -0.01140031 0.08723899 0.05567958 -0.028535776 -0.013827788
-0.0075222803 0.030163279 0.013384513 -0.06759246 -0.02722204 0.05341584 -0.0017948952 0.07420682
0.085889146 -0.060089964 0.06669984 -0.020105459 -0.051217522 -0.047318816 0.13317879 0.022539953
0.036147755 0.00046890593 -0.011728893 -0.04505952 0.04087655 0.022006901 0.07589481 0.04887339
0.08611837 -0.069494136 -0.062150493 -0.024856016 -0.06774386 0.03529416 -0.031221563 -0.08394125
00000000: d6c9 783c 8b0e dc3c 5b9f ab3c a5d3 53bd
00000010: 2eb3 ca39 a3b8 783a 8ea7 53bd 6eac b2bc
00000020: b673 40bd 86d3 93bd 6a54 a73d 50f8 6c3d
00000030: 5b37 97bd 6ee2 85bc 38c8 5f3d 2eb3 113d
00000040: fdef 103d 6ba1 803d ef81 d8bc 57eb cc3c
00000050: 1724 15bd 8d1e 523d 732b 413d bcf1 aebc
00000060: 7202 e0bc f958 823d dc38 38bd 9a4a 98bd
00000070: 4cbe 4ebd f85a 4dbd d768 203c f02b 373d
00000080: 7bc8 66bc 2232 103d 41ba b23c 08bc 58bd
00000090: f33b 223d 857c 343c e9e7 193c 85d7 b0bd
000000a0: 248a 0abd 9515 42bb 7734 e93b 0ae5 773d
000000b0: edb8 24bc 5a12 15bd 62bf 023c c7e9 733d
000000c0: b163 5d3d 6b0d 58bd f173 fdbb 702a 6abd
000000d0: d019 763d 8755 0f3d 611c 75bd 6518 f6bb
000000e0: 426d fe3c d2a9 80bd b832 253d a003 81bd
000000f0: 1e26 f6bc 045c 14bc b2ea 83bd e1f6 623d
00000100: f962 b9bb c049 473d b9a7 8a3d dfbf c1b9
00000110: f542 a2bc c028 c6bc 558b 9abd 3c72 27bd
00000120: 8d6f e4bc 8da2 43bd ab11 a53d 3f3b 283c
00000130: 5cce 93bd aca4 1fbc 41da 8b3d 43e0 ad3c
00000140: b81a 6bbd e18c f43a 5c8a 743d b9d6 343d
00000150: bbd6 81bc b944 87bd 202c 3abd f54b 6e3d
00000160: 4dd9 28bd 3fb8 92bd 5674 933b a312 56bd
00000170: 3b4e cabb 042b 273d 1bc8 a83c feff 45bd
00000180: e026 39bd aca6 3abd 0cc5 543d db2b 15bd
00000190: 24be a73d b89d 573d bd2f ebbb 052b 8f3d
000001a0: 0769 a73d 6b4a 8c3c b47b fc3c de4b 163d
000001b0: 2d21 52bd b216 8d3d ad68 79bd 9ae6 56bd
000001c0: 6442 53bd d13e 383b 4cfa 9fbd 387a 13bb
000001d0: 335a 47bc 23e8 97bc c57c 46bd e5d9 4c3d
000001e0: 89bc 97bc 8358 463d 6494 d1b8 b055 903d
000001f0: 7fdd 843d 1185 22bd 078f ec3a b8ca 5fbd
00000200: 3b08 10bd 8dfa 6c3b db0e a1bd 059c 0cbd
00000210: c738 193c d9df 6e3d 58df 3f3c 82a1 3cbd
00000220: 289a 693c 68de 5d3d a155 b23c 964c 783d
00000230: 00b1 d2bb 5d9e 0abd 6794 0abc f4c2 8b3d
00000240: 7270 6a3b 43a6 713c c17f 973d bae3 a5bc
00000250: abeb 95bd 7b2c 6ebc ad0b 823d acd1 a73d
00000260: 84e8 8e3d f87b 5bbd 9426 b3bc 09f4 a83d
00000270: 81b8 97bd 2c67 9fbd 508a 88bd 6b8e a13d
00000280: 7b07 8c3d 3e3a bbbc 6d13 783d 2f5e 22bc
00000290: 364a 393d 304e 94bd 5c6e 513d 7380 8bbd
000002a0: 06f0 5fbd de7f 8f3d e978 783d 5c1c 26bc
000002b0: 74a6 933c 757f a6bd 0d43 983c bcc8 3a3c
000002c0: 955e 21bd f326 853d 2f25 9a3d ba6b 973b
000002d0: fd41 5b3d 40a5 70bd aeb4 41bd 4e77 c83c
000002e0: 8b80 9e3d 9043 aebc 3830 2abc 1a9b b63c
000002f0: 17a4 4bbd b355 ef3c ad5c 14bd a0db 1abb
00000300: 645c f63c b66d 06bd d73d 78bd b4cb 2dbd
00000310: 178d 903d 184b 9c3d eb27 243d 11c5 3e3c
00000320: 0752 99bd 2b8f dcbc f7b1 a33d 8d9d 82bd
00000330: e3fb 07bd c311 b43c d4ed a2bd e9e0 0abd
00000340: 070e 27bb c8ea a63c 064b ff3c 0ebd 0c39
00000350: 1df7 4ebd 7812 b7bb ab63 a2bd 846c 323d
00000360: 13dd 3b3c a3d1 8bbd cee8 843d 5ec8 3abc
00000370: 5baa b23d 4510 643d dcc3 e9bc f28d 62bc
00000380: 767d f6bb fb18 f73c b74a 5b3c ea6d 8abd
00000390: c100 dfbc 91ca 5a3d b042 ebba bff9 973d
000003a0: a6e6 af3d e520 76bd ed99 883d 34b4 a4bc
000003b0: 77c9 51bd 60d1 41bd 0560 083e b5a5 b83c
000003c0: ab0f 143d 7dd7 f539 8b2a 40bc 5590 38bd
000003d0: 2b6e 273d d147 b43c bd6e 9b3d 772f 483d
000003e0: d45e b03d f152 8ebd 8491 7ebd d89e cbbc
000003f0: 4bbd 8abd 9c90 103d 5dc4 ffbc 64e9 abbd

layers.3.bias f4 [4]
-0.044969115 0.053444237 -0.029626248 -0.009911715
00000000: 8931 38bd 58e8 5a3d bfb2 f2bc bf64 22bc
