modeloD1.pth (torch, 253458 bytes, 6 tensors)

layers.1.weight f4 [128, 256]
0	0x3c3aa2eb	0.011391382
1	0x3df27b3f	0.118399136
2	0xbcdb4d4d	-0.026770258
3	0x3dd577f8	0.10423273
4	0xbd967922	-0.07347323
5	0x3db67130	0.089083076
6	0xbc051381	-0.008122326
7	0x3e091895	0.13388284
8	0xbd8e7643	-0.069561504
9	0x3dd065b8	0.10175651
10	0xbd4f6511	-0.050633494
11	0x3d40aa01	0.04703713
12	0x3c06790d	0.008207572
13	0x3dfe19d9	0.12407274
14	0xbc6202c2	-0.013794603
15	0x3db8534c	0.090002626
16	0xbd7fbdfc	-0.062437043
17	0x3d42ac18	0.047527403
18	0xbd90366b	-0.070416294
19	0x3de99e4e	0.11407147
20	0xbc887857	-0.016658945
21	0x3e02296c	0.12711114
22	0xbc099a2f	-0.008398577
23	0x3deea55b	0.11652633
24	0xbaf5de4e	-0.0018758269
25	0x3e04d63b	0.12972347
26	0xbd92bca3	-0.07164886
27	0x3e13ff6e	0.14452907
28	0xbd91d384	-0.071204215
29	0x3d3a0ffd	0.045425404
30	0xbd4a1b7e	-0.049342625
31	0x3d7361cf	0.05941945
32	0xbd2d1d66	-0.042264365
33	0x3ce8575d	0.02836197
34	0xbc6fa44b	-0.014626573
35	0x3d0a2433	0.03372593
36	0x3c346dba	0.011012489
37	0x3d0fce7e	0.035109036
38	0xbd0e6f5c	-0.03477417
39	0x3ddfd3d0	0.10929072
40	0x3c9ad6d1	0.01890126
41	0x3d5d21c1	0.05398727
42	0xbd6c1f68	-0.05764714
43	0x3d0c5631	0.034261886
44	0x3cf05f42	0.029342297
45	0x3d4c2c19	0.049846742
46	0xbd86900c	-0.065704435
47	0x3def44de	0.11683057
48	0x3d0235db	0.03178964
49	0x3d9f9d47	0.0779367
50	0x3c4376b1	0.011930154
51	0x3d9cc51e	0.076547846
52	0x3d2c8771	0.042121354
53	0x3d3fd6fe	0.046835892
54	0xbd9b2b3b	-0.07576605
55	0x3e52828d	0.20557614
56	0xbc4e9560	-0.012608856
57	0x3d305608	0.043050796
58	0x3cbb01f7	0.022828085
59	0x3dcfa21e	0.10138343
60	0xbcf4bde7	-0.029875709
61	0x3c9112f2	0.01770923
62	0x3d28781c	0.04113017
63	0x3c8b6d5a	0.017019916
64	0x3ceb80a8	0.028747872
65	0x3d00ccd8	0.031445354
66	0x3cdeb6d8	0.027186796
67	0x3d93ac70	0.07210624
68	0x3d057eac	0.032591507
69	0xbbc415cc	-0.0059840437
70	0x3c9b016c	0.018921576
71	0xbc3ee3cf	-0.0116509935
72	0x3d0fcf34	0.035109714
73	0xb84fdbe4	-4.9557435e-05
74	0xbcd6d570	-0.026224822
75	0x3ccea99d	0.025227362
76	0xbd6887ae	-0.05677002
77	0xbca691d7	-0.020333214
78	0xbd4a4324	-0.049380437
79	0xbb8708d9	-0.004120928
80	0xbd549084	-0.051895633
81	0x3d55b1f4	0.052171662
82	0x3c943390	0.018090993
83	0x3e884de6	0.26621932
84	0xbd1c0796	-0.038093172
85	0x3d00e89c	0.031471834
86	0xbca47257	-0.020074053
87	0xbbc865f9	-0.0061156717
88	0xbd7015b1	-0.058614437
89	0x3d3328c7	0.04374006
90	0xbd2afdb6	-0.041745864
91	0x391a0e71	0.00014691964
92	0xbcea5726	-0.028606009
93	0x3c3f264b	0.011666845
94	0xbc937abe	-0.018002864
95	0xbbabc6e4	-0.0052422155
96	0xbc80dfe4	-0.01573176
97	0x3d1c6233	0.038179588
98	0x3d364aa9	0.044504795
99	0x3da20664	0.07911375
100	0xbcf2d174	-0.02964089
101	0x3ccf125a	0.025277305
102	0x3c155888	0.009115346
103	0x3d2bd52d	0.041951347
104	0xbd8d4235	-0.068973936
105	0x3d1650f1	0.036698285
106	0xbd606a34	-0.054788783
107	0xbc1fc9aa	-0.00975267
108	0xbd0e8a47	-0.03479984
109	0x3d738e97	0.059462156
110	0x3c4e5342	0.012593092
111	0x3d5dbf9c	0.05413781
112	0x3c1c8309	0.009552726
113	0x3d865035	0.06558267
114	0x3c686e74	0.01418649
115	0x3c00f874	0.007871736
116	0xbd44682b	-0.047950905
117	0xbccc2037	-0.024917705
118	0x3ca2af90	0.019859105
119	0x3c8bd435	0.017068962
120	0x3ce3669e	0.027758893
121	0xba2c835e	-0.00065808545
122	0x3cf7189a	0.030163098
123	0xbd0aed10	-0.033917487
124	0xbd8b7064	-0.06808546
125	0xbd04c3bd	-0.032413233
126	0xbb050b86	-0.0020301058
127	0x3d87df76	0.06634419
128	0x3aca89ba	0.0015452423
129	0xbd2cd8d2	-0.042198963
130	0x3ce46f95	0.027885238
131	0x3d190c55	0.037365276
132	0x3cb0dff2	0.02159116
133	0xbcb40b33	-0.021977996
134	0xbd86d19d	-0.06582949
135	0xbc2b1979	-0.010443085
136	0xbd85bbf7	-0.06529992
137	0xbc7a426d	-0.015274626
138	0x3c977dc4	0.018492587
139	0x3d174611	0.036932055
140	0x3ccb182f	0.024791805
141	0xbd178990	-0.036996424
142	0xbcd0d570	-0.0254924
143	0x3d1743cf	0.0369299
144	0xbc205cd2	-0.009787755
145	0x3c88d550	0.016703278
146	0xbcdd3804	-0.02700425
147	0x3d206961	0.039162997
148	0xbb4aeb82	-0.0030963128
149	0x3d2d00c1	0.042237047
150	0xbd002898	-0.031288713
151	0x3d33afe9	0.043868933
152	0xbb49890c	-0.0030751852
153	0x3d4b7252	0.04966957
154	0xbd4d05b9	-0.050054286
155	0xbc93fe2f	-0.01806554
156	0xbd0f5c38	-0.035000056
157	0xbc61d10b	-0.01378275
158	0x3c7126c4	0.014718715
159	0xbd128ce8	-0.03577891
160	0x3d40a4c9	0.04703215
161	0x3d132493	0.03592355
162	0x3d354fef	0.044265684
163	0x3d6cb384	0.057788387
164	0xbd611e02	-0.05496026
165	0x3d6c5580	0.057698727
166	0x3baa9dfb	0.005206821
167	0xbd098347	-0.03357246
168	0xbce5140c	-0.02796366
169	0x3d7be1ce	0.06149464
170	0xbc8bb98f	-0.017056255
171	0x3d056cef	0.03257459
172	0xbc07bef3	-0.008285272
173	0x3d70d281	0.058794502
174	0xbceb8de5	-0.028754184
175	0xbb853389	-0.0040649814
176	0xbd63d61f	-0.055624124
177	0x3d6c2a3f	0.057657477
178	0x3c9b2f25	0.018943379
179	0xbcddbba0	-0.027067006
180	0xbd49a012	-0.04922492
181	0x3c89429e	0.016755398
182	0x3bcc7e18	0.0062406175
183	0x3d6626e3	0.05618943
184	0xbcaa569a	-0.020793248
185	0x3dfb85f5	0.1228141
186	0xbd419f28	-0.047270924
187	0x3d9e7035	0.077362455
188	0xbced4f29	-0.02896841
189	0x3d293750	0.041312516
190	0x3d33e6d1	0.043921296
191	0x3dff3698	0.12461585
192	0xbcee1249	-0.029061453
193	0x3dc3a3a6	0.09552698
194	0xbc3a1c9b	-0.011359359
195	0x3cfbc6a7	0.030734373
196	0xbcd92412	-0.026506457
197	0x3dbb9399	0.091590114
198	0xbd8d3ccc	-0.06896362
199	0x3d0e1feb	0.034698408
200	0x3cb9758a	0.022639055
201	0x3d5ba9ee	0.053628854
202	0xbd23a1ec	-0.039949343
203	0x3ddbf847	0.107407145
204	0x3c807631	0.015681358
205	0x3e0bad96	0.13640437
206	0x3c930077	0.017944558
207	0x3e813f55	0.2524363
208	0xbcfbb313	-0.030725038
209	0x3e0891c6	0.13336858
210	0x3ce6004b	0.028076312
211	0x3ca48653	0.020083582
212	0xbc9e4cf0	-0.019323796
213	0x3d86dd45	0.065851726
214	0xbd927770	-0.07151687
215	0x3db41701	0.0879345
216	0x3d21143e	0.039325945
217	0x3da88d46	0.08230071
218	0xbd7412a2	-0.059588082
219	0x3c589cd6	0.013220986
220	0xbb6cdbff	-0.003614187
221	0x3d3b3216	0.045702063
222	0x3c5e5bab	0.01357166
223	0x3e02817f	0.12744711
224	0xbd81ec73	-0.06343927
225	0x3ddbfeb4	0.1074194
226	0xbb7393bc	-0.0037166914
227	0x3e088834	0.13333207
228	0xbc3da89d	-0.011575845
229	0x3da501f8	0.08057016
230	0xbd243e69	-0.04009858
231	0x3d317918	0.043328375
232	0xbd17a2c0	-0.037020445
233	0x3d214ee0	0.03938186
234	0xbd98226c	-0.074284405
235	0x3dff03fb	0.12451931
236	0xbd933382	-0.07187559
237	0x3dcb87e6	0.0993803
238	0x3ca12722	0.01967198
239	0x3e076421	0.1322179
240	0xbd61f1c1	-0.055162195
241	0x3dbf8931	0.09352339
242	0xbd52317c	-0.051316723
243	0x3e0cb50e	0.13740942
244	0xbd2ee672	-0.04270024
245	0x3cc5ae00	0.024130821
246	0x39d58122	0.00040722737
247	0x3d8e75f4	0.069560915
248	0xbb0544ef	-0.0020335277
249	0xbcd737b5	-0.02627168
250	0x3d3d92f9	0.046282742
251	0x3d55ed08	0.052228004
252	0x3b020524	0.001983949
253	0x3d7cf8b8	0.061760634
254	0xbcd9be1a	-0.026579905
255	0xbcded67c	-0.027201883

layers.1.bias f4 [128]
0	0x3c1ebff0	0.009689316
1	0xbcaa4822	-0.020786349
2	0xbc7c90c6	-0.015415376
3	0x3cc0c4d8	0.023531362
4	0x3d7fc43a	0.062442996
5	0x3d5335bd	0.05156492
6	0xbd71fdd5	-0.059079964
7	0x3cd9eb1e	0.02660137
8	0xbcada29f	-0.021195708
9	0x3bb0bf77	0.005393918
10	0x3d6027d2	0.054725476
11	0x3ce15ee8	0.027511075
12	0xbd023709	-0.031790767
13	0xbd1322bf	-0.03592181
14	0xbd9b7c8e	-0.07592116
15	0x3d658ec0	0.05604434
16	0x3bc10fc4	0.005891772
17	0x3da0640e	0.07831584
18	0xbcd6a5bf	-0.02620208
19	0xbcfb4546	-0.03067268
20	0x3d5252d4	0.051348522
21	0xbd842e2e	-0.064541206
22	0xbc436c2c	-0.011927646
23	0xbd467f7b	-0.04846142
24	0xbd7c1580	-0.06154394
25	0xbc5d87af	-0.013521119
26	0x3d2f8314	0.042849615
27	0x3d86393c	0.06553885
28	0x3b014fb6	0.001973135
29	0xbce247ec	-0.027622186
30	0x3bb85b4a	0.005626117
31	0x3dd09597	0.10184782
32	0xbc650233	-0.013977575
33	0xbc1f9563	-0.009740206
34	0xbd7dc466	-0.06195488
35	0xbd35bb31	-0.044367973
36	0x3cd83cef	0.026396243
37	0xbc9c737b	-0.019098034
38	0xbc61d290	-0.013783112
39	0x3c99e933	0.018787956
40	0xbcaaacd3	-0.020834362
41	0x3b172478	0.0023062509
42	0xbd80ec09	-0.0629502
43	0x3cc5815c	0.024109535
44	0xbd2aa8fb	-0.04166506
45	0xbd9e948f	-0.07743179
46	0x3c5fa119	0.0136492485
47	0x3d55a441	0.052158598
48	0x3d89f92f	0.06736981
49	0xbd93d4b2	-0.07218303
50	0x3d82754f	0.06370031
51	0x3d5a3a26	0.05327811
52	0xbd0fafee	-0.03507989
53	0x3c071abe	0.008246122
54	0xbcdbd9c7	-0.026837243
55	0xbd6a1200	-0.057146072
56	0xbd56b6c9	-0.05242041
57	0x3a6882e1	0.00088696
58	0xbd152b98	-0.036418527
59	0x3dae9490	0.0852443
60	0xbcdcc286	-0.026948225
61	0x3c64428f	0.013931884
62	0x3d1e6e0c	0.038679168
63	0xbcb68fea	-0.02228542
64	0x3b14b440	0.0022690445
65	0x3cea8dfa	0.028632153
66	0x3cd20987	0.025639309
67	0xbc905ead	-0.01762327
68	0x3ccd4635	0.025057891
69	0x3cf4d687	0.02988745
70	0xbd1f6432	-0.038913913
71	0x3d20b102	0.039231308
72	0xbc6355fe	-0.013875483
73	0xbc8832a7	-0.016625715
74	0x3d938ba9	0.072043724
75	0x3976475c	0.00023486972
76	0x3d9f8a1f	0.077900164
77	0x3c6635bf	0.0140509
78	0xbd92516e	-0.07144438
79	0xbd040f53	-0.032241177
80	0x3d3ff852	0.046867676
81	0xbd340670	-0.04395145
82	0x3dc1b457	0.09458225
83	0x3cd8c206	0.026459705
84	0xbd689261	-0.056780223
85	0xbd80f276	-0.06296246
86	0xbbbdc04f	-0.0057907472
87	0x3d438a24	0.047739163
88	0xbd819a60	-0.06328273
89	0x3d05844f	0.032596882
90	0xbd198502	-0.03748036
91	0xbda8f0dd	-0.08249066
92	0x3d25d6da	0.0404881
93	0x3bcae868	0.0061922558
94	0xbd45695f	-0.048196193
95	0x3cadbc7e	0.021208044
96	0xbd68d3ea	-0.056842722
97	0x3c8ad9fa	0.016949642
98	0x3d533a54	0.051569298
99	0xbdb1f54e	-0.08689366
100	0x3d4d9181	0.05018759
101	0x3d39ff98	0.04540977
102	0x3d6d8655	0.057989437
103	0xbd7c1754	-0.061545685
104	0x3c5d05d5	0.01349016
105	0x3d7353fc	0.059406266
106	0x3c83d6f9	0.016093718
107	0x3c3cdc97	0.011527202
108	0x3d864a89	0.06557185
109	0xbd9e8b1d	-0.077413775
110	0x3c609a65	0.0137086855
111	0x3d594e6f	0.053053316
112	0xbc9d859f	-0.019228755
113	0x3d98ed02	0.07467081
114	0x3c846b90	0.016164571
115	0x3c8f5700	0.01749754
116	0x3c664b8b	0.014056097
117	0xbd2320c7	-0.03982618
118	0x3d49ef7f	0.049300667
119	0xbd808b24	-0.06276539
120	0xbd077534	-0.033070758
121	0x3d86481c	0.065567225
122	0xbc68baaf	-0.014204665
123	0x3d87b43d	0.066261746
124	0x3dd42420	0.10358453
125	0x3d18a58d	0.037267257
126	0xbd19ef86	-0.037581943
127	0xbdab4c00	-0.08364105

layers.2.weight f4 [224, 128]
0	0xbd8475b6	-0.06467764
1	0xbdade5a2	-0.084910646
2	0x3d855ada	0.06511469
3	0xbd69bd58	-0.057065338
4	0xbcd5dbbd	-0.026105756
5	0xbe0cf117	-0.13763843
6	0x3b894c06	0.004189971
7	0xbd21dbdd	-0.03951632
8	0xbd95fd8e	-0.07323752
9	0xbd086472	-0.033298917
10	0x3d92a401	0.071601875
11	0x3d8d4128	0.06897193
12	0x3b73ad73	0.0037182241
13	0x3d5686d1	0.052374665
14	0xbd1fb327	-0.038989212
15	0xbc810108	-0.015747562
16	0x3ba41ef8	0.0050085746
17	0xbd95be8d	-0.07311735
18	0xbc197e7d	-0.009368536
19	0x3d03fde5	0.032224555
20	0xbd662116	-0.056183897
21	0xbce86763	-0.028369611
22	0x3d518853	0.0511554
23	0x3cdc24d0	0.026873022
24	0xbcaf7c7c	-0.021421663
25	0x3d676606	0.05649378
26	0x3d7682f0	0.060183465
27	0xbd706e3e	-0.058698885
28	0x3d349c66	0.044094466
29	0x3d7c1fba	0.061553694
30	0x3d625ca1	0.05526412
31	0xbc63fd49	-0.013915368
32	0x3bbc830e	0.0057529276
33	0x3d2aae95	0.0416704
34	0xbbf3fdd0	-0.0074460283
35	0xbe028255	-0.1274503
36	0x3da49c94	0.080376774
37	0xbcfbcedb	-0.030738285
38	0x3d26d367	0.040728953
39	0xbc27cb0b	-0.01024128
40	0xbd392b6e	-0.045207433
41	0x3dac94db	0.084268294
42	0x3db1f5a0	0.086894274
43	0xbb1db473	-0.0024063855
44	0xbd0e7069	-0.03477517
45	0xbd7be7f9	-0.061500523
46	0x3da0b117	0.07846277
47	0x3d9df843	0.07713368
48	0xbd95b185	-0.0730925
49	0xbd32a1c4	-0.043611303
50	0x3cfcb035	0.03084574
51	0x3da48b62	0.08034398
52	0x3cbee81e	0.023304041
53	0x3cc0932c	0.023507677
54	0xbd38d6b2	-0.045126624
55	0x3ccb2e78	0.024802431
56	0xbd8253f8	-0.06363672
57	0xbd4b3d7d	-0.049619187
58	0xbb391609	-0.0028241894
59	0xbda52224	-0.080631524
60	0xbe24fdec	-0.16112489
61	0x3d0a9db9	0.033841822
62	0x3d62b510	0.055348456
63	0x3d79ea91	0.061014716
64	0xbc92979c	-0.017894559
65	0xbd793db2	-0.060849853
66	0x3d9dbe18	0.07702273
67	0x3dbfe2e3	0.09369447
68	0x3b3d3c00	0.0028874874
69	0xbcc66396	-0.024217408
70	0xbd8b62fd	-0.0680599
71	0x3c9b1c84	0.018934496
72	0x3d587d66	0.052853964
73	0xbc5895ab	-0.013219277
74	0x3d393213	0.04521377
75	0x3d13787c	0.036003575
76	0x3c3c2bac	0.011485022
77	0xbd596659	-0.053076122
78	0xbbdef74d	-0.006804383
79	0xbcc74200	-0.024323463
80	0xbd772a59	-0.06034312
81	0x3d2f43f0	0.0427894
82	0x3dcced46	0.10006194
83	0x3c80c1dc	0.01571744
84	0x3b6761e6	0.0035306155
85	0x3ac55d4e	0.0015057714
86	0xbbc05664	-0.0058696736
87	0x3b3cc70f	0.0028805172
88	0x3d61b657	0.055105533
89	0x3cff1a41	0.031140449
90	0xbce5efd7	-0.028068466
91	0xbb52206a	-0.0032062777
92	0x3d811bfb	0.06304165
93	0xbc0415a3	-0.008061799
94	0x3d21ae6a	0.039472975
95	0xbd8fdcc5	-0.0702453
96	0xbd5cd9b7	-0.053918567
97	0x3ca63c0d	0.020292306
98	0x3d823f9c	0.06359789
99	0xbd6aa6c8	-0.05728796
100	0x3d8cdb04	0.068777114
101	0xbd518709	-0.05115417
102	0xbd4e1096	-0.050308786
103	0x3bbab4ab	0.005697807
104	0x3d0bc93b	0.034127455
105	0x3c2ad7ab	0.010427396
106	0x3d222a66	0.039591216
107	0xbd63cd0e	-0.055615477
108	0x3d63844d	0.055546094
109	0x3d3e26dd	0.04642378
110	0xbd1b0a71	-0.037851755
111	0x3d1bfec5	0.038084764
112	0x3c3e7569	0.011624672
113	0xbca37555	-0.01995341
114	0xbda12ffe	-0.07870482
115	0xbd597185	-0.053086776
116	0x3b1f8254	0.0024339156
117	0xbcc5e73c	-0.024158113
118	0x3cc89370	0.024484366
119	0xbb9f02ff	-0.004852652
120	0x3d86391c	0.065538615
121	0xbda4f864	-0.08055189
122	0x3daeb928	0.085314095
123	0x3d792998	0.060830683
124	0x3ca0c6ba	0.01962601
125	0xbba96ded	-0.005170575
126	0x3ca27d2f	0.019835083
127	0xbd7071e2	-0.058702357
128	0xbe13362f	-0.14376138
129	0xbdbdc90c	-0.09266862
130	0x3d8b28eb	0.06794914
131	0xbad7e7a9	-0.0016472238
132	0xbd802346	-0.06256728
133	0x3d134662	0.035955794
134	0xbd82bd6b	-0.06383785
135	0xbd1d043b	-0.038334113
136	0x3d4857db	0.04891191
137	0xbbbf0a03	-0.005830051
138	0xbd000018	-0.03125009
139	0x3cae1584	0.021250494
140	0xbd41ab47	-0.047282483
141	0xbd803336	-0.06259768
142	0x3bd508c1	0.0065012877
143	0xbd91dcac	-0.07122168
144	0x3d7c72fc	0.061633095
145	0xbb07ba98	-0.0020710584
146	0x3bd7f801	0.0065908437
147	0xbdb6e210	-0.08929837
148	0xbd5f6c77	-0.0545468
149	0x3db60085	0.08886818
150	0xbd312be4	-0.043254748
151	0xbc4f7fa4	-0.012664709
152	0xbd648ecb	-0.05580024
153	0x3d0eca9c	0.034861192
154	0xbd1b04fc	-0.03784655
155	0xbced4cbd	-0.028967256
156	0xbd2a2c6f	-0.04154628
157	0xbd9c4357	-0.076300316
158	0xbddf2bec	-0.10897049
159	0x3dbccadb	0.09218379
160	0x3d43dd22	0.04781831
161	0xbcf70fa3	-0.030158823
162	0x3d4ce364	0.050021544
163	0x3cd7c1b1	0.026337476
164	0x3c895c38	0.016767606
165	0xbd9cbb2a	-0.07652886
166	0x3d52d083	0.051468384
167	0xbc158b70	-0.009127483
168	0xbd48958d	-0.048970748
169	0x3d0d2c81	0.03446627
170	0xbbd17440	-0.006392032
171	0x3b8305e4	0.003998505
172	0x3da16f2b	0.07882532
173	0xbd94820a	-0.072513655
174	0x3d547f00	0.05187893
175	0xbd8cbd7c	-0.06872079
176	0x3d2b0c35	0.04175969
177	0x3da96a76	0.08272259
178	0x3d846589	0.06464679
179	0x3d0b6dae	0.034040146
180	0x3c69f209	0.014278897
181	0x3d9f96dc	0.07792446
182	0xbce9e7d3	-0.028552925
183	0xbda6228b	-0.08112057
184	0x3cb09c01	0.021558763
185	0x39f9e73a	0.00047665258
186	0x3d088b3f	0.03333592
187	0xbd35c811	-0.04438025
188	0xbe0c5fe5	-0.13708456
189	0xbd124d81	-0.035718445
190	0xbdc191c5	-0.094516315
191	0xbd332ec1	-0.04374576
192	0x3d971f9a	0.073790744
193	0xbd335f7d	-0.043792237
194	0x3d72ff45	0.059325475
195	0xbc830603	-0.015994078
196	0x3ccc674f	0.024951605
197	0xbd53780e	-0.051628165
198	0x3da942a4	0.08264664
199	0x3be2151c	0.006899489
200	0x3dbdff9f	0.092772715
201	0x3dbcd1b3	0.092196845
202	0x3d83f62e	0.064434394
203	0xbd52b087	-0.05143788
204	0xbdd26b9e	-0.102744326
205	0xbbbf3468	-0.0058351047
206	0xbd4de06b	-0.05026285
207	0xbd9cd082	-0.07656957
208	0x3cac2467	0.021013452
209	0xbca1bfe0	-0.019744813
210	0x3dd72e29	0.10506851
211	0x3d2bea61	0.041971568
212	0x3cc29f10	0.023757488
213	0xbd9b3434	-0.07578316
214	0xbcc6d102	-0.024269585
215	0xbda9ff57	-0.08300655
216	0xbb0e4d84	-0.0021713683
217	0xbd1bbdb5	-0.038022716
218	0xbd802a15	-0.062580265
219	0x3b044ce7	0.002018744
220	0xbd63b1d5	-0.055589516
221	0xbd2e69b1	-0.042581264
222	0x3d8cb166	0.068697736
223	0x3dbcc788	0.09217745
224	0xbd720d9e	-0.059095018
225	0x3cc33c75	0.02383254
226	0xbc5a6e2e	-0.013331933
227	0x3d0c7cae	0.03429859
228	0x3c63403d	0.013870296
229	0xbc2224d8	-0.00989648
230	0xbda691e5	-0.08133296
231	0xbd81810b	-0.06323441
232	0xbd291be1	-0.041286353
233	0x3d51f04e	0.051254563
234	0x3d35851a	0.04431639
235	0x3d27cdd6	0.040967785
236	0x3c1cb86f	0.009565457
237	0x3ca31edd	0.019912178
238	0x3d89426b	0.06702121
239	0x3d0d867c	0.034552082
240	0xbb691e6f	-0.0035571118
241	0xbd5d15c8	-0.05397585
242	0x3d9f7775	0.077864565
243	0x3d9c6941	0.07637263
244	0xbd191873	-0.037376832
245	0x3d4166d0	0.04721719
246	0xbb701bc2	-0.0036637639
247	0xbc0c237f	-0.008553385
248	0xbda08a16	-0.07838838
249	0xbca7d700	-0.020488262
250	0xbd6219b9	-0.055200312
251	0xbc563385	-0.013073807
252	0x3d9bd0a7	0.07608157
253	0xbc7ada1a	-0.0153107885
254	0xbd3ccfda	-0.04609666
255	0x3c8b4db3	0.017004823

layers.2.bias f4 [224]
0	0x3d8a8aa4	0.06764725
1	0xbd97b300	-0.074071884
2	0x3d3ea974	0.04654832
3	0x3d8c5fd9	0.06854219
4	0x3d2997f6	0.041404687
5	0x3cdd2717	0.026996179
6	0x3db1e9dc	0.08687183
7	0x3d13da2a	0.03609673
8	0x3d0f774f	0.03502589
9	0xbbe2eafe	-0.006924986
10	0x3c57e144	0.013176266
11	0xbd9d0ad0	-0.07668078
12	0xbdabab25	-0.083822526
13	0x3bbf9347	0.0058464142
14	0xbd531e1f	-0.051542398
15	0xbd36a6d5	-0.044592697
16	0xbbee6cd5	-0.0072761574
17	0xbd65f8ef	-0.056145605
18	0xbd8cbc5f	-0.068718664
19	0xbbba96aa	-0.00569423
20	0x3d74dd65	0.05978145
21	0xbd747d72	-0.059689946
22	0x3d4574be	0.048207037
23	0xbd371995	-0.04470213
24	0x3d1d227e	0.038362972
25	0xbc8499d2	-0.016186628
26	0xbd9f3310	-0.07773411
27	0x3d29bbf2	0.041439004
28	0x3d12f314	0.03587635
29	0x3bdc0097	0.0067139375
30	0xbd7c245e	-0.06155812
31	0xbcd47c7f	-0.02593827
32	0x3c9162f5	0.017747382
33	0xbd8e6f82	-0.06954862
34	0x3d90e9d7	0.070758514
35	0xbda36279	-0.079777665
36	0x3cab1b57	0.02088706
37	0xbd37f185	-0.044908065
38	0x3d562a10	0.052286208
39	0xbdca7e4c	-0.098873705
40	0x3d4164d6	0.047215305
41	0x3bcd5e2d	0.00626733
42	0xbd8fca49	-0.07021005
43	0x3c9d676f	0.01921436
44	0x3c808f57	0.01569335
45	0xbd903db8	-0.07043022
46	0xbd98b98b	-0.074572645
47	0xbb8b2151	-0.004245915
48	0xbcdabae8	-0.026700452
49	0xbd387962	-0.045037635
50	0xba867ca7	-0.0010260538
51	0x3c9306c7	0.017947568
52	0x3ccd8125	0.025085995
53	0x3b93af23	0.004506962
54	0xbd842aac	-0.064534515
55	0x3cca85ad	0.024721945
56	0x3c993b68	0.018705085
57	0x3d819f32	0.06329192
58	0x3dc5f4ab	0.09665807
59	0x3d65b1f0	0.056077898
60	0xbd616625	-0.055029053
61	0x3db89af1	0.09013928
62	0xbcc8e1fc	-0.02452182
63	0xbc6b1948	-0.014349289
64	0xbd0e5c1a	-0.034755804
65	0xbd201835	-0.039085586
66	0x3dc3c704	0.095594436
67	0xbd770acf	-0.060313042
68	0xbdcbb07d	-0.09945772
69	0x3d801ca7	0.06255465
70	0xbdb00c02	-0.0859604
71	0xbd8c9282	-0.06863882
72	0x3d2b7626	0.041860722
73	0x3cc8e6fa	0.0245242
74	0x3d0269b0	0.031839073
75	0x3d91d8b2	0.071214095
76	0x3d95b820	0.0731051
77	0x3cde939d	0.027169997
78	0x3d8e8bd9	0.069602676
79	0xbd614dd6	-0.05500587
80	0xbdaefad9	-0.08543939
81	0xbdaa6296	-0.08319585
82	0x3d3a0ba0	0.045421243
83	0xbc552e26	-0.013011491
84	0x3d8235ad	0.06357894
85	0x3d86a320	0.065740824
86	0x3d52487b	0.051338654
87	0xbcc7215e	-0.024307903
88	0xbdbf8b9d	-0.09352801
89	0xbcb7700b	-0.022392293
90	0x3d29d6e9	0.04146472
91	0x3d4a49e3	0.04938687
92	0x3d984745	0.074354686
93	0xbd299fc8	-0.041412145
94	0xb9f3b7c4	-0.00046485488
95	0x3d23e0c7	0.040009286
96	0x3db0e021	0.08636499
97	0xbcc1cf97	-0.023658557
98	0x3b7f3894	0.0038943635
99	0x3d753e97	0.059874143
100	0x39d195cb	0.0003997519
101	0xbd30b1c6	-0.043138288
102	0xbdb5bf17	-0.08874338
103	0x3bae45e1	0.005318389
104	0xbc51ad71	-0.012797699
105	0xb90bfe33	-0.0001335077
106	0x3d9db8b0	0.07701242
107	0x3cd46522	0.02592713
108	0xbc654ad8	-0.013994895
109	0xbdbe7975	-0.0930051
110	0x3d2440f2	0.040101
111	0xbd9e83eb	-0.07740005
112	0x3cf5c84f	0.030002741
113	0x3cabc98b	0.020970127
114	0x3c9f8e00	0.01947689
115	0xbd6e7bf9	-0.0582237
116	0x3d8d902c	0.06912264
117	0xbc90c19b	-0.017670443
118	0x3d817fad	0.0632318
119	0xbd1029ec	-0.03519623
120	0x3a145cab	0.00056595606
121	0x3c895d21	0.01676804
122	0xbc623b1e	-0.01380804
123	0x3d8b6560	0.06806445
124	0xbca95377	-0.020669682
125	0xbc6270ff	-0.013820886
126	0xbd44fcbb	-0.048092585
127	0x3d83c50b	0.06434067
128	0x3c05c551	0.00816472
129	0xbd7d93e5	-0.06190862
130	0xbbcbd50e	-0.0062204665
131	0x3d490d8f	0.049085196
132	0x3d938f2e	0.07205044
133	0xbba3a7fd	-0.004994391
134	0xbd12b431	-0.035816375
135	0xbc75081e	-0.014955549
136	0x3be5eb39	0.007016566
137	0xbd98a8b1	-0.0745405
138	0xbbdd8eb6	-0.0067613972
139	0x3c22ad74	0.00992905
140	0xbc876f33	-0.016532516
141	0x3d047be3	0.03234471
142	0xbd330b2a	-0.04371182
143	0xbb3b42e6	-0.002857381
144	0x3d3d3e59	0.046202037
145	0x3cd66d65	0.02617521
146	0x3d89596d	0.0670651
147	0xbd04890b	-0.032357257
148	0xbb3f7d24	-0.0029218877
149	0x3d881ca4	0.06646088
150	0x3d479a04	0.048730865
151	0x3d4e205d	0.050323833
152	0x3d8657fc	0.065597504
153	0xbd369870	-0.04457897
154	0x3d8b19fc	0.067920655
155	0x3d0fa9bb	0.035073977
156	0xbd8cb66d	-0.068707325
157	0xba93077f	-0.0011217444
158	0xbcc0b947	-0.023525847
159	0x3d337519	0.043812845
160	0xbda4b7f5	-0.080428995
161	0xbd62e658	-0.055395454
162	0x3cf7dac3	0.03025568
163	0xbc868b81	-0.016423943
164	0x3c94431f	0.018098412
165	0xbd5d4d0a	-0.05402855
166	0x3d1fed72	0.039044805
167	0x3dabc673	0.083874606
168	0x3d3711ae	0.044694595
169	0xbca08017	-0.019592328
170	0x3d140723	0.03613962
171	0x3c818db4	0.01581464
172	0x3d921e8d	0.07134733
173	0xbb97194a	-0.004611169
174	0x3d9ac04a	0.075562075
175	0x3aa86363	0.0012847002
176	0x3c175585	0.009236698
177	0xbdaaf310	-0.08347142
178	0xbca533c8	-0.020166293
179	0x3d062b83	0.03275634
180	0x3c8e453f	0.017367003
181	0xbd157208	-0.0364857
182	0x3d9aecd1	0.075647004
183	0x3ce64f4b	0.028113982
184	0xb800a728	-3.0673255e-05
185	0x3dbf430c	0.0933896
186	0xbd7aaa39	-0.061197493
187	0xbcaff74e	-0.021480229
188	0xbcd503bb	-0.026002755
189	0x3d37ad82	0.044843204
190	0x3c50fc4c	0.012755465
191	0xbb853c24	-0.004066007
192	0xbd43e23d	-0.04782318
193	0xbcf63ddd	-0.030058796
194	0x3d499180	0.049211025
195	0xbd38c116	-0.045106016
196	0x3d02b0b0	0.031906784
197	0xbcdcdc1c	-0.026960425
198	0xbd5cacaa	-0.053875603
199	0xbd5aee7f	-0.053450104
200	0xb61c9bc0	-2.333647e-06
201	0x3b3d6922	0.0028901775
202	0x3d673899	0.05645046
203	0x3da45b4d	0.08025227
204	0x3b70fbe9	0.0036771244
205	0xbdb07b89	-0.086173125
206	0xbc827f1f	-0.015929757
207	0x3d39d00a	0.045364417
208	0x3d107d0f	0.035275515
209	0xbd5dcd7a	-0.054151036
210	0x3daf00f8	0.08545107
211	0x3d54d644	0.051962152
212	0xbc3397d8	-0.010961495
213	0xbd06b8fb	-0.032891255
214	0xbd1f15de	-0.038839214
215	0x3d40517b	0.046952706
216	0x3d94a22c	0.07257494
217	0xbd4dc3dd	-0.050235618
218	0xbcd37753	-0.025813734
219	0xbae9ce4b	-0.0017837969
220	0xbd9c563e	-0.07633637
221	0x3b50e1df	0.003187291
222	0x3c834a21	0.016026558
223	0x3c66f0ed	0.014095527

layers.3.weight f4 [4, 224]
0	0x3aac290c	0.0013134792
1	0xbd7d3e3d	-0.061826933
2	0x385e8fbc	5.3062788e-05
3	0x3d494065	0.049133677
4	0xbad696f5	-0.0016371893
5	0x3d926f20	0.07150102
6	0x3bb37a0b	0.005477195
7	0x3c987b3e	0.018613454
8	0x3b8e5dad	0.004344663
9	0xbcbbf5fd	-0.022944445
10	0xbd109a5a	-0.03530345
11	0x3cbb3376	0.022851687
12	0xbc9cc623	-0.019137448
13	0xbca7fed1	-0.020507248
14	0xbcd94ef4	-0.026526906
15	0x3bc332a2	0.0059569636
16	0xbd3d7a64	-0.0462593
17	0xbce00ec2	-0.027350787
18	0xbc4c60ef	-0.012474283
19	0x3d203915	0.039116938
20	0xbd42730c	-0.047473
21	0xbbcebb33	-0.006308937
22	0xbd2ef891	-0.04271752
23	0xbd0d4c53	-0.034496617
24	0x3bece784	0.0072297473
25	0x3c8bedf2	0.017081235
26	0xbd44bde9	-0.048032675
27	0x3d04845e	0.032352798
28	0xbd35dd4b	-0.044400495
29	0x3c93a5ea	0.01802345
30	0xbcfc4bdc	-0.030797891
31	0xbd4ce60a	-0.05002407
32	0xbd8f0d5f	-0.06984972
33	0x3bf25ceb	0.0073963306
34	0xbd5ec670	-0.054388463
35	0x3c1a39fa	0.009413237
36	0xbd50d14b	-0.050980847
37	0xbcc02b72	-0.023458216
38	0xbd4a6bdf	-0.04941928
39	0x3d065821	0.03279889
40	0xbc846d20	-0.016165316
41	0x3d0ec08b	0.034851592
42	0x3beb6258	0.0071833543
43	0x3c45831f	0.0120551875
44	0xbc97364b	-0.018458506
45	0xbc4f1857	-0.01264008
46	0x3cd04650	0.025424153
47	0xbd889f0c	-0.06670961
48	0xbc7fa42c	-0.0156031065
49	0xbd2f50da	-0.042801715
50	0xbc763983	-0.01502836
51	0x3b0bbcaa	0.002132217
52	0xbb2a5f01	-0.0025996568
53	0x3d1c25c6	0.03812196
54	0x3ca41672	0.020030234
55	0xbd5ff47c	-0.054676518
56	0xbd57d180	-0.05269003
57	0x3cc2c5d6	0.023775976
58	0xbb73c190	-0.003719423
59	0xbd393ff5	-0.04522701
60	0xbd1376f5	-0.03600212
61	0xbc152f1b	-0.009105469
62	0xbc01c0a1	-0.0079194615
63	0xbd0fecec	-0.035138056
64	0xbb8b1bda	-0.0042452635
65	0x3c95b78e	0.018276002
66	0xbc3361a2	-0.01094857
67	0x3bd17c4d	0.0063929916
68	0x3cc25522	0.023722235
69	0x3cda6157	0.026657743
70	0x3c83c6d5	0.016086021
71	0xbc9878bc	-0.018612258
72	0x3d83c706	0.06434445
73	0xbd50e6b8	-0.05100128
74	0x3b3dfa76	0.0028988398
75	0xbdc48477	-0.09595578
76	0x3d45dee6	0.048308276
77	0xbd13203c	-0.035919413
78	0xbd3f670f	-0.046729144
79	0xbcc482d2	-0.023988161
80	0x3c65cbe3	0.014025661
81	0xbd033c1d	-0.03203975
82	0xbb914662	-0.004433439
83	0xbaffb760	-0.0019509606
84	0xbd23e7ef	-0.04001611
85	0xbbdbaa3d	-0.0067036436
86	0xbce70994	-0.02820281
87	0x3cba0231	0.022706123
88	0x3cffaa5f	0.031209169
89	0xbd1cd6c5	-0.038290758
90	0xbc027615	-0.007962723
91	0x3bf3f5a1	0.0074450527
92	0xbbc9531d	-0.006143941
93	0x3d036d71	0.032086793
94	0xbd174f9c	-0.036941156
95	0x3c998d9a	0.018744279
96	0xbd26472e	-0.040595226
97	0xbd592834	-0.053016856
98	0x3c8c2673	0.017108178
99	0x3d67c3a7	0.056583073
100	0xbcdc3230	-0.0268794
101	0x3b0fd68c	0.0021947948
102	0x3ab1665a	0.0013534531
103	0xbce191eb	-0.0275354
104	0xbc05ca39	-0.008165889
105	0x3b00cd98	0.0019653793
106	0xbc9587b0	-0.018253177
107	0xbcab8cfb	-0.020941248
108	0xbcc35682	-0.023844961
109	0x3cc45a34	0.023968793
110	0x3c1183b4	0.008881498
111	0xbc861361	-0.016366662
112	0xba44ea79	-0.0007511746
113	0xbc8b1fbb	-0.016982904
114	0x3d31afae	0.04338043
115	0x3d8fba73	0.07017984
116	0x3ca12efd	0.019675726
117	0x3d12dc77	0.035854783
118	0xbda4e5cd	-0.080516435
119	0x3ce29d68	0.027662948
120	0x3d1c3d6f	0.038144525
121	0xbd1d33b3	-0.038379382
122	0xbc30ce5b	-0.0107913865
123	0xbce249c4	-0.027623065
124	0x3cb5a115	0.022171536
125	0x3d018e72	0.031629987
126	0x3c0a2c49	0.00843341
127	0xbd029031	-0.031875793
128	0xba083f2d	-0.0005197402
129	0xbce3ab15	-0.02779154
130	0xbd0a23d3	-0.03372557
131	0xbce97ec0	-0.028502822
132	0xbd24e8a2	-0.04026092
133	0x3b0e3919	0.0021701513
134	0x3cc228f6	0.023701172
135	0xbd037947	-0.03209808
136	0xbcde0a42	-0.0271045
137	0x3c8b2de0	0.016989648
138	0x3cc033ac	0.02346214
139	0xbd1034bd	-0.035206545
140	0xbca21766	-0.019786548
141	0xbd04909b	-0.03236447
142	0x3bdd2ec1	0.0067499583
143	0x3d0dfa62	0.03466261
144	0xbd2fcd81	-0.042920593
145	0xbcf85053	-0.03031174
146	0x3d234c28	0.03986755
147	0x3c9ce029	0.019149857
148	0xbd382b91	-0.044963423
149	0xbd266da7	-0.040631916
150	0xbcac47dc	-0.021030359
151	0x3cf0df86	0.02940346
152	0x3d8e2bf0	0.06941974
153	0x3d3ed208	0.04658702
154	0x3d309ec0	0.043120146
155	0x3c283305	0.01026607
156	0x3c584d61	0.013202042
157	0xbb6c190a	-0.0036025667
158	0x3d988849	0.07447869
159	0x3d8693af	0.06571137
160	0xbd4b1812	-0.049583502
161	0x3cbe91aa	0.023262817
162	0x3c5cc70f	0.013475194
163	0x3cabd398	0.02097492
164	0x3c2bb429	0.010479965
165	0xbd4ff1c7	-0.050767686
166	0x3bd35510	0.006449349
167	0xbcb86da6	-0.022513222
168	0x3d1f6705	0.038916606
169	0x3cf52740	0.029925942
170	0x3ce0795d	0.02740162
171	0xbc0d3873	-0.008619416
172	0x3cc290aa	0.023750622
173	0x3c021c2b	0.007941286
174	0x3d7181a5	0.05896153
175	0xbce28c1f	-0.027654706
176	0xbae149c2	-0.0017188119
177	0xbce280de	-0.02764934
178	0x3cd434f4	0.025904156
179	0x3b39e426	0.0028364747
180	0xbc0585cd	-0.008149576
181	0xbd2fa07b	-0.042877655
182	0x3cc0c33a	0.023530591
183	0x3a4d25ab	0.00078257424
184	0x3c16a867	0.009195424
185	0xbca5605c	-0.02018755
186	0x3b849c1b	0.0040469295
187	0x3d01550c	0.031575248
188	0x3ba7f1c2	0.0051252553
189	0x3b51a6d1	0.00319903
190	0xbd773e03	-0.060361873
191	0xbd90f08e	-0.07077132
192	0x3cfd3249	0.030907767
193	0xb79932de	-1.8262708e-05
194	0xbd87f626	-0.06638746
195	0xbd3d2164	-0.046174422
196	0xbd149f30	-0.036284626
197	0x3c68b23d	0.014202652
198	0xbbf00b80	-0.0073255897
199	0x3c7096c0	0.014684379
200	0xbcb6aebf	-0.022300122
201	0xbd7394f1	-0.059468213
202	0x3a1a8185	0.00058939337
203	0xbc6f8eaf	-0.014621421
204	0x3ba7e90c	0.005124217
205	0x3af5ea29	0.0018761802
206	0xbd5fb372	-0.05461449
207	0xbc3c4891	-0.011491911
208	0xbd21a6fb	-0.039465886
209	0x3af998ee	0.0019042769
210	0x3c11c786	0.008897668
211	0xbd0188a3	-0.031624448
212	0x3d0bc3fa	0.034122445
213	0x3cf80760	0.030276954
214	0x3d2c3dd6	0.04205116
215	0xbc5eb97e	-0.0135940295
216	0x3b02371c	0.0019869274
217	0x3d26c6f6	0.040717088
218	0x3c5942be	0.0132605415
219	0x3c675287	0.014118797
220	0x3bdf9642	0.006823332
221	0x3d6e7a07	0.058221843
222	0x3c053f44	0.0081327595
223	0x3d7bef25	0.061507363
224	0xbd88bdae	-0.066768035
225	0xbd42a882	-0.047523983
226	0x3b29714d	0.0025854886
227	0xbd97c995	-0.074114956
228	0xbbf75752	-0.007548251
229	0x3d4fd352	0.05073864
230	0xbd99dbf5	-0.075126566
231	0xbd052934	-0.032509997
232	0x3d52be46	0.05145099
233	0xbc81dbe6	-0.015851926
234	0xbce8bbb7	-0.028409822
235	0x3c0af98a	0.008482346
236	0x3d5f16b2	0.054465003
237	0xbc0de24c	-0.00865991
238	0xbd019fce	-0.031646542
239	0xbd3077d9	-0.043083046
240	0xbba01d37	-0.004886295
241	0xbc9696fe	-0.018382546
242	0x3d163e90	0.036680758
243	0xbce7fa9f	-0.028317748
244	0xbd9990c2	-0.074983135
245	0x3da7ab51	0.08186973
246	0x3d1f6e28	0.038923413
247	0xbcfd2c92	-0.030905042
248	0xbd82174a	-0.06352098
249	0x3d2b0bec	0.041759416
250	0x3d7da040	0.061920404
251	0xbcde6640	-0.027148366
252	0x3c49a144	0.012306515
253	0xbd0ec09b	-0.03485165
254	0x3d3bcff9	0.045852635
255	0xbd852346	-0.065008685

layers.3.bias f4 [4]
0	0xbd41ecb8	-0.047344893
1	0xbd87330d	-0.06601534
2	0x3c314011	0.010818497
3	0x3d424c20	0.04743588
