modeloD4.pth (torch, 151314 bytes, 6 tensors)

layers.1.weight f4 [128, 256]
000000 0f ee 1d bd 94 94 cf 3d bd e9 31 3d 72 25 81 3d
       -0.03855711 0.10135761 0.0434358 0.0630597
000010 31 e9 23 3d 54 0c c2 3c 30 7f 12 bd 58 09 1d bc
       0.04001731 0.02368752 -0.035765827 -0.009584747
000020 95 49 fa bc 8d a0 31 3d 04 26 70 3d 0a 43 b0 3d
       -0.030552665 0.043366004 0.058630005 0.08606537
000030 6d 7f 50 3c 8e b0 90 3d 1b 83 d7 bb a6 0f 1c bc
       0.012725693 0.07064925 -0.0065769083 -0.009525215
000040 6b 17 70 3d 1e 18 12 3d b2 ea 95 3b 01 ea 2b 3d
       0.058616083 0.03566753 0.004575097 0.04197121
000050 95 dd b4 bc 86 fe 92 3d 4d 69 0d 3c da 73 1a 3e
       -0.022078315 0.07177453 0.008631063 0.15083256
000060 6b da 10 bc 6b 1b a8 3d 44 c7 84 bc 26 7b 7b bc
       -0.008841137 0.082083546 -0.016208299 -0.015349185
000070 64 d2 08 3b 9d 3e a2 3d 80 0d 8f 3d fe fb a6 3d
       0.0020877356 0.07922099 0.06984997 0.081535324
000080 c1 20 9a bb f7 c5 6e 3d 23 a1 36 bd 2d 2e 86 bb
       -0.0047036116 0.058294263 -0.044587266 -0.00409486
000090 02 c8 33 3d 4d 52 6a 3d 1a 3d 46 3d 06 a6 e6 3c
       0.043891914 0.057207394 0.048398115 0.028155338
0000a0 31 e6 15 3d e1 49 00 3d 8b a0 f0 3b 22 5e c9 3b
       0.03659648 0.031320456 0.007343357 0.0061452547
0000b0 d0 a4 37 bd a1 2c 3e 3d ae fb c7 bb 18 55 74 3d
       -0.04483491 0.04642928 -0.0061030006 0.059651464
0000c0 aa 2e 46 bd 2e 31 fc 3b 57 99 15 bd 97 99 79 3d
       -0.048384346 0.0076962924 -0.03652319 0.06093749
0000d0 0e 9c 70 bb b1 04 a9 3c 5f d1 47 bc ca f8 af 3d
       -0.003671411 0.02063212 -0.012195914 0.085923746
0000e0 db 60 99 3d 79 70 b1 3c 08 93 90 3d 92 7c 40 3d
       0.07489177 0.021660076 0.07059294 0.0469938
0000f0 ee dd 81 3d 0b b1 be 3c cd 18 66 3d 27 a3 8c 3d
       0.06341158 0.02327778 0.056175996 0.06867056
000100 fe 14 00 bd 1c f3 29 3c 93 d1 0c 3c c0 e4 58 bb
       -0.03127002 0.010372903 0.008594888 -0.003309533
000110 88 35 81 bc f0 ac 86 3d 80 d0 6a bc c7 e5 0f 3d
       -0.015772596 0.06575954 -0.014331937 0.035131242
000120 09 db 59 bd 80 1d 7f 3d e4 d3 06 bd 00 fe 66 3c
       -0.053187404 0.062283993 -0.03291692 0.014098644
000130 62 15 67 bc ec 02 5e 3d bb 4d 26 bd c2 a3 bf bc
       -0.014104219 0.054202005 -0.040601473 -0.023393515
000140 f3 d7 83 bd 7f ed 8e 3d 4c 78 b9 3c 58 1d 6f 3e
       -0.064376734 0.069788925 0.02264037 0.23351038
000150 a4 a7 3d 3d 0f 21 7d 3a 2c cb 31 3d a5 65 4a 3b
       0.046302453 0.000965611 0.04340665 0.0030883339
000160 e1 b7 63 3d f1 3f a0 bc d9 85 14 bd 81 77 50 bd
       0.055595282 -0.01956174 -0.03626046 -0.050895218
000170 31 ad 06 3d d3 af 4b 3c 95 a2 13 bd c9 a7 b2 3c
       0.032880012 0.0124320565 -0.036043722 0.021808522
000180 6d 7d 7d bd 52 14 54 3d e7 c8 ef bc 04 d4 76 3d
       -0.061887193 0.05177719 -0.029270602 0.060260788
000190 cc e7 18 3d b6 b3 3c 3d d2 62 f3 3b fc e3 03 3b
       0.037330434 0.046069823 0.007427552 0.0020124903
0001a0 da ab 1c 3c 2e 98 ff bc 2c ff 93 3c a0 15 0c 3c
       0.009562457 -0.031200495 0.018066011 0.008550078
0001b0 9b 1e 7f 3d c2 b1 1f 3c a7 1d 29 bd f5 3c 04 3d
       0.062285047 0.009746971 -0.041288044 0.032284696
0001c0 f4 79 3a 3d f2 0e 17 3c 74 ab 3f bd 1d 2a 26 3c
       0.04552646 0.009219872 -0.04679437 0.0101418765
0001d0 db 3f c3 bc f6 f2 c3 bb 3b 67 30 bd 68 66 76 3d
       -0.02383416 -0.005979891 -0.0430672 0.060156256
0001e0 cd 60 ad bc d5 2b 4e 3d 9e 9c 52 3d a9 fc d6 bc
       -0.021164322 0.05033477 0.051418893 -0.026243525
0001f0 03 0f 51 3c 2e a9 a2 3c df 78 96 bc 7e 73 3a 3d
       0.012759927 0.019856062 -0.018368183 0.0455203
000200 5e ad e9 3b 5f 2b 49 3d d2 ee e6 b9 81 b2 92 bb
       0.0071312627 0.049113628 -0.00044046954 -0.0044768457
000210 a5 f9 71 bd 1c 4f 73 3d d5 73 35 3d 98 73 2c bd
       -0.05907597 0.059401616 0.04429992 -0.042102426
000220 3e e6 e8 bc 2d 1d aa bb 2e f5 34 bb bd 68 1d bd
       -0.0284301 -0.0051914663 -0.0027611959 -0.038429964
000230 1b 4d fd 3a b3 43 dd bc f6 ec 38 bd 91 c0 17 bc
       0.0019325347 -0.02700982 -0.04514786 -0.00926222
000240 28 f1 79 bd c0 38 33 3d 32 00 f9 3c 2b a2 5d 3c
       -0.061021 0.043755293 0.030395601 0.013527433
000250 37 c9 4a 3b 47 f0 8c bc 02 70 4c 3d f4 c6 de bc
       0.0030942687 -0.017204417 0.049911506 -0.027194478
000260 19 96 ef 3c 31 e1 7f bc 2b fa 09 3d 31 fb 4e bd
       0.029246377 -0.015617655 0.033685844 -0.050532524
000270 58 cf d5 bc 85 35 ca bc a9 49 25 bd 1b b5 80 3b
       -0.026099846 -0.024683723 -0.04035345 0.0039278395
000280 05 e2 64 bc 09 e9 06 3d 85 11 fc 3c 60 b3 c7 3b
       -0.013969903 0.032937083 0.030770073 0.006094381
000290 28 fa b0 3c e8 7a f1 bc c0 90 2d 3d e6 cb 62 3d
       0.021603659 -0.029477552 0.042374372 0.055370234
0002a0 3c b6 a2 3b 8f 0d 15 3d b4 fd 42 bb d7 c9 19 bd
       0.0049655717 0.036389884 -0.002975327 -0.037546005
0002b0 33 fb b4 bb ba 8f 91 bc c9 5e a1 bc e7 74 bf bc
       -0.0055231093 -0.01776873 -0.019698517 -0.023371173
0002c0 eb 61 48 3c c9 e2 ee bc 2e 98 e5 3c c9 20 35 3d
       0.012230377 -0.029160874 0.028026666 0.04422072
0002d0 98 68 53 3d dd ad 55 bb 81 cf 23 bd 24 04 93 3c
       0.05161342 -0.0032604851 -0.039992813 0.01794631
0002e0 f7 1f 3e bd fd 5a 91 3d 2c 3c 5c bd 13 98 89 3d
       -0.046417203 0.07097433 -0.053768322 0.06718459
0002f0 2a a8 93 bc c0 01 37 bc 0a a3 c9 3c cd ca 65 3d
       -0.018024523 -0.011169851 0.024613876 0.05610161
000300 b6 47 b7 3c 5a 8b 48 3d bd 34 6f bd 7f e9 82 bb
       0.022373062 0.04896102 -0.058399905 -0.00399512
000310 a6 fc 37 3c 52 2b 1a 3d f9 01 89 bd 31 c2 b3 3d
       0.01122967 0.03763897 -0.066898294 0.087772734
000320 f2 57 95 bc fd bc dc 3c ce 42 e3 3c 8b 7e 0f bc
       -0.018230412 0.026945585 0.027741816 -0.008758198
000330 84 21 e1 3b ab c6 0f 3d 82 ad cc b9 0a 8a f0 3d
       0.0068704505 0.035101574 -0.00039039186 0.11745079
000340 62 4a 15 3d 68 bf be 3c d2 ae 17 bd 5a f9 9e 3d
       0.03644789 0.023284629 -0.037031956 0.07762404
000350 21 d3 67 bd 78 b1 81 bc ff e6 fe 3c b9 63 4f 3b
       -0.056597833 -0.015831694 0.031116007 0.0031645133
000360 e0 3c 3b bc aa 5d a9 3d c0 d2 73 bd 90 f5 0d bc
       -0.011428088 0.08269818 -0.05952716 -0.008664504
000370 e9 0d 9c bd 43 9c 98 bc c6 85 87 bd 43 ab 20 3d
       -0.07619841 -0.018629199 -0.06617312 0.039225828
000380 17 97 34 3d e4 55 cc 3c 38 a3 32 3c db 4d 43 3c
       0.044089403 0.0249433 0.010903172 0.011920418
000390 4b 59 8a bc a3 61 01 bb 15 5d e6 bc 42 9a cf 3c
       -0.016888281 -0.0019742034 -0.028120557 0.02534211
0003a0 0b f5 cb 3c 14 f7 1c bc aa 7e 22 bc 02 60 1c 3d
       0.024897119 -0.009580392 -0.009917894 0.038177498
0003b0 f4 ae 50 bd ae ca 42 3d de 27 c7 bc 30 f3 07 3e
       -0.0509481 0.04755657 -0.024311002 0.13276362
0003c0 e1 80 2b bc f7 7a 72 3d 10 01 5d bd 58 dd 30 3c
       -0.010467739 0.0591993 -0.05395609 0.01079496
0003d0 be 85 7c 3d 38 ca 2e 3d b3 ba c3 3c 94 bf 5e 3d
       0.061650984 0.04267332 0.023892736 0.054381922
0003e0 5b ea 62 3c 57 a4 88 3c e7 79 05 3d ee fb 31 bd
       0.01384982 0.016679926 0.03258696 -0.04345315
0003f0 c5 10 93 bd d4 c7 6b 3d cd b5 7e 3c 63 15 a7 bb
       -0.07180933 0.057563618 0.015546274 -0.005098985

layers.1.bias f4 [128]
000000 51 29 9b bd 4c 1d df 3c 2a 48 83 bd 22 84 9c 3c
       -0.0757624 0.02723565 -0.064102486 0.019105975
000010 9b d1 7b bd c4 12 13 3d 7c 83 8e 3c f7 05 8c 3c
       -0.061479192 0.03590657 0.017396681 0.017092688
000020 e6 5c 2f 3d 68 d8 f8 3c 0a 33 4f bc d8 12 03 3d
       0.042813204 0.030376628 -0.012646446 0.032000393
000030 36 d8 d7 3b b8 08 92 3d 5e 8b 17 bc b7 1c a9 3d
       0.0065870536 0.07130569 -0.009249536 0.0825743
000040 af 98 65 3d 38 a0 89 3d cd 70 5a 3b de 25 f0 3d
       0.056053814 0.067200124 0.0033331395 0.117259726
000050 02 df 15 3d 33 d7 ed 3c 49 aa 2d 3c 0e 30 ad 3d
       0.03658963 0.029033279 0.010599681 0.08456431
000060 3a 06 60 bd 18 e0 ac bc 43 28 32 bd 91 fa 82 3d
       -0.054693438 -0.02110295 -0.043495428 0.06395448
000070 ac 92 93 3d b3 d3 ad bd bc bf 14 3a 38 1c 0f bd
       0.0720571 -0.08487644 0.00056743226 -0.03493902
000080 2d 60 c7 3c a4 a2 3a bd 1c 75 fa bc fb 35 a5 bb
       0.024337852 -0.045565262 -0.03057342 -0.0050418354
000090 5d 33 07 3d 0e b6 af bd f7 5b 00 3d f4 7f 9e bd
       0.03300797 -0.08579646 0.031337705 -0.07739249
0000a0 f1 36 fc 3d 95 62 b3 3d 33 fc 14 bc 18 0b 06 3c
       0.12315167 0.087590374 -0.009093332 0.008181356
0000b0 16 2c 86 bc 29 32 94 3d cc 9a c8 3d 23 2d e1 3c
       -0.016378444 0.0723613 0.0979515 0.027487343
0000c0 82 b4 90 bc f8 df 2c 3d 1c 3a 94 bd e1 ad 70 3d
       -0.017664198 0.04220578 -0.07237646 0.058759574
0000d0 04 5d 97 3d 27 de 76 3d cc 6d 50 3d af 4d 82 3c
       0.07390788 0.060270455 0.05088596 0.015906183
0000e0 42 ea 98 b8 77 7d 32 bd b1 54 b8 bc 36 02 36 bd
       -7.291559e-05 -0.043576684 -0.022501322 -0.044435702
0000f0 79 fd 04 bd a6 91 39 bd 9a 84 9f 3c 9d 19 fc bc
       -0.032468293 -0.045304917 0.019472409 -0.030773932
000100 7f 97 42 3c 89 39 2b 3c 2c 2a af 3d 6a 02 24 bd
       0.01187694 0.010450729 0.085529655 -0.040041365
000110 19 2a 6e bd 8e c4 25 3d 18 3d c3 3d f9 95 5e bd
       -0.058145616 0.040470652 0.09533137 -0.054342244
000120 9d eb a7 3d fe b7 4e bc 5e ef 3a 3d 46 37 8e 3d
       0.081992365 -0.012617109 0.045638435 0.06944136
000130 ca f6 2e bd b7 5f 2b 3d 0a 0d 37 3d 02 6c 9d bd
       -0.042715825 0.041839328 0.04469017 -0.076866165
000140 ca 01 64 bc f1 ae a4 3d 69 cc 80 bd e8 d3 11 3b
       -0.013916442 0.0804118 -0.06288988 0.002225155
000150 dd e8 85 bc c4 1a 94 3d 24 17 f1 3c 1b 29 22 3d
       -0.01634639 0.07231668 0.02942998 0.039589982
000160 9c e5 b8 3d e7 91 a6 3d 6e cf bb 3c bf 83 86 3d
       0.090281695 0.081332974 0.022926059 0.06568097
000170 dc 45 06 3d 4d 6d 58 bc 8d 90 a0 3d 38 08 68 3c
       0.032781467 -0.013209653 0.07840071 0.014162116
000180 81 a8 72 3d 06 04 42 3d da f8 37 3c 22 95 3f bd
       0.05924273 0.04736712 0.011228764 -0.046773084
000190 6b a2 fc bb 99 19 b5 b9 3e b5 ae 3c a0 ee ed 3c
       -0.0077097914 -0.00034542082 0.021326657 0.02904445
0001a0 98 49 02 bd 1d b4 83 3c 53 b8 de bc 4b 83 a1 3d
       -0.031808466 0.016077096 -0.027187502 0.0788637
0001b0 5b a4 3e bd a1 88 5a bd 0e 8c 1b bd 36 f6 20 3d
       -0.04654346 -0.053352956 -0.037975363 0.039297305
0001c0 b6 d6 84 bb 3e 68 95 3c 19 6a 6b 3d ce 68 92 3c
       -0.004053916 0.018238183 0.05747423 0.01787224
0001d0 f5 33 d2 3c bc 13 9c 3d 25 bc 5c 3a c0 bc 16 3d
       0.02565954 0.076209515 0.00084203697 0.0368011
0001e0 6c fb 8c bd 1f 59 91 bd ce 15 dc bd c7 bc b9 bc
       -0.068838924 -0.070970766 -0.107463464 -0.022673024
0001f0 1d 94 98 3c 13 d5 42 bd fa fa 0e 3d d0 b2 3f bb
       0.018625313 -0.047566485 0.03490732 -0.0029250868

layers.2.weight f4 [32, 128]
000000 b3 f0 78 3c 20 af 78 bd bb 92 8b 3d 20 6f a5 3d
       0.015194106 -0.060713887 0.06815096 0.08077836
000010 ad 8f 6e 3d 1d 35 71 3d f1 36 c6 3c ee b4 a5 3d
       0.05824249 0.058888543 0.02419612 0.0809115
000020 5e 8e a3 3b 52 66 53 ba cb a1 4b 3d bb 8a 5b 3d
       0.0049913367 -0.0008064258 0.049714845 0.0535991
000030 58 bf bb 3c 0e 20 69 bd 94 56 a5 bd e5 97 24 bc
       0.022918388 -0.056915335 -0.08073154 -0.01004598
000040 94 cb fd bc 66 2f 07 3d 20 45 a9 3d 57 f9 af bd
       -0.030980863 0.033004187 0.08265138 -0.0859248
000050 e5 73 2d bd d3 6c 71 bd 6f 24 1d be 48 6c d4 bd
       -0.042346854 -0.058941673 -0.1534593 -0.103722155
000060 3e c5 84 3d 30 f4 7f bc f0 04 a9 3d b7 24 dd 3a
       0.064829335 -0.015622184 0.08252895 0.0016871904
000070 b7 83 a6 bd e2 b4 5b 3d b4 3a 11 bd c0 14 83 3d
       -0.08130591 0.0536393 -0.035456374 0.06400442
000080 81 74 5b 3d b3 10 09 bd bf 6a b0 bc a3 7e 38 3d
       0.053577904 -0.03346319 -0.021535276 0.045042645
000090 e9 14 96 bd 40 89 d6 3c fa 98 79 39 09 b0 61 3d
       -0.07328207 0.026188493 0.00023803479 0.05509952
0000a0 84 d9 b4 bd 87 f2 41 bd 24 f1 e2 bb 6d a8 c4 bc
       -0.0883055 -0.047350433 -0.006925719 -0.024006093
0000b0 36 2d ab 3a 4c 63 20 3d 7a 65 09 3d cf 55 59 3d
       0.0013059739 0.039157197 0.03354404 0.05306035
0000c0 e2 72 89 bb ce bf a7 bd 3e f3 47 bd 92 d3 d6 bc
       -0.0041946033 -0.08190881 -0.04881596 -0.026223931
0000d0 49 ee 44 bd 80 95 57 bd 7c 46 c7 3c 36 8c 75 bc
       -0.04807881 -0.05263281 0.024325602 -0.014987042
0000e0 96 26 a9 3d 58 06 fd 3c c7 51 71 bd 8d 4c 95 bd
       0.08259313 0.030886814 -0.05891588 -0.072899915
0000f0 22 e2 0f bd 9d 42 33 bd 21 c7 7e bd 32 2c 66 bd
       -0.035127766 -0.0437647 -0.062201623 -0.05619449
000100 20 ce c2 3d 4e a0 02 3d 8e 9d 64 3d 09 fa af 3d
       0.095119715 0.03189116 0.05581432 0.08592612
000110 6a cb cd 3d 5c e8 69 bd 90 1e 30 3c 2e d9 a0 bc
       0.10048564 -0.05710636 0.010749474 -0.01963481
000120 7f 93 b4 bd 4c 3b 57 bd 29 e2 a3 3c 4f 5e f3 bd
       -0.08817195 -0.052546784 0.020005303 -0.11883222
000130 47 fc be bb 3d f1 b9 3c 0b 47 51 bd 61 a3 c0 bb
       -0.0058284136 0.02269804 -0.051093142 -0.0058788513
000140 12 21 85 bd e8 93 09 bd 1a 44 2d 3d 98 51 15 bc
       -0.06500448 -0.03358832 0.042301275 -0.009113692
000150 8f fe 09 3c 10 c8 45 3d e2 90 e6 bd 1c f2 33 bd
       0.008422508 0.048286498 -0.11258103 -0.043932065
000160 26 3a 90 3c fe 48 37 bd cf 31 66 bd dc 01 69 3c
       0.017605852 -0.044747345 -0.056199845 0.014221635
000170 af ac 99 bc da 5a 83 3d 27 aa 05 bd 20 8c fd 3b
       -0.0187591 0.06413813 -0.032632973 0.0077376515
000180 43 17 bd 3c c4 ec 08 bd b0 73 6c 3d de bb 9d bd
       0.023082381 -0.033428922 0.057727516 -0.077018484
000190 93 02 a4 3d 17 af d0 bb f3 2e 7b 3c 1e d3 6b bd
       0.080083035 -0.0063685286 0.015331018 -0.057574384
0001a0 1d 40 4e 3c 2b 63 04 bd 97 a5 ab bb a7 22 dd bd
       0.012588528 -0.032321136 -0.0052382457 -0.10797625
0001b0 fa b0 68 b9 9d cf 3d 3d 4b 5d c6 3c 0c 5e 30 3a
       -0.00022191173 0.046340574 0.024214407 0.0006727881
0001c0 0a 23 16 3c c5 d7 b1 ba 6f 58 6b bc 7f bc 9d bc
       0.009163627 -0.0013568333 -0.014364346 -0.019254921
0001d0 60 25 15 bd 0d 02 d5 3c 0d c6 81 bb 17 b2 84 3d
       -0.036412597 0.026001954 -0.003960377 0.064792804
0001e0 2b f5 ec 3c b9 d0 82 3d c4 cc d7 3d 36 1c 28 bc
       0.028925499 0.06387467 0.10537103 -0.010260632
0001f0 34 37 c0 3c 9a a6 11 3d e3 ea 90 bd 57 fa 9d bd
       0.023463823 0.035559274 -0.07076051 -0.07713764
000200 c1 88 7b bc 10 2b 88 3c cb 9a 66 3d c9 dd 32 3d
       -0.015352429 0.016622096 0.056299966 0.043668542
000210 35 98 a8 3d ac c1 9f 3d 5b 38 12 bd 06 52 a4 3d
       0.08232156 0.07800612 -0.035698276 0.08023457
000220 dc 11 c9 bb 90 08 80 3d 29 b4 a0 3d 4c be 88 bd
       -0.006136162 0.06251633 0.07846863 -0.06676921
000230 c4 46 0a bc d8 60 c2 bc 82 a3 7c 3d b5 7d 51 be
       -0.008439723 -0.02372782 0.06167937 -0.2045811
000240 7f a8 9b bc d0 a0 8a bd a3 a3 bd bd 7e 48 02 be
       -0.019001244 -0.06768954 -0.09259727 -0.12722966
000250 41 b3 33 3d 24 d6 0d 3c f7 51 b3 bd f3 10 ff bd
       0.04387212 0.008657012 -0.08755868 -0.12454405
000260 8e 22 0a bd 21 ef fb bd 57 e7 02 bd 34 10 d1 bb
       -0.03372436 -0.123014696 -0.031958904 -0.0063801054
000270 d4 10 2e bd 1d ca f5 3d 52 c9 38 bc b6 69 9c bd
       -0.042496517 0.12001441 -0.011278467 -0.0763735
000280 5c bd 5f 3d 44 a5 f0 bc 05 e5 8c bd 38 67 d5 bd
       0.054623947 -0.02937568 -0.068796195 -0.10420078
000290 71 75 ae bc ab f7 de 3d d3 d0 2d 3d 82 5b 59 3e
       -0.021296235 0.10887083 0.04243548 0.21226314
0002a0 3c 00 9d bd 28 87 be 3d f7 4d 9b bd 13 7a 59 bd
       -0.0766606 0.09303123 -0.0758323 -0.053094935
0002b0 88 47 a6 bc 6e 27 30 bc 2a 24 80 bd 40 a7 03 bd
       -0.02029778 -0.010751588 -0.06256898 -0.032141924
0002c0 ba 67 9c 3d a3 cf 0b 3d 72 6e 86 bd de e6 31 bc
       0.07636972 0.034133565 -0.065640345 -0.010858266
0002d0 ee 23 5c 3d 57 2a 7d bd 64 66 8b bd 24 37 97 bd
       0.053745203 -0.061807957 -0.06806639 -0.07383564
0002e0 23 6f 55 3d e2 66 74 bd 34 8e 1d bc 5e bd 2b 3c
       0.05210794 -0.05966843 -0.009616423 0.01048216
0002f0 50 dd 94 3c a7 d3 11 3d 02 0e 8a 3c 8a 95 1e bb
       0.018171936 0.035602238 0.016852383 -0.002419802
000300 dd b1 55 3d 37 61 73 3d f5 38 ce bc df 3b 8d bb
       0.052171577 0.059418883 -0.025173644 -0.0043101157
000310 01 ce 8e bd e6 ac b3 3c 21 16 b5 3d 1c 5f 4b bb
       -0.06972886 0.02193303 0.088421114 -0.0031032031
000320 4e b2 9c bd 28 df 16 3d 1c cb f2 bc 2d f2 82 bd
       -0.076511964 0.036833912 -0.029637866 -0.063938476
000330 9a 82 47 3d 1a ff 82 3c 40 49 a5 bc 41 6e 80 3d
       0.048708536 0.015990783 -0.02017653 0.06271029
000340 c7 4f 1f 3c 6d c7 0e bd 48 f9 75 bb db 9c 36 3d
       0.00972361 -0.034858156 -0.0037532616 0.044583183
000350 15 68 82 3d d5 a1 e7 3d f9 94 ba bd 03 31 ae 3c
       0.06367508 0.11310164 -0.091104455 0.021263605
000360 5c 6b 81 bd ec 8a 5d bd 04 d7 8b bd b3 87 f4 3c
       -0.06319305 -0.054087564 -0.0682812 0.029849863
000370 26 65 d6 bd 44 b9 35 3d 62 40 bd bd 5b a7 06 3d
       -0.10468511 0.044366136 -0.09240796 0.032874446
000380 39 6a 3c be 26 49 fb bd f4 02 92 bd ec 08 73 3d
       -0.18399896 -0.12269811 -0.071294695 0.05933468
000390 14 c8 5f bd f7 ab 84 3d 2f 02 98 bd 19 f1 8f bd
       -0.05463417 0.06478112 -0.074222915 -0.070284076
0003a0 a5 5b d9 3b d6 b9 a8 bd ef de 1f 3c 07 fc a3 bd
       0.0066332393 -0.082385704 0.009757741 -0.08007055
0003b0 d2 0d 06 bd 80 43 ec bc 7c 32 e9 3c 6e 40 10 be
       -0.032728024 -0.02884078 0.028466456 -0.14087078
0003c0 71 9a 10 3c 79 5c 35 bd 7c a1 8e bd dc b4 c2 3c
       0.008825884 -0.044277642 -0.069643945 0.023767881
0003d0 ac b1 8a 3d ba 1b 38 bd 47 27 d7 bd 49 90 82 bb
       0.067721695 -0.044948317 -0.105055384 -0.0039844853
0003e0 70 fe 76 3d 70 4c 49 3c 74 ae f9 3d 37 40 b2 bd
       0.060301244 0.0122862905 0.121914774 -0.08703654
0003f0 c8 24 54 bc 9f 6f cb 3d ed af 8e 3c c1 a5 29 3d
       -0.012948222 0.099333994 0.017417872 0.04141784

layers.2.bias f4 [32]
000000 af a6 80 3d 9d 3f d3 3c b1 26 ac bd be 33 1d 3b
       0.06281792 0.02578717 -0.08405817 0.002398714
000010 93 23 85 b9 00 10 9d 3d 33 5f 38 bd e3 46 c0 bc
       -0.00025394242 0.076690674 -0.045012664 -0.023471301
000020 16 e2 a5 bd a0 b1 9b bd d6 ac a4 39 4e 33 b4 bc
       -0.08099763 -0.07602239 0.0003140929 -0.02199712
000030 b9 af 0b bd f2 1a ea bd a5 00 4d 3c 0b f6 ec 3b
       -0.03410313 -0.11430921 0.012512361 0.007231479
000040 51 d8 21 3d ac a0 19 bd 90 fc c1 3a d8 bc 33 3a
       0.039512936 -0.037506744 0.0014800001 0.0006856448
000050 80 63 e2 3d bd ce 00 bd 8c ae 25 bd 04 d8 93 3d
       0.11054134 -0.03144716 -0.040449664 0.07218936
000060 a8 a9 99 3d 73 ed 63 3c 47 e0 eb 39 b3 09 2c ba
       0.075030625 0.013911593 0.00044989793 -0.00065627246
000070 9c 53 56 bd 8e f9 85 bd 24 49 c2 3d 25 45 9b bd
       -0.05232583 -0.065417394 0.09486607 -0.07581548

layers.3.weight f4 [4, 32]
000000 00 9c 09 3e f9 61 e0 3b b7 07 13 3e 7c 59 35 bd
       0.13438416 0.0068476168 0.14358412 -0.044274792
000010 aa ec 31 be cd d1 03 be 00 6d 32 3e 67 26 11 bc
       -0.17375436 -0.12873001 0.17424393 -0.0088592535
000020 3d bf 29 3e 67 59 fc 3c f6 4f 94 3c 1f 4d 87 bd
       0.16576858 0.03080435 0.018104535 -0.066065066
000030 94 4f 31 be 0d c8 71 3d a6 74 c8 bd 5f 51 e1 bc
       -0.17315513 0.059028674 -0.09787874 -0.027504621
000040 ef 01 ee 3c d7 a3 30 bd 18 4d c0 3d 09 e7 12 be
       0.029053656 -0.043125 0.093897045 -0.14345945
000050 4a dc 68 bd 7c a2 a8 3d 29 c0 b1 3d f2 01 04 3d
       -0.05685071 0.082341164 0.0867923 0.032228418
000060 50 13 c9 bb 28 b6 05 3d ac 2c 2e 3e 5d b0 6c 3d
       -0.0061363354 0.03264442 0.17009228 0.05778538
000070 7b 18 cd 3d 06 e1 22 3e 3d b9 06 be 9d 39 60 bd
       0.10014435 0.15906152 -0.131566 -0.054742444
000080 bb f3 8e 3d 05 ac 90 3d 3d bd b5 3d 24 bc 00 bd
       0.06980082 0.0706406 0.08873985 -0.031429425
000090 ed 68 bc bd 74 29 e0 3c 16 be 97 bd cd 38 9c 3c
       -0.091997005 0.027363516 -0.07409303 0.019070053
0000a0 2a c7 27 bc 44 2f 2e 3e 70 b8 26 be 56 10 1c be
       -0.0102403555 0.17010218 -0.16281295 -0.15240607
0000b0 6f d2 03 bd 9d 13 b4 3a 96 88 38 3c bf 69 35 bd
       -0.032183107 0.0013738755 0.011263033 -0.0442903
0000c0 0f ea 48 bd c1 08 b3 bd 43 ba 09 bd ae c2 20 3e
       -0.04905134 -0.08741904 -0.0336249 0.15699264
0000d0 8c f4 30 be 4f 23 36 3c 56 95 6e ba fe 47 07 3e
       -0.17280787 0.011116817 -0.0009101232 0.13211057
0000e0 b6 7e 8b bd 9a df 5b be b2 37 46 3b 0a 7f 2b bd
       -0.068112776 -0.21472016 0.00302456 -0.0418692
0000f0 51 04 ad bd 91 2b 11 3e d1 99 ac bd c6 fb f5 ba
       -0.08448089 0.14176776 -0.08427776 -0.0018767051
000100 23 7c 8a 3d 7a c1 a0 bd b0 df 4a 3d be 38 e9 3d
       0.067619585 -0.07849403 0.04952973 0.11387776
000110 d1 0b f3 bc 65 8e 12 be c4 9b e5 3d 9b 90 38 be
       -0.02966872 -0.14312132 0.112113506 -0.18023913
000120 cf 18 d7 bd 05 0f 20 be 9a d6 2c be ce 0c 2e bd
       -0.10502779 -0.1563073 -0.16878739 -0.04249268
000130 90 64 e5 3d 99 46 a7 bd 99 2b 80 3d d0 c1 25 3e
       0.112008214 -0.08167762 0.062583156 0.16187215
000140 6b 28 57 bd 1c 3a b1 3d e1 32 40 3e 74 80 c3 3c
       -0.05252878 0.086536616 0.18769409 0.023864962
000150 14 72 7a bd 35 b3 00 be 11 73 c6 bd 12 65 23 3e
       -0.06114395 -0.12568362 -0.09689916 0.15956524
000160 95 ea 61 3c b1 53 b8 3d 22 eb 32 3e 99 ec 70 3d
       0.013788839 0.09000338 0.17472509 0.058819387
000170 2f dc 2d 3e 9c fe a3 3d 19 94 ed bd 6f f0 f4 bd
       0.16978525 0.08007547 -0.11600513 -0.119599216
000180 d5 17 88 3d 58 ce 23 3e 6c 6b 15 be b6 c2 03 be
       0.066451706 0.15996683 -0.1459176 -0.12867245
000190 72 7c c5 bd 10 a4 c3 bd 51 d9 c4 bc aa 4e 86 3c
       -0.09642877 -0.09552777 -0.024029406 0.016394932
0001a0 43 0f 35 be ca 9e 7e bc 28 87 d1 3d 6b f2 5a bd
       -0.17681603 -0.015540788 0.10230857 -0.053453844
0001b0 a7 c6 50 bd 48 ce 0b 3e 44 19 b7 bc 3a a4 99 bd
       -0.0509707 0.13652909 -0.022350915 -0.07502027
0001c0 62 db cb bd eb e1 96 bc 03 f6 f5 3d 6d 99 27 be
       -0.09953953 -0.018418273 0.12009814 -0.16367121
0001d0 67 fb 33 3d 7c 40 86 bd 1a 75 94 bd 2a 1f 3e bd
       0.043940928 -0.06555268 -0.07248898 -0.04641644
0001e0 b3 2a b5 bd 68 15 eb 3b be b3 37 3e 94 b1 79 bd
       -0.08846035 0.0071741827 0.1793966 -0.060960367
0001f0 30 37 24 3e 80 b7 0a 3d e9 7d f1 3d 00 6c 2f be
       0.16036677 0.033866405 0.117915936 -0.17131042

layers.3.bias f4 [4]
000000 6c 8a f2 3d cf c0 00 be d8 65 18 be f7 49 5c bd
       0.11842808 -0.1257355 -0.148826 -0.053781476
