modeloA.pth (torch, 150984 bytes, 6 tensors)

layers.1.weight f4 [128, 256]
0.031031523 0.03987187 0.03535557 0.02797216 -0.004602677 0.029225657 0.04568784 0.04585996
-0.04447117 0.02200616 0.032566994 0.01631752 0.050622325 0.04686828 -0.057392567 -0.057992853
-0.0025002835 -0.027746778 -0.009137119 0.03313099 0.015792683 0.048885398 0.03821125 -0.019774204
-0.01776274 -0.061786473 0.01746867 -0.061775032 -0.022620223 -0.051266115 -0.041661516 0.027917042
0.02663998 -0.05233426 -0.071797594 -0.027915014 -0.030095387 -0.008669284 -0.047227133 0.004234181
-0.011446801 -0.047906145 0.046270866 -0.0649033 -0.017046161 -0.0014292687 -0.02292754 0.023763321
-0.024225077 -0.0023739473 0.024927145 -0.034776125 0.04831487 0.041311655 -0.06389924 -0.017080972
-0.04388562 0.0097973775 -0.007937081 0.048093606 0.018826751 0.0057978155 0.03206349 0.029138481
0.034387123 0.012173002 -0.055264413 -0.011866015 0.018985739 -0.020407908 -0.066356115 0.049024522
-0.016965212 0.03167129 0.024312433 -0.0442535 -0.01289391 -0.047542576 0.045120806 0.037201453
0.029273447 0.028269151 -0.07117158 -0.05168856 0.047174804 -0.04303672 0.017651798 -0.056126755
-0.033057313 -0.011421241 -0.0010441783 0.038168713 0.040742245 -0.0465133 0.017578397 0.048970554
-0.04038043 0.055231027 0.04178569 0.052774917 -0.035455838 -0.039522856 -0.0011081243 0.041273154
0.048617166 -0.04742804 0.035265997 -0.061485495 0.0148722995 0.04974346 0.045589823 0.04439049
-0.011961483 0.051086683 0.049274262 -0.025273923 -0.05881424 -0.015480583 -0.014271783 -0.037537653
-0.01637087 -0.04214743 -0.019270416 -0.029724138 -0.05705094 0.031622466 0.038976394 0.020940263
-0.03687545 0.0046671284 0.011485247 0.02491173 0.034272205 -0.06511006 -0.045598578 0.05060503
0.045782935 0.04501477 -0.018005284 0.03965482 0.0037834314 0.050792564 -0.044780634 -0.015694493
0.04373591 -0.04901333 -0.038627077 0.011227915 -0.044590816 -0.035387237 -0.0115033 -0.025812985
0.03926661 -0.055192553 0.02783766 -0.00701854 -0.0055766534 0.023455324 0.014578358 -0.051504333
0.014359455 -0.057960805 -0.047117747 -0.02811332 0.028066896 -0.0048436783 -0.044659503 0.04307126
0.042361528 0.0033022764 -0.007781293 0.051578924 -0.062199593 0.040652815 0.03065571 -0.031113062
0.04753258 0.0078610685 0.027830174 0.03376493 0.008184022 -0.008086263 0.03549783 0.052769504
0.047570676 0.028265653 0.028889343 -0.036467213 -0.05683335 0.026996225 0.027621834 0.032069247
-0.0654068 -0.0062405774 -0.021635696 0.0010714701 0.038027573 0.0006862583 -0.06824716 0.003634903
0.030445514 -0.06477745 0.04301552 -0.0646327 -0.06567064 0.05126115 0.0016504064 -0.02543279
-0.023160407 -0.06588651 -0.006261083 -0.01045309 0.038288683 -0.04167097 0.045763474 -0.047035284
0.027362771 -0.023332814 0.042244837 -0.055845894 0.007716907 -0.060459647 -0.031440966 0.03531633
-0.020787999 -0.060184516 0.01846036 -0.053337146 -0.020221751 0.032039743 -0.05390615 -0.037001416
-0.0045713587 0.02030929 -0.021036612 -0.019283857 0.021524824 0.030715274 0.024654692 -0.026116323
0.020591924 -0.06087444 0.014210803 -0.028497318 0.048954573 0.041094817 0.026729409 -0.013058121
-0.03095968 0.028382277 -0.039258152 -0.034117296 -0.01029711 -0.026805105 -0.063108124 0.04901209
00000000: d235 fe3c b050 233d 01d1 103d df25 e53c
00000010: 0ed2 96bb a56a ef3c 2c23 3b3d a7d7 3b3d
00000020: 6727 36bd 4346 b43c f864 053d 52ac 853c
00000030: 5b59 4f3d f4f8 3f3d 7814 6bbd ea89 6dbd
00000040: ccdb 23bb 364d e3bc dbb3 15bc 5cb4 073d
00000050: a85f 813c 0e3c 483d 6683 1c3d 83fd a1bc
00000060: 2a83 91bc d013 7dbd 751a 8f3c d107 7dbd
00000070: 0c4e b9bc 6bfc 51bd 44a5 2abd 48b2 e43c
00000080: 163c da3c 735c 56bd 9e0a 93bd 07ae e4bc
00000090: 9a8a f6bc 9d09 0ebc 3d71 41bd e2be 8a3b
000000a0: 5d8b 3bbc 3c39 44bd 8586 3d3d 05ec 84bd
000000b0: 64a4 8bbc 4d56 bbba 89d2 bbbc 4cab c23c
000000c0: ab73 c6bc 3a94 1bbb 0334 cc3c 6971 0ebd
000000d0: d0e5 453d 6936 293d 9bdd 82bd 65ed 8bbc
000000e0: 68c1 33bd 2e85 203c 880a 02bc cdfd 443d
000000f0: 8f3a 9a3c 9afb bd3b 0255 033d d3b3 ee3c
00000100: 83d9 0c3d 4571 473c f05c 62bd ad69 42bc
00000110: fb87 9b3c 7c2e a7bc b7e5 87bd f0cd 483d
00000120: a1fa 8abc c1b9 013d de2a c73c 2843 35bd
00000130: fa40 53bc 01bc 42bd 98d0 383d 8d60 183d
00000140: dece ef3c b594 e73c 68c2 91bd 62b7 53bd
00000150: 5e3a 413d 4647 30bd 819a 903c 2be5 65bd
00000160: 1b67 07bd 2820 3bbc cfdc 88ba cc56 1c3d
00000170: 57e1 263d bb84 3ebd 9200 903c 5995 483d
00000180: f365 25bd ee39 623d 7927 2b3d 832a 583d
00000190: 243a 11bd b8e2 21bd 7b3e 91ba 0a0e 293d
000001a0: cb22 473d e843 42bd 1473 103d 37d8 7bbd
000001b0: f2aa 733c ccbf 4b3d 65bc 3a3d cdd2 353d
000001c0: 19fa 43bc 4540 513d cfd3 493d 420b cfbc
000001d0: 33e7 70bd 45a2 7dbc 32d4 69bc 15c1 19bd
000001e0: 341c 86bc c9a2 2cbd fedc 9dbc 0980 f3bc
000001f0: 3fae 69bd 8f86 013d b6a5 1f3d ea8a ab3c
00000200: b60a 17bd b6ee 983b 9e2c 3c3c af13 cc3c
00000210: 0361 0c3d 6c58 85bd 93c5 3abd 3847 4f3d
00000220: e386 3b3d 6861 383d d17f 93bc 186d 223d
00000230: 72f3 773b dd0b 503d e66b 37bd bd91 80bc
00000240: 6d24 333d 34c2 48bd 6d37 1ebd 4af5 373c
00000250: dca4 36bd 35f2 10bd 5678 3cbc c175 d3bc
00000260: 06d6 203d 9611 62bd ce0b e43c c8fb e5bb
00000270: 5cbc b6bb 6125 c03c 11da 6e3c 35f6 52bd
00000280: eb43 6b3c 4f68 6dbd 8afe 40bd e84d e6bc
00000290: 8cec e53c b8b7 9ebb e2ec 36bd 7d6b 303d
000002a0: 4883 2d3d 016b 583b 37fa febb 6c44 533d
000002b0: 00c5 7ebd 9183 263d af21 fb3c d2e0 febc
000002c0: 86b1 423d b6cb 003c 1bfc e33c 184d 0a3d
000002d0: 4716 063c 3f7c 04bc 2c66 113d d624 583d
000002e0: 78d9 423d 5f8d e73c 58a9 ec3c a55e 15bd
000002f0: 16ca 68bd 3027 dd3c 2f47 e23c 0b5b 033d
00000300: 00f4 85bd c27d ccbb 583d b1bc 9270 8c3a
00000310: cdc2 1b3d 04e6 333a 2bc5 8bbd 8e37 6e3b
00000320: df68 f93c 0aaa 84bd 0b31 303d 265e 84bd
00000330: 547e 86bd 36f7 513d 7352 d83a 6d58 d0bc
00000340: e5ba bdbc 82ef 86bd c529 cdbb 7043 2bbc
00000350: 98d4 1c3d 2eaf 2abd 7b72 3b3d 12a8 40bd
00000360: e427 e03c 7524 bfbc ec08 2d3d aabe 64bd
00000370: 1cde fc3b 89a4 77bd 3ec8 00bd dba7 103d
00000380: 984b aabc 0a84 76bd 2e3a 973c 0d78 5abd
00000390: 16a8 a5bc 1b3c 033d b2cc 5cbd cc8e 17bd
000003a0: 56cb 95bb ab5f a63c f954 acbc 2ef9 9dbc
000003b0: d454 b03c 999e fb3c a3f8 c93c e6f1 d5bc
000003c0: 65b0 a83c 7a57 79bd 6ed4 683c 3573 e9bc
000003d0: 9784 483d 0a53 283d a2f7 da3c bbf1 55bc
000003e0: 289f fdbc f381 e83c 28cd 20bd 94be 0bbd
000003f0: 36b5 28bc 6196 dbbc d53e 81bd e7c0 483d

layers.1.bias f4 [128]
-0.04131267 -0.0035700207 -0.048076507 0.05681924 -0.015323702 -0.024560118 0.029654175 0.0012900499
-0.03862517 -0.0047433516 0.051059928 0.025646608 -0.06478528 -0.055624343 -0.043728095 0.02471947
0.05679887 -0.005707573 -0.018535888 0.006249259 -0.028685724 -0.025845177 -0.051832102 0.06289394
0.053186323 -0.028538866 0.016508237 0.061514284 0.0307837 -0.013998545 -0.037846956 -0.037949838
-0.038640182 0.026796687 0.062138032 -0.006073256 0.05142529 0.057234224 -0.02459748 0.0014494048
0.002092845 0.011067818 -0.006429737 -0.055317305 0.0096873315 0.018479437 -0.03153941 -0.038470082
-0.020012558 -0.055735625 -0.027314136 -0.0023113447 0.01969774 -0.037508927 0.035823353 -0.00854604
-0.021432627 0.029323002 0.035663266 0.020700151 -0.03333055 0.036950443 0.05553681 -0.0022493182
0.044996023 -0.058292255 -0.0041901977 -0.06412096 0.0062096273 0.018339658 -0.021489812 0.038789015
-0.038460467 -0.014508946 0.03285172 -0.021064106 0.058649603 -0.045519833 -0.04438503 -0.017446917
-0.035880394 0.018657194 -0.03438244 0.036799006 0.018163668 -0.045032065 0.04432339 0.03667176
-0.012430522 -0.028707828 -0.018149504 -0.00179924 0.047096707 0.0058078067 0.053278547 0.028667305
-0.027449688 -0.011640549 -0.026874477 0.030081442 -0.0030275765 0.042994384 -0.022451967 -0.034200463
0.062893786 -0.015586434 0.011651976 -0.0496566 -0.0314416 -0.022934228 0.014638898 -0.05092151
-0.06460098 -0.04117589 0.05510733 -0.060654454 -0.03136484 0.038921926 0.03105413 0.042543445
-0.017456155 0.02796041 -0.048312504 -0.016041864 0.043898806 0.05464256 0.0422607 -0.012746516
00000000: 7937 29bd 02f7 69bb dfeb 44bd 4bbb 683d
00000010: 4410 7bbc 4d32 c9bc 50ed f23c e416 a93a
00000020: 6d35 1ebd 1e6e 9bbb 3724 513d d618 d23c
00000030: 25ae 84bd 5ad6 63bd 3b1c 33bd 7c80 ca3c
00000040: efa5 683d 9806 bbbb 93d8 97bc 96c6 cc3b
00000050: 53fe eabc 44b9 d3bc e64d 54bd 8ace 803d
00000060: e7d9 593d 57ca e9bc 483c 873c 67f6 7b3d
00000070: 192e fc3c 275a 65bc 6905 1bbd 4a71 1bbd
00000080: 2b45 1ebd ba84 db3c 7384 7e3d 2a02 c7bb
00000090: 53a3 523d 6f6e 6a3d a880 c9bc f4f9 bd3a
000000a0: 1d28 093b cb55 353c 8bb0 d2bb 6694 62bd
000000b0: 9db7 1e3c 3062 973c 782f 01bd ce92 1dbd
000000c0: 60f1 a3bc 0a4b 64bd e5c1 dfbc ee79 17bb
000000d0: 285d a13c f6a2 19bd 82bb 123d b104 0cbc
000000e0: 7a93 afbc cb36 f03c a513 123d 5d93 a93c
000000f0: 9d85 08bd 5959 173d 917a 633d 4c69 13bb
00000100: c04d 383d dcc3 6ebd ed4d 89bb da51 83bd
00000110: 217a cb3b 0d3d 963c 670b b0bc 3be1 1e3d
00000120: b988 1dbd eeb6 6dbc 868f 063d a28e acbc
00000130: 913a 703d 0173 3abd 14cd 35bd d6ec 8ebc
00000140: 52f7 12bd f9d6 983c 9ad4 0cbd 8eba 163d
00000150: f9cb 943c 8b73 38bd 718c 353d 2135 163d
00000160: 63a9 4bbc ae2c ebbc 45ae 94bc 7ad4 ebba
00000170: 7ae8 403d 6a4f be3b 9b3a 5a3d b2d7 ea3c
00000180: 2bde e0bc 00b8 3ebc dd27 dcbc 5b6d f63c
00000190: 4e6a 46bb e11a 303d 30ed b7bc c915 0cbd
000001a0: 75ce 803d 3e5e 7fbc eee7 3e3c b864 4bbd
000001b0: e8c8 00bd 90e0 bbbc fdd7 6f3c 1393 50bd
000001c0: 854d 84bd 0da8 28bd 39b8 613d ce70 78bd
000001d0: 6b78 00bd 996c 1f3d 3b65 fe3c 0942 2e3d
000001e0: 3600 8fbc 3b0d e53c 55e3 45bd 3a6a 83bc
000001f0: 3ccf 333d e1d0 5f3d 8e19 2d3d c3d6 50bc

layers.2.weight f4 [32, 128]
-0.07953473 -0.0004978113 -0.020243265 0.06211645 0.0009812695 -0.017749727 0.0704273 -0.021695174
-0.07232275 -0.016742272 0.07398814 0.0021230304 -0.074558884 0.04630572 0.045387596 -0.075759776
0.08796671 0.011301932 0.025785875 -0.022423146 -0.06548114 -0.046527572 -0.060958795 -0.04778579
-0.0006458356 -0.050446253 -0.04204825 0.044085935 -0.08449564 -0.0150845675 0.06810185 -0.0134376455
0.090445526 -0.03981459 0.0664283 0.068794586 -0.08699795 -0.03803962 -0.027039934 -0.04023557
0.06468142 -0.0709691 0.029166281 -0.0149475355 0.03667621 -0.028670216 -0.036334038 -0.076696776
0.049592286 -0.06668508 -0.016426932 -0.06896045 -0.007987129 0.006217453 0.026964799 -0.07405729
-0.048673872 -0.08033324 0.058655396 0.047032908 -0.0594653 0.08547256 -0.010268309 -0.06955787
0.0026387752 -0.034221385 -0.017232826 -0.010338273 -0.045238588 -0.0020411867 0.009001049 0.06481098
0.007891052 0.07022158 0.080563076 -0.007558067 0.05656108 0.04939146 -0.06308826 -0.030066846
-0.06649393 0.005109714 0.035922535 -0.027113661 0.0004878294 -0.06674498 -0.016450483 0.0703679
0.03792347 0.039342403 -0.039166816 0.054500703 0.04523182 -0.045740746 -0.011299564 -0.003509164
-0.061358713 0.062939756 0.075397976 0.030517275 0.052357912 -0.0069145383 0.01749969 0.07702747
0.08328957 0.026218493 -0.010282119 -0.003979779 0.051817276 -0.061389726 -0.008070534 -0.07977857
-0.0048029437 0.023207355 -0.052650597 -0.062042728 0.0062472336 -0.016281445 -0.014714281 -0.059325375
-0.03245012 -0.00081875315 -0.012535889 -0.038466588 0.07028024 0.09008526 -0.04529445 -0.05400045
-0.07212472 -0.0038192752 -0.039753042 -0.07662451 -0.04655165 -0.0567111 -0.008368718 -0.059805173
-0.06400837 -0.035500832 0.09075756 0.051973123 -0.02513539 -0.061412677 -0.06964577 0.05383152
-0.025039956 -0.06167085 -0.047964815 -0.045155775 0.024920942 0.00187696 0.027359085 0.07533159
-0.058013022 -0.0019385192 0.076294 -0.061867815 0.036114056 0.00091905135 -0.04374214 -0.05103994
0.024879938 0.039181303 -0.034113437 -0.06194316 -0.030487295 -0.060737386 -0.07493508 -0.06818576
-0.057374585 -0.08062329 0.080788895 -0.0070415586 0.019627769 -0.074803285 -0.0002814015 0.01640657
-0.028638741 -0.07238182 -0.051492244 0.013009485 -0.04798715 -0.02830264 0.01971058 -0.07099441
0.028494297 -0.09547804 0.035019547 -0.06158113 -0.037574697 -0.02931273 -0.032983568 -0.04124416
0.019708276 0.045830116 -0.06406433 -0.05223743 0.062471546 -0.0716217 -0.026632706 -0.041568436
0.05682948 0.09220946 0.04338262 -0.05769463 -0.06964382 0.00947655 0.027879184 0.0032832758
0.06504828 -0.08156035 0.039268877 -0.0011116811 -0.014164704 0.07966505 -0.040820826 -0.025471743
-0.058408782 0.015875734 0.043376297 -0.08047976 0.070815235 -0.033350993 -0.054065134 0.022180378
-0.017193219 -0.04646109 -0.0036834104 0.0002255781 0.056548826 0.006630049 -0.013285368 -0.002612
-0.032862898 0.052075498 -0.029903173 0.013242441 -0.054709665 0.03140896 -0.051821154 0.02788638
0.061070886 0.024030065 -0.0054938663 -0.075081855 0.059332475 -0.06728789 -0.0916142 0.010981201
-0.070838034 -0.07647231 -0.044882953 0.017475715 -0.020083828 -0.008853043 -0.07680168 0.04943107
00000000: 1be3 a2bd 8d7f 02ba 34d5 a5bc d26d 7e3d
00000010: f19d 803a e067 91bc 303c 903d 14ba b1bc
00000020: f31d 94bd 1727 89bc 1887 973d 8a22 0b3b
00000030: 54b2 98bd 11ab 3d3d 58e8 393d f127 9bbd
00000040: e427 b43d bd2b 393c e63c d33c bfb0 b7bc
00000050: fa1a 86bd b293 3ebd eeaf 79bd 08bb 43bd
00000060: 4b4d 29ba bba0 4ebd c93a 2cbd 7493 343d
00000070: 0d0c adbd 4325 77bc fc78 8b3d 9229 5cbc
00000080: 813b b93d a014 23bd 900b 883d 2de4 8c3d
00000090: fb2b b2bd 6fcf 1bbd da82 ddbc 0ece 24bd
000000a0: b177 843d 3f58 91bd 20ee ee3c 82e6 74bc
000000b0: cb39 163d cddd eabc 00d3 14bd 3313 9dbd
000000c0: 4821 4b3d 3092 88bd c691 86bc 233b 8dbd
000000d0: 72dc 02bc c7bb cb3b 48e5 dc3c 59ab 97bd
000000e0: 415e 47bd c185 a4bd a440 703d 94a5 403d
000000f0: e391 73bd 3d0c af3d 693c 28bc 5b74 8ebd
00000100: 4def 2c3b b92b 0cbd db2b 8dbc dc61 29bc
00000110: 194c 39bd 6ec5 05bb 2379 133c 9ebb 843d
00000120: 7949 013c 55d0 8f3d 41fe a43d a9a9 f7bb
00000130: 97ac 673d b34e 4a3d 6b34 81bd bf4e f6bc
00000140: f82d 88bd 636f a73b 8223 133d 781d debc
00000150: 5bc3 ff39 98b1 88bd 2ac3 86bc 0c1d 903d
00000160: a455 1b3d 8025 213d 626d 20bd 213c 5f3d
00000170: 0045 393d a65a 3bbd ce21 39bc 01fa 65bb
00000180: 4653 7bbd 8fe6 803d 416a 9a3d 5dff f93c
00000190: 4075 563d 5a93 e2bb 835b 8f3c 94c0 9d3d
000001a0: b993 aa3d 2ac8 d63c 5576 28bc ce68 82bb
000001b0: 5a3e 543d cb73 7bbd 463a 04bc f262 a3bd
000001c0: 0362 9dbb 5a1d be3c 27a8 57bd 8420 7ebd
000001d0: 98b5 cc3b aa60 85bc 2b14 71bc 2aff 72bd
000001e0: 6bea 04bd 98a1 56ba 5463 4dbc 248f 1dbd
000001f0: 16ef 8f3d 9f7e b83d ac86 39bd 932f 5dbd
00000200: 20b6 93bd ce4c 7abb 16d4 22bd 50ed 9cbd
00000210: f1ac 3ebd e649 68bd f31c 09bc 45f6 74bd
00000220: d216 83bd 5269 11bd 1adf b93d c5e1 543d
00000230: bce8 cdbc dc8b 7bbd 71a2 8ebd 717e 5c3d
00000240: 9820 cdbc 939a 7cbd c176 44bd 43f5 38bd
00000250: 0127 cc3c 5404 f63a 2920 e03c 7347 9a3d
00000260: 109f 6dbd e915 feba 0740 9c3d 1b69 7dbd
00000270: 55ec 133d 7eec 703a f52a 33bd 420f 51bd
00000280: 03d1 cb3c 937c 203d 88ba 0bbd 1cb8 7dbd
00000290: 7ec0 f9bc c4c7 78bd 9077 99bd faa4 8bbd
000002a0: 9d01 6bbd d31d a5bd a674 a53d e0bc e6bb
000002b0: 6aca a03c 7732 99bd 1289 93b9 1267 863c
000002c0: cb9b eabc eb3c 94bd 88e9 52bd bc25 553c
000002d0: 2c8e 44bd f0da e7bc 1578 a13c 8465 91bd
000002e0: df6c e93c fe89 c3bd a870 0f3d 7f3c 7cbd
000002f0: ede7 19bd 4021 f0bc c719 07bd a3ef 28bd
00000300: 4073 a13c 5cb8 3b3d 2934 83bd eaf6 55bd
00000310: 2ae2 7f3d 66ae 92bd d52c dabc aa43 2abd
00000320: 07c6 683d 50d8 bc3d f9b1 313d 3451 6cbd
00000330: 6ba1 8ebd 8843 1b3c e362 e43c 3a2c 573b
00000340: 0838 853d 1d09 a7bd 67d8 203d d4b5 91ba
00000350: 1313 68bc 6e27 a33d bd33 27bd 1eaa d0bc
00000360: 0c3e 6fbd d40d 823c 58ab 313d 93d2 a4bd
00000370: 9407 913d 0d9b 08bd 6773 5dbd a0b3 b53c
00000380: cbd8 8cbc fc4d 3ebd 5f65 71bb 2989 6c39
00000390: be9f 673d e240 d93b dfaa 59bc 172e 2bbb
000003a0: 3f9b 06bd 1e4d 553d 80f7 f4bc d3f6 583c
000003b0: 3e17 60bd afa6 003d 6b42 54bd fa71 e43c
000003c0: 7725 7a3d b3da c43c e405 b4bb 84c4 99bd
000003d0: 9c06 733d 3cce 89bd 3aa0 bbbd 7fea 333c
000003e0: 8813 91bd 849d 9cbd 30d7 37bd 3b29 8f3c
000003f0: d786 a4bc 5b0c 11bc 334a 9dbd 3c78 4a3d

layers.2.bias f4 [32]
-0.06652037 0.03521645 -0.016965523 0.040916488 -0.083173834 0.08133308 -0.016477322 -0.07641332
-0.059900455 0.08322429 0.03966337 0.06880402 -0.032804057 0.017046511 0.07872691 0.008364254
-0.07308495 0.07827018 0.049335867 0.04214516 0.08033175 0.07071364 -0.012376388 -0.028861603
0.06995784 -0.09119132 0.03626688 -0.06877815 0.05373537 0.04341197 -0.058618054 -0.07946989
00000000: d53b 88bd 203f 103d 48fb 8abc 0c98 273d
00000010: 0b57 aabd f591 a63d 73fb 86bc 967e 9cbd
00000020: 2e5a 75bd 7f71 aa3d 0f76 223d 1fe9 8c3d
00000030: 8c5d 06bd 20a5 8b3c 933b a13d 390a 093c
00000040: 90ad 95bd 1e4c a03d 6814 4a3d 67a0 2c3d
00000050: f984 a43d 50d2 903d 55c6 4abc 2b6f ecbc
00000060: 0e46 8f3d 84c2 babd 948c 143d 8fdb 8cbd
00000070: 9f19 5c3d c0d0 313d 7c19 70bd 1cc1 a2bd

layers.3.weight f4 [4, 32]
-0.13573985 -0.14898951 -0.13836074 0.10158508 -0.12328837 0.05079265 0.14595376 0.08405003
-0.13256688 0.13612983 0.0012542361 -0.06608695 0.04016048 -0.04403341 0.13651447 0.07085776
-0.166701 0.1678801 0.07866174 -0.0028997276 0.11473177 -0.07371234 0.06569124 0.14746085
-0.010329324 0.052366238 -0.09710683 -0.04130859 -0.07292242 0.14674453 0.024389517 -0.15798402
-0.09464021 0.0025746208 -0.068280794 -0.03111961 0.13514555 -0.1566629 -0.12065086 -0.17536542
0.021255998 0.11293153 0.0008150977 0.08494925 -0.07583755 -0.0523546 0.16226697 0.026240157
-0.085743956 0.009069523 0.036913063 -0.0013821793 -0.031769343 -0.057986073 0.100168705 -0.09024581
0.054037146 0.07464576 0.15380207 0.027780073 -0.072598726 0.0019425526 0.063403256 -0.1104095
0.12860669 0.027846532 -0.17227761 0.018773913 0.141788 -0.14366615 -0.1333921 -0.056082632
-0.14342913 0.111450106 -0.18265258 -0.09352469 0.117461346 -0.08879682 -0.13269937 0.09704051
0.15280439 -0.13669796 -0.017881317 0.011077023 0.02614857 0.10230912 0.07642299 0.0027717631
0.060840435 0.07814631 -0.0036266614 -0.066845536 -0.16686657 -0.16861957 0.122814775 0.042272728
-0.14199705 0.094996355 0.054614443 -0.032601442 -0.010218212 -0.0022989856 0.1689167 -0.0076905335
-0.10038505 0.15389873 0.14045101 -0.08110545 0.03079214 0.10841053 -0.05041037 -0.08935923
0.12535216 -0.04444337 -0.11469565 0.11798571 -0.07914812 -0.08036556 0.031452328 -0.06775296
-0.06813393 -0.10654381 0.071127765 -0.06049134 0.16704284 -0.025594413 -0.15345363 -0.113792405
00000000: 63ff 0abe b590 18be 70ae 0dbe d70b d03d
00000010: 9d7e fcbd f40b 503d e774 153e 6c22 ac3d
00000020: 9dbf 07be 9e65 0b3e 2e65 a43a 9858 87bd
00000030: 517f 243d 605c 34bd 73ca 0b3e e01d 913d
00000040: abb3 2abe c3e8 2b3e 6819 a13d 5b09 3ebb
00000050: 7df8 ea3d 7ff6 96bd 2189 863d faff 163e
00000060: 533c 29bc fb7d 563d f2df c6bd 3233 29bd
00000070: 5a58 95bd 3344 163e 86cc c73c 90c6 21be
00000080: bad2 c1bd f8ba 283b cdd6 8bbd 8dee febc
00000090: 9863 0a3e 3d6c 20be cc17 f7bd fe92 33be
000000a0: 0f21 ae3c a548 e73d 48ac 553a dff9 ad3d
000000b0: b850 9bbd c771 56bd 5029 263e 99f5 d63c
000000c0: 879a afbd 5698 143c 2732 173d 3e2a b5ba
000000d0: 9220 02bd ce82 6dbd 4025 cd3d ccd2 b8bd
000000e0: 0e56 5d3d e0df 983d 4a7e 1d3e 0993 e33c
000000f0: a4ae 94bd 409d fe3a 91d9 813d 601e e2bd
00000100: 79b1 033e 691e e43c 8b69 30be c0cb 993c
00000110: e030 113e 381d 13be f097 08be e7b6 65bd
00000120: 16df 12be f43f e43d 4709 3bbe df89 bfbd
00000130: 938f f03d 1bdb b5bd 58e2 07be 2dbd c63d
00000140: c178 1c3e 8dfa 0bbe d77b 92bc 677c 353c
00000150: 8735 d63c 7287 d13d a883 9c3d 78a6 353b
00000160: d233 793d 2c0b a03d 48ad 6dbb 50e6 88bd
00000170: 12df 2abe 9caa 2cbe 5086 fb3d 2b26 2d3d
00000180: ad67 11be 738d c23d 65b3 5f3d 1789 05bd
00000190: 4a6a 27bc 94aa 16bb 80f8 2c3e df00 fcbb
000001a0: ad96 cdbd a197 1d3e 64d2 0f3e 9d1a a6bd
000001b0: cc3f fc3c 5706 de3d 1b7b 4ebd f901 b7bd
000001c0: 515c 003e 400a 36bd 8ee5 eabd 7ea2 f13d
000001d0: 6918 a2bd b396 a4bd 28d4 003d 10c2 8abd
000001e0: cd89 8bbd a433 dabd 6fab 913d c4c5 77bd
000001f0: 470d 2b3e 60ab d1bc f322 1dbe fe0b e9bd

layers.3.bias f4 [4]
0.12576544 -0.085197866 -0.070397675 -0.03222956
00000000: a8c8 003e 387c aebd a82c 90bd 2503 04bd
