modeloC.pth (torch, 150984 bytes, 6 tensors)

layers.1.weight f4 [128, 256]
00000000: a46e 7ebc d518 4d3d acbb 01bc f335 643d
00000010: 916d 463d d564 f13c a239 2e3d 8d4e 6f3d
00000020: 376f 513c a5ea 44bd 5cab 993d 7e43 563d
00000030: 1c45 e8bb 0d22 d53c 5128 1ebc 9928 9fbc
00000040: 6679 d13c ce0f a73c 651f 583d c05c 9cbb
00000050: 5439 8f3d cb2d 053d 9840 23bd 6b0f 253b
00000060: 27b8 f9bb e771 17bd 88d5 0fbc e0db fbbc
00000070: ade7 663d 183b 3ebd 50dd db3c 664a 883d
00000080: 572f 833d e56b 253d 1d3c eabc 4542 c8bc
00000090: 3a35 863d 9304 4b3d 20ac ad3c 3efe b4bc
000000a0: f22c b73c d586 793d 6058 15bd a5ba 35bd
000000b0: 382f c3bc 5802 c8bc ebc4 5d3d e886 04bd
000000c0: c63a d6bc 74ba 283d 7ca5 493d b6a8 f13c
000000d0: a577 573d eccb 1b3d 02c7 803d 4710 533d
000000e0: e589 df3c 8be9 a13c 4918 ad3b a0a3 4a3d
000000f0: cb56 693d 3d61 cbbb a502 213c 8791 843d
00000100: 78d1 783d c593 063d 37c4 0b3d bd75 5dbc
00000110: 9e69 c43c 16e7 ccbc 6809 063d 4cfa 39bd
00000120: b11e 02bc 99da 653c c0c6 073d a7e6 7f3a
00000130: eb9b 86bc 5039 3abd a959 3d3a db27 76bc
00000140: 52c0 5cbd c6a1 2fbc e85a 3cbd c86b 003e
00000150: 689d 36bd 834c 093d 8897 4cbb bd54 703d
00000160: c2b9 4bbb a5cd 24bc 0152 14bd 5efd 893d
00000170: 03dd 2e3d 13c6 823d a356 47bd 96ea 5b3c
00000180: 57a5 3abd 3ace 383d 21ed 1e3d 7593 f13c
00000190: 1f0a a1bc fe91 953d 2265 45bd 0570 0dbd
000001a0: 80b0 12bd c436 473d 4073 b5bc 200c ecbc
000001b0: 8b24 59bd be26 513d e1a7 a93c 991c 933d
000001c0: a67f bb3c 519b 463d f3ba 293c 752e cd3c
000001d0: 6f3d feb9 111c c23c f4a6 0cbd 771e 45bd
000001e0: 7658 c13c 3f37 2f3d 1825 2e3d 41cf 1bbd
000001f0: 6cc5 c8bc 3a82 163c bd90 4e3d e3aa d0bc
00000200: 0148 833c 6d22 94bc 5d24 473c 5eb8 18bd
00000210: a286 d73b 7e29 9a3d 07e9 e4bc fa9c b43b
00000220: f52c 7a3c 299a 1c3c 68f7 f2bc 9b04 0cbc
00000230: 0d58 3cbd 40bf 923d 4895 763d 49f6 2f3d
00000240: a30b 683b b6b9 983d 3f0d 443b c7d7 5e3d
00000250: 6fe0 4abd 5783 be3c 2dee 64bb dbbf 853d
00000260: 11c2 edbc 1647 b83b 826c 13bd 44ee c33c
00000270: e75b 24bd 7a74 343b 7131 853d 1a7f 573d
00000280: b45b 513d 9221 1b3d cb02 023d e1a2 933d
00000290: ea3d 633c 7d60 4bbd 3b07 823d 2c16 cc3c
000002a0: 70c4 05bd eeaa 903d 3086 b3bc 1d48 1cbc
000002b0: 6426 f3bc 8992 843d ef99 12bd acec 103d
000002c0: cf80 d33c 964c 733d 5e8f 44bd 2a68 5a3d
000002d0: 2d9b c23b 5492 14bd d711 00bb 8213 68bc
000002e0: e7fd 853c e8da cd3c 36ca 96bd c43a 973c
000002f0: 83f2 b2bc 74ef 663d 2aa7 653c ea41 02bd
00000300: bd79 7c3c 7776 e6bc 5253 01bc e8bc 42bb
00000310: a41d acbb 9131 e1bc 8848 8fbd 8cdb 3ebc
00000320: 803d fabb 3a1d 93bb ca0a 383d adbc 23bd
00000330: 2e97 73bd 5b01 2abd cf3d 9cbd 456f 38bc
00000340: 9e97 3a3d 9ef5 99ba f7ff 413d 54bb 033d
00000350: 4927 eebc b67d 1cbc 088c f8bc f06a 033d
00000360: 0a8a 2ebd f1ad 883d 8a7e 3a3d 3c08 883d
00000370: 7311 bebc 7419 38bd c27a 5e3d a2a2 09bd
00000380: 7a08 1fbd f4d8 75bc f0e7 c9bc e6b7 06bd
00000390: bf43 82bd 9095 8ebc 126b 623d d824 f93c
000003a0: a418 213c c499 9f3c 3037 84bc 93c7 e63b
000003b0: 2798 543c 90a8 d2bb b6a8 213d 30e9 85bb
000003c0: ea37 8abd 7477 35bd 1ca5 b0bc eddd e53c
000003d0: d874 7b3d 8cc1 bcba a13b f23c 9cd8 54bd
000003e0: d55a e8bc 927f 2b3d 4d31 163d 8741 373d
000003f0: 48e2 ce3c 735c 363d 9ef3 85bc e057 1fbd
-0.0155293085 0.05007251 -0.00791828 0.055715512 0.048444334 0.029467026 0.04253543 0.05842452
0.012782863 -0.048075337 0.07503387 0.05231046 -0.0070883166 0.026017213 -0.009653167 -0.019428538
0.025570583 0.020393278 0.052764315 -0.004771799 0.06993356 0.032514375 -0.039856523 0.0025186192
-0.0076208296 -0.03697386 -0.008778937 -0.030744493 0.056373287 -0.046443075 0.026838928 0.066548154
0.06405514 0.0403861 -0.028593117 -0.024445662 0.06553121 0.04956491 0.02120024 -0.022093888
0.022360299 0.0609196 -0.036461234 -0.04436745 -0.023826227 -0.02441518 0.054142874 -0.03235522
-0.026151072 0.04119344 0.049230084 0.029499393 0.052604336 0.038036272 0.06287958 0.051529195
0.027287433 0.019764682 0.005282436 0.04947245 0.056967538 -0.00620666 0.009827291 0.0647307
0.06074664 0.032855768 0.034122672 -0.0135168405 0.023976143 -0.025012534 0.032723814 -0.045404717
-0.007941888 0.0140291685 0.033148527 0.0009761848 -0.01643177 -0.045464814 0.0007223138 -0.015024151
-0.05389435 -0.010719722 -0.045985132 0.12541115 -0.044583708 0.033520233 -0.003121825 0.058674563
-0.0031086062 -0.010058795 -0.036211018 0.06737779 0.042691242 0.06385436 -0.048666608 0.013422629
-0.045567837 0.045118548 0.038800362 0.029489258 -0.019658146 0.073032364 -0.04819215 -0.03453066
-0.035812855 0.048636213 -0.022149682 -0.028814375 -0.053013366 0.051062338 0.020709934 0.07183189
0.022888016 0.048487965 0.010359514 0.025046567 -0.00048492427 0.023695024 -0.034338906 -0.048124757
0.023601752 0.042777296 0.042515844 -0.03803945 -0.0245082 0.009186322 0.050431002 -0.02547211
0.016025545 -0.018082822 0.012154666 -0.0372852 0.006577329 0.07527445 -0.027943147 0.005511877
0.015269508 0.009558239 -0.029658988 -0.00854602 -0.04598241 0.07165384 0.06020096 0.042959485
0.0035407327 0.074572966 0.0029915122 0.054405 -0.049530443 0.023255987 -0.0034932003 0.06530734
-0.029023202 0.0056237085 -0.035992153 0.023917325 -0.040126707 0.0027535246 0.06503571 0.052611448
0.051112846 0.037873812 0.031740945 0.07208801 0.013869742 -0.049652565 0.06349035 0.024912916
-0.03265804 0.07063852 -0.021914572 -0.0095386775 -0.029681392 0.06473262 -0.035791334 0.035381958
0.025818257 0.05939921 -0.047988288 0.053321995 0.0059389086 -0.036272362 -0.0019541883 -0.014164807
0.016356422 0.025128797 -0.073627874 0.018460639 -0.021844154 0.056380704 0.014016906 -0.03180114
0.015409884 -0.02813266 -0.0078934 -0.0029714648 -0.005252557 -0.027489455 -0.06996256 -0.011649024
-0.007636726 -0.004489568 0.044932164 -0.039974857 -0.059470348 -0.0415052 -0.076289766 -0.0112569975
0.04555475 -0.0011746173 0.047363248 0.032161072 -0.029071467 -0.009551456 -0.03034021 0.032084405
-0.042612113 0.06673802 0.045530833 0.066421956 -0.02320168 -0.04494615 0.05431629 -0.033602364
-0.038826443 -0.015005339 -0.02464673 -0.032890223 -0.06360578 -0.017405301 0.05527789 0.030413076
0.009832535 0.0194825 -0.016139597 0.007042834 0.012975729 -0.0064287856 0.039467536 -0.004086636
-0.06748946 -0.044303373 -0.021563105 0.028059924 0.061390728 -0.0014400943 0.029569449 -0.051964387
-0.028363625 0.041869707 0.03666811 0.044740226 0.025254384 0.04452176 -0.016351517 -0.038902164

layers.1.bias f4 [128]
00000000: ee04 fbbb 7327 063b f9eb 303d 4ca0 4bbc
00000010: a9de 063c 8e6e 423d 0db9 87bc 8c3c a03d
00000020: 18aa 0a3d 9ae0 d1bc cb35 153c d604 c0bc
00000030: 3071 7c3d 9668 2a3d 16c6 0b3d b290 983b
00000040: cfa3 803d dfc4 073c d46e 71ba d577 c73b
00000050: 6e3a 61bd ff00 673d 58e4 3c3c eb6c 99bc
00000060: b919 0b3c baab 9b3d 127e 353d 402f d33c
00000070: 92e1 38bd 8473 4ebc 6dda 30bd 353e 2b3d
00000080: 8062 1ab9 4156 67bc 088e 1f3d 14e2 3fbd
00000090: 9ada b93c 60ae 4fbd b23a b6bc 7764 6a3c
000000a0: 072a 5abd cf1d ccbc 0a00 f13a b46b 0ebc
000000b0: 6e4b 573d b589 c13c a7db dfbc 79a9 86bd
000000c0: 7142 4abd c35f c9bc 7bdf 513c 5b86 53bc
000000d0: 2d98 883c 9fce b9bb c92b 8c3c af99 9e3c
000000e0: ace6 d13c 4d8b d73c aa58 5d3d aa42 4e3d
000000f0: 26fa 633d ce1a 50bd ea2d b63d 02da 82bc
00000100: f36a 043d 15b1 6bbd 6b7e d6bc a534 493d
00000110: e8a6 b1bc a28d 4bbd 0ae1 0bbd ecbc 213d
00000120: 474c 42bd 2c2d 833d 0f5b 47bd 1cf5 e2bc
00000130: 5d91 dfbc 2f21 933c e7a2 1b3d 7131 aabd
00000140: 3649 ae3c cf82 853d 34f1 f73c f9cc d03c
00000150: a32a e6bb 82ea 343d 0faa e3bc 8146 fb3c
00000160: 9dcf 7a3d 300b 7c3d f5be 523c 17c5 1dbd
00000170: 996c 43bd bd2e 2f3d a9e3 923d 5e42 183b
00000180: 1b6e 96bd cb39 e03c 357d 99bd 554f c7bc
00000190: 0892 9fbd f883 13bd 90f6 e4bc decb 16bb
000001a0: 5af6 05bd f1ce f2bc a82d 1cbd f09e 2d3d
000001b0: 8172 8d3d 0d8a 60bd 62e2 0d3d f61f f3bc
000001c0: 65ac c93b 0b45 ba3c 330a d53c 78d1 4bbb
000001d0: 7438 453b 1251 5bbc 6300 343c f93d de3c
000001e0: 0fb0 e13c 0b38 5a3c 6b72 13bd cc87 a53c
000001f0: fa81 43bc 90b4 1fbd 01e7 35bd f820 813d
-0.0076605 0.002047029 0.04319379 -0.0124283545 0.008231797 0.047468714 -0.016567731 0.078240484
0.03385362 -0.025619794 0.0091070635 -0.023439806 0.06163138 0.041603647 0.034124456 0.004655921
0.06281244 0.008286684 -0.0009209935 0.006087283 -0.054987364 0.056397434 0.011529051 -0.018728694
0.0084900195 0.076011136 0.044309683 0.025779366 -0.045136996 -0.012600783 -0.043177057 0.041807372
-0.00014723279 -0.014119686 0.03895381 -0.046846464 0.022687245 -0.050703406 -0.022244785 0.014306179
-0.053262737 -0.024916558 0.0018386852 -0.008692671 0.05256217 0.023625234 -0.027326418 -0.06575293
-0.04937977 -0.024581796 0.01280963 -0.012910451 0.016674126 -0.005670383 0.017110722 0.019360391
0.025622688 0.026311541 0.054039635 0.050356545 0.055658482 -0.050806813 0.08895476 -0.015973095
0.032328557 -0.057541925 -0.026183328 0.04912247 -0.021686032 -0.04969562 -0.03415016 0.03948681
-0.047436025 0.064051 -0.048670825 -0.027704768 -0.027290994 0.01796016 0.037997153 -0.083102114
0.021275144 0.065190904 0.030266382 0.025488364 -0.0070241257 0.044168957 -0.027791051 0.030673267
0.06123315 0.061534107 0.0128629105 -0.038518038 -0.04771099 0.042769182 0.07172329 0.0023232917
-0.0734522 0.027371308 -0.074945845 -0.02432982 -0.07791525 -0.036014527 -0.027949601 -0.0023009698
-0.032705642 -0.029639693 -0.03812948 0.042387903 0.069066055 -0.054819155 0.034639724 -0.029678326
0.006154584 0.022738 0.02600584 -0.0031100195 0.0030093463 -0.013386028 0.01098642 0.02712916
0.027549772 0.013319026 -0.03599779 0.020206355 -0.011932844 -0.038990557 -0.044409756 0.063051164

layers.2.weight f4 [32, 128]
00000000: 3894 8d3d 0447 9cbc 5b83 b0bd 430f a2bd
00000010: 01f8 923b 3c48 42bd 05cf 97bd e594 fd3b
00000020: ac63 1b3d db76 1fbc 15f2 ef3b 46fc 913c
00000030: ac90 183d f825 85bd 2622 65bd ed5c bbbd
00000040: 05e4 1fbd 3aad 41bc d7ae b8bd f761 ab3b
00000050: 38e5 533d a950 0dbc 5bb6 aabd fa88 91bd
00000060: 86d8 73bd 3b70 713d 47f4 0f3c a799 413d
00000070: 45e6 c03b 0b91 863d 1d9d 44bd 3c0e 823d
00000080: 4125 8d3d 315c 82bd dc39 383d ee4d cf3c
00000090: 33ae e53a 2a98 a53c 46dc 9bbd 8bb3 9ebc
000000a0: da7e 983d 511c 0bbd 4992 5dbd 1cd3 bf3a
000000b0: d696 453c d21a 753d 11d8 2f3c 59c5 7bbd
000000c0: 988f 5fbc 51c6 603d e056 a2bd 0972 dfbc
000000d0: e90a a33d 7da8 9bbd 3642 9dbb 09e5 a8bb
000000e0: b238 d43c 4d3f b63d fdd6 a6bb a9fe 183d
000000f0: ad19 733d 517e 423d 63a2 44bd dfba f03c
00000100: 19b2 bdbc 95fc 1d3d ca17 12bd cbea cabc
00000110: 51e7 8b3d 9d75 dd3d 062c 25bd 09ac 423d
00000120: 732d f0ba f3fb 9c3c c98f f73c 07f6 7abc
00000130: 8cc3 3c3d 1b72 e6bc 8ec6 88bd 8f14 d33b
00000140: 6f50 143d 82a6 603c 3f52 a83d c1da 1e3d
00000150: 2086 133d 6dbe 1abd 1bfb 8abd d227 e23c
00000160: 1dd6 973d ad62 c13c eb96 b6bd d548 583d
00000170: 894b d63c 3d5e 92bd a028 40bd 91c7 693d
00000180: 7ca3 74bd 1a00 2d3d 3e12 8b3d a2b0 1dbd
00000190: c04c 6e3c d9c2 c93c 7bf8 5ebd b143 82bd
000001a0: ebe8 6d3d 5c28 6ebd 1ee0 c7bd d43e c1bd
000001b0: 22bb e73c 04dd 9fbd 183e 3bbd 1ddf ea3b
000001c0: 5a26 59bd 86a3 e23b 348f adbc d775 5f3d
000001d0: 5c34 b1bd add4 57bd 8f2a 533b 44cc 0c3d
000001e0: 06c1 95bd d7f9 263d 95aa 94bc d6b0 783d
000001f0: f4bd a03d e56a c63d 42fe 983c 9688 043c
00000200: 3f78 58bd 157a d7bc f12e a13c bff6 d73c
00000210: c7fe 733d 5ada 6d3d d3a1 4c3d ac1d 883c
00000220: cc36 8d3d 9545 b8bb 0e3e c63c 0089 9bbd
00000230: 2b73 4ebd b1de 0fbc 5c6b 9e3d 25f9 723d
00000240: bbaa 403d 3378 c13d 4220 f83c ad40 563d
00000250: 8f6a 8cbd 7f06 b73d 735b 243d d923 743c
00000260: 3b2d a3bd 8f0f 9cbc 1063 143d 51b7 43bd
00000270: 9038 dcbc 2cac 92bd bb75 a23c f28e 4e3d
00000280: 4d1c 193d a7c2 a3bd 9743 27bc 03d4 343d
00000290: 5029 533d f86b 183c 4e16 673d 8653 9d3d
000002a0: 6d79 bdbd aaa5 973d 3256 bb3d dde0 1fbc
000002b0: 54aa 2e3d 88c5 77bd 2029 58bd 38ea 86bb
000002c0: 7547 9b3d 5d9f 0b3e 9a47 953d 750a 143d
000002d0: 0c13 af3c faa7 83bd 8c33 7ebc e60c df3b
000002e0: 1800 cd3c 3ece 6fbc 4c28 b9bd 3df5 33bd
000002f0: b100 1cbd 9240 b4bd 2b2f 003e 6e61 153d
00000300: ffe6 a13c 5dc8 463d 6b24 2b3d 46de 203d
00000310: 5b8e 383d c4a4 083d e987 39bd 95cb 693d
00000320: 46f5 a5bd 0cad ca3c 7745 a63d b530 73bd
00000330: 94b4 eabb f936 52bd 8ac4 b5bd 24dc 17be
00000340: 7325 923d 90e4 923d b160 713d 372d 2b3b
00000350: 416c 173d af3c cd3d e24c 863d b495 c9bd
00000360: f4d0 2f3c af05 2dbc b0f8 183d 5c5a 6c3d
00000370: a661 953c 275d 443d aba3 9b3d 3098 4cbd
00000380: c2f9 8b3c 3594 91bd 38ee d4bc 9038 c23d
00000390: b246 7f38 9b8f 973d 3180 79bd 769f 3abd
000003a0: 242f 8a3c 085e af3d 1bc1 b03d 3cb7 67bc
000003b0: db0f b23c db19 bf3d e274 933d f3a0 d43c
000003c0: 8380 ccbd 6029 cfbd e648 45bc 324b 4d3d
000003d0: c4f5 8dbd 3bc3 ad3d 5456 a7bb e612 b4bd
000003e0: 45d7 973d 93da 2f3d 8fed fdbb 4c47 c23d
000003f0: 6dd4 483c ee7b 85bd a6c0 c0bc 39f2 f23d
0.06913036 -0.019076832 -0.08618804 -0.07913067 0.004485131 -0.04743217 -0.07412533 0.007738697
0.03793685 -0.009732927 0.0073225596 0.017820489 0.037247345 -0.065013826 -0.05594077 -0.091485836
-0.039035816 -0.011821086 -0.09017723 0.005230184 0.051732272 -0.008625188 -0.08335563 -0.07106204
-0.059532665 0.058944922 0.008786268 0.047265675 0.0058868253 0.065706335 -0.048001397 0.06350371
0.06891871 -0.0636524 0.044977054 0.025305714 0.0017523229 0.020214159 -0.07610373 -0.019372722
0.0744607 -0.03396255 -0.054094587 0.0014635059 0.012059888 0.05984003 0.010732667 -0.061467502
-0.013645075 0.05487663 -0.07926726 -0.027276056 0.07961065 -0.07600496 -0.0047991527 -0.0051542562
0.02590594 0.088987924 -0.0050915466 0.037352238 0.05935066 0.047483746 -0.048006427 0.029385982
-0.023156213 0.03857096 -0.03566722 -0.024770161 0.068312295 0.108134486 -0.040325187 0.047527347
-0.0018324092 0.019163107 0.03021993 -0.015317447 0.046084926 -0.028130582 -0.06678496 0.0064416598
0.03620952 0.013711574 0.08218812 0.03878284 0.036016583 -0.03777926 -0.06786176 0.027606878
0.07413886 0.023606623 -0.08915504 0.052803833 0.026159065 -0.07146881 -0.046913743 0.057075087
-0.059726223 0.042236425 0.06790589 -0.03849853 0.014544666 0.024629043 -0.05443619 -0.06360567
0.058083456 -0.05814396 -0.09759544 -0.09435812 0.028287474 -0.07805827 -0.045713514 0.0071677105
-0.05301509 0.006916466 -0.021186449 0.05455574 -0.08652565 -0.052693058 0.0032221412 0.03437449
-0.07312207 0.04076561 -0.018147746 0.06071552 0.07848731 0.09688357 0.018675927 0.008089205
-0.05284905 -0.02630333 0.019675704 0.026362775 0.059569146 0.058069564 0.049959015 0.016615711
0.06895217 -0.005623529 0.024199512 -0.0759449 -0.0504028 -0.008781121 0.07735321 0.059319634
0.04703782 0.09446754 0.03028882 0.052307773 -0.06856262 0.08936786 0.040126275 0.014901125
-0.079676114 -0.019050388 0.036227286 -0.047782246 -0.02688244 -0.071617454 0.019831529 0.050429292
0.037380505 -0.07996111 -0.010208986 0.044147503 0.05155307 0.0093030855 0.056417756 0.076819465
-0.09251676 0.07404645 0.091473 -0.009758201 0.042642906 -0.060491115 -0.052773595 -0.0041172765
0.07581989 0.13635011 0.072890475 0.036142785 0.021371387 -0.06428523 -0.015515219 0.0068069575
0.025024459 -0.014636574 -0.09040889 -0.04393505 -0.038086597 -0.08801378 0.12517993 0.03646987
0.019763468 0.048530925 0.041782778 0.039274476 0.045057636 0.033360258 -0.04529563 0.057078917
-0.08103423 0.024740718 0.08118718 -0.059372623 -0.00716264 -0.051321957 -0.088753775 -0.1483007
0.07136049 0.07172501 0.058930103 0.002611948 0.036968473 0.1002134 0.06557633 -0.09843007
0.010730971 -0.010560437 0.037346542 0.05770336 0.018235039 0.0479404 0.075995766 -0.049949825
0.017086867 -0.071083464 -0.025992498 0.09483445 6.0862578e-05 0.074004374 -0.06091327 -0.04556223
0.016868182 0.08562857 0.08630582 -0.014142808 0.021736076 0.093311034 0.07200028 0.025955653
-0.09985449 -0.101153135 -0.012041306 0.05012054 -0.06931642 0.08484503 -0.0051067267 -0.08792667
0.07414106 0.042933058 -0.0077492665 0.09486255 0.0122576775 -0.06517778 -0.023529362 0.118626066

layers.2.bias f4 [32]
00000000: 3cae cc3c a6a9 aa3d 0a08 363d 61fc b23d
00000010: 9d17 9b3d d362 f3bc d688 2abd ad37 833d
00000020: ce26 53bd a75f 62bc 6414 c4bb 8b47 233d
00000030: 7d43 bb3d 0428 b9bd 8a51 0b3d 68a5 3b3d
00000040: 4eeb a73d fa51 5abb 5a47 7dbc 6f13 9a3d
00000050: 1598 8abb ee80 923d b1e5 73bb 29f9 a33d
00000060: 01f8 bf3c e41c 10bc 8600 913d f0e2 9b3c
00000070: 068c 193d b9fe 393b bc79 e53c baeb 20bd
0.024985425 0.08333139 0.04444126 0.08739544 0.07572863 -0.029710209 -0.041634403 0.06407104
-0.05155068 -0.013816751 -0.005983876 0.03986315 0.09143732 -0.090408355 0.03401331 0.04581204
0.08199178 -0.0033313022 -0.015458906 0.07523238 -0.0042295554 0.07153498 -0.0037215764 0.08006508
0.023433687 -0.008795951 0.07080178 0.01902911 0.037487052 0.0028380586 0.028012149 -0.039287306

layers.3.weight f4 [4, 32]
00000000: a73c a33d 1fdc 263e f21a e03d b2d2 9c3c
00000010: 9f34 ab3d 084e 3cbe ddf1 2dbe 941e 213e
00000020: b914 a3bd 0444 363e eb96 46bd becd e9bd
00000030: 92b5 d83d 7aa7 883d 31f6 08be 1b8c 08be
00000040: 088b 53bc 9af5 febd 080d 22bc 5f22 1f3e
00000050: 20a0 94bd 27d9 ad3c 85fa b43d d78a 5e3d
00000060: 5ca0 173e 5b76 a1bd 49b1 0d3e 232c aabc
00000070: a333 18be 0b0b 933d 9b9a 23bd 92f9 5b3c
00000080: e011 183e 2916 29be de29 5e3c c01d 98bd
00000090: 8bac 09be c475 fe3d fb61 283e dcd0 503b
000000a0: 3c51 f0bd 95a2 833d 87d6 dd3d 5d38 c43d
000000b0: 541a 37be c05a 393e 6c33 883b 307f 453e
000000c0: 56ca acbd ea45 14bc 3776 1b3b 869d 0e3e
000000d0: e17b 46be f791 65be 0af2 d03d 11eb 0dbd
000000e0: 5143 2e3d 3bf3 db3d 4eb6 98bd 9de5 36be
000000f0: 525e d3bd eed9 113e f864 8cbd 9b02 b33d
00000100: 0a4d 933d a170 143d 0279 ae3d a331 b4bd
00000110: 255c d93d 1465 3f3e 802c 1ebe 45f3 9f3c
00000120: 56fd c63d 1d36 21bd 8fdb 0abd 10ee 283e
00000130: e59c aebc 16ae 483d 40ad 2cbe 2876 b2bb
00000140: fd2e 11bd 4a86 043d f461 aa3d ef38 223e
00000150: a90f bbbc 480d 823c 50c6 c53d da7d 203e
00000160: b84c 523d a582 a93d dfe5 d63d 7c3b 143e
00000170: 51be 00be e997 5b3d 2758 d9bd 22b8 21be
00000180: bd45 283e 8cf0 a4bc cc29 f5bd a491 06be
00000190: 1fcf e9bc 729d be3d 7f8b 3c3d 760d 3bbe
000001a0: e1b5 2b3d 3018 383d 955d d53d b62e 2abe
000001b0: d84a 32bd 1668 f43d ab97 f2bd cbd6 3b3c
000001c0: 6f5a 1c3d eebe 793d 28c4 aebd e18f b53d
000001d0: 3c05 6bbd b29e d1bd dab8 123d df9d 1c3d
000001e0: 722c 7c3d 5f55 36bc 52d9 1f3e 67e2 e33d
000001f0: 6518 b23d 8aea 6bbc 46a6 60bd 84a4 b53c
0.07970553 0.16294907 0.109426394 0.019143436 0.08359646 -0.18389142 -0.16986795 0.15734321
-0.07962937 0.17799383 -0.04848377 -0.11416195 0.10581507 0.066725686 -0.13375165 -0.13334696
-0.012911566 -0.124491885 -0.009890802 0.15540455 -0.07257104 0.02122171 0.08836845 0.054331627
0.14807266 -0.07883903 0.1383716 -0.020773 -0.14863448 0.07179841 -0.039942365 0.013426201
0.14850569 -0.1651236 0.013559787 -0.07427549 -0.13444726 0.12424806 0.16443627 0.003186277
-0.11734244 0.064274944 0.108319335 0.09581063 -0.17881137 0.18101025 0.0041565206 0.192868
-0.0843703 -0.009049872 0.0023721585 0.13927278 -0.19383194 -0.22418962 0.10202415 -0.034648005
0.042544667 0.10739752 -0.07456647 -0.17861028 -0.103207245 0.1424329 -0.06855196 0.08740731
0.071924284 0.036240224 0.08519174 -0.0879853 0.10613278 0.18690902 -0.15446663 0.01952518
0.09716289 -0.039358247 -0.033900794 0.16497064 -0.021315048 0.048994146 -0.16862965 -0.005446214
-0.035445202 0.03235463 0.08319464 0.15842031 -0.022834616 0.015875474 0.09656966 0.15673009
0.051342696 0.082768716 0.10493063 0.14475816 -0.125726 0.05361167 -0.10612517 -0.15792897
0.16432853 -0.020134233 -0.11970863 -0.13141495 -0.028541146 0.09307374 0.04603147 -0.18266854
0.0419215 0.044944942 0.1041824 -0.16619381 -0.043528408 0.11933915 -0.118453346 0.011464785
0.03817218 0.0609731 -0.085335076 0.08865333 -0.05737804 -0.10235347 0.03582082 0.038236495
0.061565824 -0.0111287525 0.15610245 0.11127167 0.08696059 -0.01439918 -0.05484607 0.022173174

layers.3.bias f4 [4]
00000000: 88dc 04be db76 6bbd 994f df3d 74be babd
-0.12974751 -0.057486396 0.10903854 -0.09118357
