modeloD5.pth (torch, 441612 bytes, 8 tensors)

layers.1.weight f4 [128, 256]
00000000: 83d2 f8bc 3676 713d f779 53bd 2901 f13d
00000010: 3077 02bd 2135 f73d f79f 473d 127b b63d
00000020: 48ed 093b 6d85 f13d 4f2f 4dbd 7f2e 273d
00000030: 8a84 39bd 9308 bf3d d3f0 12bd ac9e 013e
00000040: 3f30 823c b3ff 073d 84aa 573d def9 b63c
00000050: 410f 0c3d f71c fc3d 9a50 3b3d b9ce ac3d
00000060: 4445 a5bc 6e1a c63d f9df 40bd 232a d33c
00000070: b924 60bd 0c11 b53d 0d02 ca3a 3245 023e
00000080: a719 cb3c b5c4 013e ad29 8dbc fcd4 973c
00000090: 9f05 93bc dd18 a83d 7748 8b3b 51e6 cd3d
000000a0: 4704 4fbb cdd7 033c bff8 6f3d 84b6 cc3d
000000b0: b4c1 2fbd 07df dc3d 7255 873d c3e2 373d
000000c0: 979e 853d 3fda df3d 5e8f 44bd bfb7 5c3d
000000d0: 0786 03b9 3cc9 d33c 8cec 703d 3180 123e
000000e0: 966e 3c3d 9127 9c3c 35bc 3b3c 0d52 df3d
000000f0: 8ac0 2bbd 26f3 09bc 6999 72bc f00e 633d
00000100: 6c3c 3ebd be64 cabc 4d53 59bd b96e 063d
00000110: a654 683d fada 923c 499e 15bd c837 36bb
00000120: 90ec b83c e940 88bc 9a6a 2f3b c2d2 27bd
00000130: 0b7c 73bc 946b 273d dd19 d3bc d27b 003d
00000140: 7a75 c33c 257e 953d 0fe2 853d 7131 d33e
00000150: 8e60 543c 2b94 a9bc e3f7 4cbb 6956 0a3d
00000160: 5167 383d f4db 083c ef9b 2bbd 0817 dbbc
00000170: 3ca9 05bc 3121 9c3d 0216 a73c 44d5 d63c
00000180: 7d26 063d b80f 103d b935 52bd 1c53 333d
00000190: 19b7 d6bc a2ba efbc de06 303d d19c 653d
000001a0: 7e37 98bc b1af 113b 26f1 a33c a896 803d
000001b0: 0360 853c 85f5 053d b877 5dbd 7af4 3fbd
000001c0: 020b c63c ebed 8e3d 800e d93c 812c c23b
000001d0: 5e91 2d3d 23a2 f93c fbd7 b53c b765 e23b
000001e0: 1b86 cdbc eaae 263d 65da 3bbd e69a 27bd
000001f0: b715 843c f5f3 7e3d 3058 86bc c2d9 b8bc
00000200: dfa8 d0bb 376a a13c 4bed 583d cf55 ab3c
00000210: dad0 73bc 8a66 d43b b332 833d 354e 553d
00000220: 766f f9bc a9b5 8fbc 18be e8bc 4c97 d63c
00000230: ed1a d8bc 162f 823d bb70 70bd ddcd 913d
00000240: 95a3 383d b48c 51bc e711 143d 2afe 533d
00000250: e264 0fbd d292 203d f0e6 f83c 2e83 153d
00000260: 5ee0 60bd ff45 603d 6574 1cbd fef6 b93b
00000270: e4b1 4b3d 0404 b73b 7278 90ba ff58 24bd
00000280: 8123 3b3c cf23 e03c 6965 573d 0115 fe3b
00000290: 0cc8 823b d3e4 433d 81ba 1ebd f4e9 0fbd
000002a0: c311 3c3d d44f 983d bf52 4d3c 15d7 2b3c
000002b0: a482 17bd fe8f edbc d6e6 353c e6f1 40bd
000002c0: d237 153c 2279 2ebd 16f3 adbc 88b2 873d
000002d0: c402 ac3c ac57 923c 2d50 733d 0f87 663c
000002e0: 852f 98bc 1161 a93d fd61 a7bd df5d cf3d
000002f0: 7821 00bd f937 d63d 0890 89bb 8193 da3d
00000300: e5e5 0abc 5540 763d 7018 ef3c 6bdf 903d
00000310: ef83 5bbd 23c0 1d3c 3b91 4b3a 00ce 533d
00000320: 9741 82bd 4e6e 703d a058 b4bd e937 0b3e
00000330: f28f 093d 8b4d 383d 7347 7ebd 7021 943e
00000340: d26a a8bb 50f7 863d cea1 423d 63a2 2f3b
00000350: e864 69bd b341 c23d 2a2b 9a3b 879c c23d
00000360: 4289 2a3d b6c4 c63d 2b9a 87bd e1a2 493b
00000370: 1d8c 6ebc 3a7c f13d 7adf 9abd a2e7 b53c
00000380: fd13 86bd 26b6 7a3d bdb7 bc3c 6328 cf3d
00000390: 5882 05bd 0c42 973d 6f01 39bd 8a54 ce3d
000003a0: 57ab afbd 38fd 453d 3daa 4cbd dd99 873d
000003b0: ee12 413d 6d57 053d c3c3 91bd 253d 213e
000003c0: c759 87bd 830c f03d bb65 73bd 109c 6a3d
000003d0: 3f49 863c b0a5 98bd 74f9 2ebd 493f 2e3d
000003e0: b7f0 d13b 1e1e 03bd 86e1 ae3c e8a1 213d
000003f0: 9130 8dbd 14e5 e23c cde6 d4bc b8b7 56bd
-0.030373817 0.058950625 -0.051629987 0.117677994 -0.031851947 0.120706804 0.04873654 0.089101925
0.0021045972 0.11793027 -0.050093945 0.040815827 -0.045292415 0.09327807 -0.0358742 0.12658185
0.015892146 0.03320284 0.05265285 0.022335943 0.034194235 0.12310212 0.045731165 0.08437867
-0.02017463 0.0967301 -0.047088597 0.025776928 -0.05472252 0.08841142 0.0015411988 0.12721708
0.024792505 0.12672694 -0.017231787 0.018534176 -0.017947016 0.08207867 0.004250582 0.10053695
-0.0031588243 0.008047056 0.058586832 0.099957496 -0.04290934 0.107847266 0.06608094 0.04489399
0.06524389 0.10930299 -0.047988288 0.05388617 -0.00012543063 0.025852792 0.05881934 0.14306714
0.0460039 0.019061835 0.011458446 0.10904322 -0.041931666 -0.0084197875 -0.014807084 0.055434167
-0.04644434 -0.02470624 -0.053057957 0.032820437 0.056721352 0.017926682 -0.036527906 -0.0027804244
0.02257374 -0.016632514 0.002676642 -0.04097248 -0.014861117 0.04087408 -0.025769169 0.031368084
0.023859728 0.07299451 0.06537258 0.41248658 0.012962474 -0.020700535 -0.0031275682 0.033773813
0.045020405 0.008353222 -0.041896757 -0.02674438 -0.008158024 0.07623518 0.020396236 0.02622474
0.03275155 0.03517124 -0.051320765 0.04378043 -0.026210355 -0.029263798 0.0429753 0.056057755
-0.018581148 0.0022229964 0.02001245 0.062787354 0.016281134 0.03270485 -0.05406925 -0.04686401
0.02417517 0.06978973 0.026496172 0.0059257154 0.04237496 0.03047282 0.022197714 0.006909098
-0.02508836 0.040694155 -0.045862574 -0.040919207 0.016123636 0.062244374 -0.016399473 -0.022564773
-0.0063677873 0.019703967 0.052960675 0.02091494 -0.014881337 0.00648195 0.064061545 0.052076537
-0.030448657 -0.017542677 -0.028410956 0.02619519 -0.026380027 0.06356637 -0.05870126 0.071193434
0.04507788 -0.012789894 0.036149886 0.05175606 -0.03500832 0.03920252 0.030383557 0.036502056
-0.054901473 0.054754253 -0.03819694 0.0056751957 0.049730197 0.0055851955 -0.0011022224 -0.040123936
0.011422039 0.027360825 0.052586947 0.0077539687 0.0039911326 0.047825646 -0.038752083 -0.035135224
0.045915376 0.07437101 0.012531935 0.010488291 -0.036989823 -0.028999325 0.011102399 -0.047105692
0.009107547 -0.04259599 -0.021234076 0.06625849 0.020997413 0.01786407 0.059402633 0.014070286
-0.018577347 0.08270467 -0.08172987 0.10125326 -0.03128192 0.10459895 -0.004198078 0.106726654
-0.008477663 0.060119946 0.029186457 0.070738636 -0.05359262 0.0096283285 0.00077654765 0.05171013
-0.063601665 0.058698945 -0.088059664 0.13595547 0.033584543 0.044995826 -0.062079858 0.2893176
-0.005139687 0.0659014 0.04751759 0.002679967 -0.056980997 0.094851874 0.0047048526 0.095025115
0.041634806 0.097054884 -0.06621202 0.003076725 -0.014559773 0.117912725 -0.07562156 0.022205178
-0.06546781 0.061208867 0.023036832 0.10115125 -0.03259501 0.07385644 -0.045167383 0.10074718
-0.08577602 0.04833719 -0.04996704 0.06621144 0.047137193 0.03255408 -0.07117417 0.15745981
-0.066089205 0.117211364 -0.05942319 0.05727774 0.016392348 -0.074534774 -0.042718366 0.042540822
0.0064068693 -0.032011144 0.021347772 0.039461046 -0.06894029 0.027697124 -0.02598896 -0.0524213

layers.1.bias f4 [128]
00000000: d939 39bc d8f0 903c f947 173d 63d4 623d
00000010: 7139 8c3d 83f8 b3bd d095 b8bd 4c75 02bd
00000020: 4105 983b 94c5 ba3b a9ad 90bc 8cda 233c
00000030: 4d65 1f3b 4a27 563d fa6b a03d f6c6 41bd
00000040: c0ca 17bd 8255 333d 6443 b63d 0daf c73c
00000050: 6023 933c 64e1 34bd a4fa 193d 8275 d23c
00000060: d5a3 abbc 7e6c 0ebd 7bb5 dabc 82da f03b
00000070: b147 21bc 4ae7 5eb9 5f0b 10bb 2a49 8ebd
00000080: 2c22 31bc 30c8 333d 5cc1 8ebd 2a99 103d
00000090: 6ca7 103d 7cc6 373d a7f8 183d 988a 91bd
000000a0: 0a2d 00bd 8bfc a53c b8be 60bc ae3f 37bc
000000b0: 265b 90bd b930 233d 404a bcbd 89cf 743b
000000c0: 2b4f 543d 076b d4bc 1c2e 3dbd 728d 0d3d
000000d0: 07ab 88bd 26c2 533c 968e ffbc 26c8 16bd
000000e0: dd1c 923d 02fc 85bc 5877 9abd 5185 673c
000000f0: b91e ccbd 4e0a be3c 4135 77bd 6bb7 a6bc
00000100: 5559 e23c 8e92 c5bc 367e ac3d a004 0c3d
00000110: 5baf f93c 9475 6ebc 8243 483d 86c3 9e3d
00000120: 3e21 e03c 7030 54bd fa81 7e3c e8d8 10bd
00000130: bd00 6c3d 1608 403d a7da 08ba 3a53 38bd
00000140: aade 64bc dc74 c6bc 5e16 69bc 56f4 94bc
00000150: 34fb 9b3d 10ae 543d 1459 b93c 8ea9 cbbd
00000160: 1753 d8bc e5db 50b9 dfb7 463d 8e0d 44bd
00000170: 076e 653d 5708 9c3d 5499 293d 2068 7e3c
00000180: bb3e f43c e6f3 d73d e017 8fbd 60ee c3bc
00000190: 1193 d33c 0ba7 95bd 4697 673c 3691 d93c
000001a0: 062c 6a3d c152 7b3c 461f c93c 03a5 1ebd
000001b0: ec46 dd3d ddf5 9cbb 8f99 b53c 93cd 18bd
000001c0: 79b7 6a3c 2f7b 383b 28d6 2d3d e4d7 77bd
000001d0: 1416 4abd 5f12 173c e48f d13d 0ef4 e1bd
000001e0: ba24 96bd 5889 a03d 297c 583d fb47 49bd
000001f0: e2d4 bfbc 45e5 c53d a6af 2fbd 3a9a ddbd
-0.011305296 0.017692968 0.036933873 0.05537833 0.068468936 -0.08787634 -0.090129495 -0.031850144
0.004639298 0.0056998227 -0.017660933 0.010000836 0.0024321855 0.052283563 0.07833095 -0.047308885
-0.03705859 0.04378272 0.088995725 0.024375463 0.017961204 -0.04416026 0.037592545 0.025690798
-0.020952145 -0.034771435 -0.026697865 0.007350267 -0.009843753 -0.00021257732 -0.0021979434 -0.06947549
-0.01081137 0.043892086 -0.06970474 0.03530232 0.035315916 0.044867024 0.03734651 -0.07106513
-0.031292953 0.020262023 -0.013717346 -0.011184616 -0.07048635 0.039841387 -0.091938496 0.0037355146
0.051833313 -0.02592994 -0.04618655 0.03455872 -0.06673246 0.012924707 -0.03119592 -0.03681197
0.071344115 -0.016355518 -0.07542294 0.014130906 -0.099667974 0.023198273 -0.06035352 -0.020351132
0.027630487 -0.024117734 0.0842251 0.0341841 0.030479124 -0.0145544 0.048892505 0.07752137
0.027359601 -0.051804006 0.0155339185 -0.035363108 0.05761789 0.04688271 -0.000522057 -0.045001246
-0.013969103 -0.024225645 -0.014226524 -0.018182915 0.076162726 0.05192381 0.022625484 -0.09944449
-0.026406808 -0.00019918343 0.048515197 -0.04786449 0.056013133 0.07618778 0.04140599 0.015527755
0.029815068 0.10544567 -0.06986976 -0.023917377 0.025826963 -0.073072515 0.0141351875 0.0265585
0.05717089 0.015339554 0.024551045 -0.038731586 0.10804543 -0.0047900514 0.022167949 -0.037305426
0.01432597 0.0028149595 0.042440563 -0.060508624 -0.04933746 0.009220689 0.10232523 -0.11032878
-0.07331224 0.07838696 0.052852783 -0.04914091 -0.02341694 0.0966287 -0.04289212 -0.10820432

layers.2.weight f4 [432, 128]
00000000: 0f67 89bc b29e 3dbd 750f d93d d655 36bc
00000010: 2515 15be fbbf 233d 9962 76bc 02bf d33c
00000020: 0e31 bbbc d0b4 cfbc 308d 533c 4398 ef3c
00000030: 4c8f 3bbb 47a3 18bd e898 bfbc e55c 803d
00000040: d0a3 5d3d 74bc dabc a8ba 833d d6d1 c0bc
00000050: 7ecc 53bc c972 513c 0e85 a5bd d0a0 ea3c
00000060: 5ac4 7cbd 7484 e5ba 2617 10bd d7b7 8e3d
00000070: af1b e9bb 4d47 f83b 2179 773d 468c 433c
00000080: 3618 e03c b15f 03bd 4f22 9cbd 032e 9d3d
00000090: c4db abbd 25b3 223d 6fa9 b1bd 177f 233b
000000a0: cc39 7d3c 3351 503c 3933 25bd 1f8a 65bd
000000b0: 6ea5 7cba 8e4a 3fbc 0a45 cfbc 8080 843d
000000c0: 359e 333d cc3d f43c 2e8f 42bd b081 24bd
000000d0: 0a64 35bd e134 0d3d 54fa f33d cd0b 9cbd
000000e0: 202d 50ba 1b51 1b3d 737f 653a a3bf 34bd
000000f0: 48e4 fdbc 2320 78bc ed39 8a3d 3540 1a3d
00000100: ed56 e7bc f53a 303d e873 663d 5121 5f3c
00000110: 8227 ca3c 8ea5 513d 7646 a13c 3518 ba3c
00000120: 189c b43c 98dc 673c b141 2cbd 68bd bbbc
00000130: ed6d 49bd b23b cb3d 3b96 d9bb 637e 853c
00000140: 2c98 87bd a6c2 123c c2ba 843c 4545 3f3c
00000150: 7e04 1e3d d8ae ca3c 2246 8cbd 2a56 b9bd
00000160: 3a4a 29bd c5cb 923c 325f 943c ecac c1bb
00000170: fc16 7c3c 62a8 35bd bd26 9e3d b5b4 26bd
00000180: 5f08 433d 3eba d1bb 1366 eb3d d03f 363d
00000190: 1e8f 0b3d 4454 383c 536f e4bc ca79 48bd
000001a0: 6fab 6c3d a62d 753b f93f 50bd ca31 bb3b
000001b0: 86ab 4d3c 7993 14bd f6d8 873c d201 44bc
000001c0: e4d7 abbc a4c1 79bd 4cc0 1d3d bcb1 323d
000001d0: 3a02 13bd bc78 2fbc c70e 0d3d 6c4a 4e3d
000001e0: 524c dbbc d70d 6f3d 9d2d ebbb d4cf d9bc
000001f0: bff9 9ebc 32a9 96bd fc4a ab3d ceef 1f3d
00000200: fdce 96bd 609f 083c b3f4 9cbd e558 b4bd
00000210: 9b2b 463d 68a1 fe3c 4298 8d3c 852c 9ebd
00000220: ad09 433d 917c 803d 8561 363b c835 cfbc
00000230: 777f 6cbd c955 77bd 48de 8d3d 33cd 7f3c
00000240: 603f adbd 6f41 d83c 6548 7ebd 672e 22bd
00000250: f07e 933d 0abc 19bd 6522 40bd 6b48 81bc
00000260: c9b1 4d3d b331 72bc 0d55 7d3d eb47 48bc
00000270: cce7 62bd 3cb1 733d de10 acbd 7e1d 6ebd
00000280: 2ea1 88bd 16ed eabc a4f0 4fbd d71e a3bd
00000290: efd6 5e3c 145e 6ebd 8c3e 5d3d 0a56 c4bc
000002a0: bd34 1cbc 8865 1cbc 6058 cb3c 39d8 aebd
000002b0: 2be2 81bd b0fe 95bd e25a 9abd c1c9 19bd
000002c0: 9a03 4ebd 350e 97bc 59bf 3f3d f897 143d
000002d0: 4e74 0eb8 b738 eb3c ad6b 863d a54d 923c
000002e0: 882c 89bd 8a05 8abc 3006 493d baef 6c3d
000002f0: 6bc1 52bd 88a3 fdbd 823f 043d 1c35 9abc
00000300: 1b6f 34bc ed06 693d 4d59 bd3a d574 31bd
00000310: 795e 21bd 008c cd3c 3b4e 423d 88b1 153c
00000320: 565f 7b3d 6fce df38 5fca 89bd e2ec 0b3d
00000330: 2494 8f3c 4844 f8bc 32cc 7d3c 1fb3 d73c
00000340: d6ba b9bc f988 c1bd e42d 54bd 9b7e 5dbd
00000350: 1ab5 733d c5ea 00bd 91a1 aa3d 0893 52bc
00000360: de1c 0f3d 5cb3 913d b93e 22bd ac1d 94bd
00000370: f1f1 353d 3d5c d2ba a8de b8bd b399 9abd
00000380: 2091 9e3d cdd7 e1bc 19f0 47bd 1dfc 12bd
00000390: e352 85bd 8e13 dd3c ed59 54bd 3846 95bd
000003a0: 2947 0bbd 3251 3dbd 388a 203d 5d97 783d
000003b0: 7eba 043e 2deb 51bd 2c3b ca3c 8de5 0d3d
000003c0: df42 953d febb fbbc d86f c63c 30f3 81bd
000003d0: 22e7 c13c 69b1 9cbd 1bd8 7d3d 3449 e1b8
000003e0: 53c5 9bbd dbf1 803d 7842 b33d 7952 b93d
000003f0: 103e 653d 56f8 723a fbdc 7ebd 2e42 c23d
-0.016772775 -0.04629392 0.10598651 -0.011128863 -0.14558847 0.03997801 -0.015038156 0.025847916
-0.02285054 -0.025354773 0.01291208 0.029247409 -0.0028619347 -0.03726509 -0.023388341 0.06267718
0.054111302 -0.02670119 0.06432086 -0.023537558 -0.012927173 0.012783715 -0.08082019 0.028641135
-0.061710693 -0.0017510788 -0.035178326 0.069686584 -0.007113896 0.007576859 0.060418252 0.011935299
0.027355295 -0.03207368 -0.07623731 0.07674792 -0.08391526 0.039721627 -0.08674895 0.0024947578
0.015455674 0.012714672 -0.040332053 -0.056039926 -0.0009637688 -0.01167549 -0.025301475 0.06469822
0.04385205 0.029814623 -0.047499828 -0.040162742 -0.044284858 0.034474257 0.11912981 -0.07619438
-0.00079412945 0.037919145 0.0008754648 -0.04412807 -0.030992642 -0.015144381 0.0674933 0.03765889
-0.028239692 0.043024976 0.05626288 0.013618783 0.024677042 0.051183276 0.019686919 0.022716621
0.022047088 0.014151715 -0.042054836 -0.022917464 -0.0491771 0.09923495 -0.0066402233 0.016295617
-0.06620821 0.008957541 0.016202334 0.01167423 0.038578503 0.024741575 -0.06849314 -0.090496376
-0.041330554 0.01791943 0.018111799 -0.0059105065 0.015386339 -0.044350035 0.077222325 -0.04069968
0.047615405 -0.0064003756 0.114940785 0.04449445 0.034072034 0.011250559 -0.027885115 -0.048944272
0.05778068 0.0037411242 -0.05084226 0.0057127224 0.012553101 -0.036273453 0.016582947 -0.011963325
-0.020976968 -0.060975686 0.038513467 0.043626532 -0.035890795 -0.010709938 0.03443792 0.050363943
-0.02676979 0.058362808 -0.0071770684 -0.026588358 -0.019406198 -0.0735649 0.083639115 0.039047055
-0.07363699 0.008338779 -0.0766386 -0.08806018 0.04838143 0.031082824 0.017284516 -0.07723335
0.04761665 0.06273759 0.0027829122 -0.0252942 -0.057738747 -0.060384545 0.069271624 0.015612888
-0.084593534 0.026398389 -0.06208076 -0.039595034 0.07201946 -0.037532844 -0.0469078 -0.015781602
0.050218377 -0.014782357 0.06184869 -0.012224178 -0.05539684 0.059495196 -0.08401655 -0.058133595
-0.066713676 -0.028677505 -0.050766602 -0.079648666 0.013601049 -0.05819519 0.054014727 -0.023966808
-0.009534058 -0.009545691 0.024822414 -0.08537335 -0.06341966 -0.073239684 -0.07536866 -0.037545923
-0.050296403 -0.018439392 0.046813343 0.03627774 -3.3963755e-05 0.028713567 0.06563506 0.01785929
-0.06697947 -0.016848344 0.049078166 0.05784581 -0.05145399 -0.12384707 0.03228713 -0.018824153
-0.011012818 0.05689137 0.0014446169 -0.04332431 -0.039396737 0.025091171 0.047437888 0.009136565
0.061370216 0.0001067192 -0.06728052 0.034161456 0.017526694 -0.030305997 0.0154905785 0.026330529
-0.022672098 -0.094499536 -0.051801577 -0.05407582 0.059498884 -0.031473894 0.083315976 -0.012852438
0.03493964 0.07114288 -0.0396106 -0.07232222 0.044420186 -0.0016049218 -0.09026843 -0.07548847
0.07742524 -0.027568722 -0.04881296 -0.035884965 -0.0650995 0.026986863 -0.051843572 -0.07288784
-0.03400341 -0.046220012 0.039194316 0.060691226 0.12961766 -0.05124967 0.024686418 0.034642745
0.07288145 -0.03072929 0.024223253 -0.063452125 0.023669783 -0.07651026 0.061973672 -0.00010742471
-0.07605996 0.0629613 0.08752912 0.090489335 0.05596739 0.00092685723 -0.062222462 0.09485279

layers.2.bias f4 [432]
00000000: d091 c03b 1c19 53bc 0007 79bc bd5d 223d
00000010: a113 5d3d 9bb8 893d 6ff1 0f3d 6f38 6bbd
00000020: 5f6d 1ebd 11aa d6bc e76e f93d 655a 14bc
00000030: eebe e93c e502 9fbd 3ccf edbc 7f44 01bd
00000040: f5c2 9dbd 09d8 89bd 4247 983c 8cbc 793d
00000050: 6ae4 cebc aebb bbbb 9639 093b e8fa 2a3d
00000060: 6ce0 b8bc be5b f73d 5e67 e7ba 56c6 6a3c
00000070: fd44 843d 3d86 42bd 6ec4 b03d dd61 ccbd
00000080: 10ee b13d 2e3c 00bd b3b7 0bbd 103c 34bd
00000090: 279e 3c3c f6db dbbc 6bab 91bd 855c 2c3d
000000a0: d858 7a3d db33 8abc 5426 bc3b a953 aa3c
000000b0: bd7c bbba 6df3 36ba e794 4cbd edee 3a3d
000000c0: 4381 043d f3bb 643d c525 90bd 97cb 68bd
000000d0: 52b9 403c 0edf 363c e440 873d 1056 a5bd
000000e0: 26f5 823b a52c d9bc d150 463d fa6e babc
000000f0: 952b e03d 52c6 cb3b b1db dfbc fb0c b33c
00000100: 8840 89bd 7b53 9dbd 05ba ea3c 3b7d 543d
00000110: 6796 9abd f09a b8bd 41fb e83d 7d02 82bc
00000120: d853 003e a80c b5bd 2529 8f3d 01ad bdbd
00000130: c84c 91bd c698 90bd 5f38 063d 3808 d93d
00000140: 7a44 29bd c6f3 64bc df64 b63b 500c 2d3d
00000150: 1c34 d03d 40d8 533d 059f 2bbc 32bc 85bd
00000160: e7e2 a43d 5ff7 02bd 62dd 033d 8283 b8bd
00000170: a9f0 a63a 3712 d83c f136 c43a 44a2 77bb
00000180: 0a2f 21bc c0fa 61bc f5bf b83d 5f8c 883d
00000190: ffd6 c5bd d3b2 58bd 9b63 b23d f5b2 abbd
000001a0: 0ad8 c3bc f6fe 113d 16e4 1bbd d518 863d
000001b0: a658 803a 2726 afbc 5d43 523d 3abc 613d
000001c0: 4131 ce3d 54ba ef3b 398e 723d 021b b43b
000001d0: 5a09 b3bd f4c1 553d 0125 ae3d 88d5 a43d
000001e0: 43ea 4a3d e8cb 6abd c70a e9bc 1822 5f3c
000001f0: a42a cd3d d534 d2bd 5b9c b3bc d3e8 b5bc
00000200: f9f5 95bd 102e d6bd 1fbc dfbc cfa0 4e3d
00000210: 74ec adbc e04e b23d fa5d 3dbd 414d c4bd
00000220: 2aab c1bd 7b04 d5bc affc b03c 9996 c03d
00000230: 99d8 823d 85e8 8c3c ce7a 44bd 619e dabb
00000240: 135c 37bc 2dd1 a33b 29ce cebc 0d6e e83c
00000250: 0314 bd3b 3a61 463c f4e4 8fbd 03ee dd3b
00000260: 61d2 c63b b562 36bd 8c8c 15bd c978 3fbd
00000270: 4e1b 0d3d 1a6c d4bc 75e9 89bd 0190 973c
00000280: 6191 67bd 467f e2bb 19c1 c63d 2fe4 7e3d
00000290: e6e5 953c 683e 5ebc ad5b acbd 0ad4 2ebd
000002a0: 6a46 b2bc a7eb 9cbd b7c3 30bd a240 b0bd
000002b0: 0d0c b33d 36cb cf3d 9314 903d 2b00 65bc
000002c0: 6a7e 8cbd 2073 6fbd 72a4 67bd 6076 82bc
000002d0: b51d 65bd 1b2c 2f3c d6b1 043d 99f8 5b3d
000002e0: a4f8 8fbc a161 1f3d 5ca3 a9ba c2d8 cabb
000002f0: c37b 6b3c 6381 8e3d ee1e d43d ba24 743d
00000300: fad9 e83b 9f5e bf3d 586f da3c 5597 d2bd
00000310: 5c41 3bbd 9d39 9bbc ac15 923c 2852 883d
00000320: a0cf 5dbd 5d62 4d3d 3389 c3bc 86e0 b2bd
00000330: 7f38 ad3c a3d9 bbbd 5118 a1bd 8bb2 bbbc
00000340: 6b5c a9bd a839 3ebd 83d5 893d d03f 313d
00000350: 9d30 45bd b885 7dbd ab7a c73c a183 96bd
00000360: f98b dc3c 007c 6ebd 6df5 623c 679e fcbc
00000370: ef62 3fbb 3a15 0c3c 5710 b2bd d4d6 813c
00000380: a7a0 a6bd 7c68 123d af83 883d f0c4 bfbd
00000390: e583 75bd 6e69 2fbd 00c5 59bb d55f 10bc
000003a0: e70f efbd af00 4c3d af66 9b3a 6368 c53a
000003b0: 1daa 9ebc 176d 0ebb 35ce 92bd bf81 4fbd
000003c0: 5761 ab3c 5e45 8c3d 7008 a6bc 40a3 32bd
000003d0: 9ae6 993c 18f1 29bc 5c49 8ebd 3d14 133d
000003e0: 48b9 2a3d 7c30 013d 6dcb 273d 8ad5 ccbd
000003f0: 1622 123d 43e6 853d 59b3 b5bb ff9c aabd
0.005876757 -0.0128844045 -0.015199423 0.039640177 0.053973798 0.06724664 0.03514236 -0.057426866
-0.038678523 -0.02620414 0.12179356 -0.009054755 0.028533425 -0.07764224 -0.029029481 -0.031559464
-0.07703201 -0.067306586 0.018588666 0.060970828 -0.0252554 -0.0057291603 0.0020938865 0.04174319
-0.02256795 0.12078045 -0.0017654707 0.014329514 0.06458471 -0.0474913 0.08631216 -0.099796034
0.08687985 -0.03130739 -0.034110736 -0.044002593 0.011512316 -0.026838284 -0.071127735 0.04208042
0.061119884 -0.01687043 0.0057418738 0.020791845 -0.0014304143 -0.00069790223 -0.04994669 0.045638014
0.032349836 0.055843305 -0.07038454 -0.056834783 0.011762934 0.011161579 0.06604174 -0.08073056
0.003996509 -0.026510546 0.048416916 -0.022757996 0.109458126 0.00621871 -0.027326437 0.021856776
-0.067017615 -0.07681938 0.028653154 0.05187724 -0.07548218 -0.09013927 0.11376048 -0.015870327
0.12531984 -0.088403046 0.069902696 -0.092615135 -0.07094723 -0.07060389 0.032768603 0.10597271
-0.04132507 -0.013974136 0.005566224 0.04224807 0.10166189 0.051719904 -0.010474925 -0.06530036
0.08051091 -0.031974193 0.03219355 -0.09009458 0.0012736517 0.026375873 0.0014969987 -0.0037785927
-0.009837875 -0.013792694 0.09020988 0.06667399 -0.09660148 -0.052904915 0.087104045 -0.08383743
-0.023906726 0.03564354 -0.038059317 0.06547705 0.0009792044 -0.021380497 0.051333774 0.055111147
0.10067988 0.007315913 0.059217665 0.0054963836 -0.08742018 0.05218692 0.08503152 0.0804854
0.049539816 -0.057323366 -0.028447522 0.013618968 0.10017899 -0.10263983 -0.021925142 -0.022205746
-0.07322306 -0.104580045 -0.027311383 0.050446328 -0.021230914 0.087064505 -0.0462322 -0.095850475
-0.09456475 -0.026003113 0.021604864 0.09403724 0.06388969 0.017200718 -0.04796868 -0.0066717123
-0.011191386 0.004999301 -0.02524479 0.028372789 0.005770208 0.012108142 -0.07026091 0.006772758
0.0060675596 -0.044527728 -0.03651099 -0.04674605 0.034449868 -0.025930453 -0.067339815 0.018501284
-0.05653513 -0.006912145 0.09704799 0.06222933 0.0182981 -0.0135646835 -0.08415923 -0.042682685
-0.021762092 -0.076621346 -0.0431554 -0.08606078 0.08742533 0.10146181 0.07035174 -0.013977091
-0.06860049 -0.0584594 -0.05655331 -0.015925586 -0.055936534 0.010691668 0.03239616 0.053703878
-0.017574616 0.038911466 -0.0012942362 -0.0061903903 0.014372769 0.06958272 0.10357462 0.059605338
0.007106063 0.093442194 0.026664421 -0.102827705 -0.04571663 -0.01894837 0.0178326 0.06656295
-0.054153085 0.050142635 -0.023869133 -0.08734231 0.021145103 -0.0917237 -0.07865966 -0.022912284
-0.082695805 -0.046441704 0.06730177 0.043273747 -0.048142064 -0.061895102 0.024350485 -0.07349325
0.026922213 -0.058223724 0.013852459 -0.03083725 -0.0029203256 0.008549983 -0.08694523 0.015849508
-0.08136111 0.035744175 0.06665742 -0.09363735 -0.059940238 -0.042825155 -0.0033228993 -0.008811911
-0.11672955 0.04980534 0.0011856164 0.0015061017 -0.019368226 -0.0021732503 -0.07168237 -0.050660845
0.020920439 0.06849168 -0.020267695 -0.04361272 0.018786717 -0.010372423 -0.06947586 0.035907973
0.041680604 0.03154038 0.040965486 -0.10001667 0.035677038 0.065380596 -0.0055450615 -0.08330726

layers.3.weight f4 [48, 432]
00000000: c0ac 7ebc 1b46 26bd e641 08bd 1c4f 18bc
00000010: d0ca 45bc dabd 03bd a09c e03a f9c4 79bc
00000020: 5031 1f3d dc83 9dbc faa2 8fbc 0f26 fdbc
00000030: 571b 883d 6a65 9abd 7ad4 17bd d55a 4c3c
00000040: 4c3a 343d 2274 dfbc b7e7 c13c 76c5 1d3d
00000050: 73c7 38bd c2e5 33bd a72e 3d3b e370 a5bb
00000060: 5492 043d aabd b2bc 2be5 6dbd 167f 87bc
00000070: 4b6e 9d39 e5ec b4bc 387f 7d3c 5112 4abc
00000080: b3b6 e03c a9eb e43c 063d a9bc 1924 8b3c
00000090: ea11 7ebc 2547 20bd 7b75 17bd 465a 7cbc
000000a0: 7688 f9bc 93cc d0bc 31d0 5d3c 3c59 bb3c
000000b0: 97d0 21bd b6f7 64bc 3756 c0ba 11d4 033d
000000c0: e703 9cbb be2a 203b b8ca 6c3c fd47 4e3d
000000d0: f0d5 913c f9b3 b2bc 02e4 713c 8d29 2a3d
000000e0: 5c12 babb ff68 8dbb 8f86 813c 7b60 bf3c
000000f0: 0071 4ebc ae8c 203d d970 db3c b702 6abc
00000100: 2187 28bd 15e6 b43c ec07 2fbd c973 9d3c
00000110: 781f 143d 0a1a b13a 9f74 32bc c7d1 193d
00000120: 67f6 4bbc f15f 3cbc fd31 bb3b 817e 933d
00000130: b710 49ba 2c5d 6cbd 666d 5f3d f2f9 823c
00000140: b027 cfbc 2370 a83d 74a7 babc 89f2 e53c
00000150: 27aa 02bd d8bd f9bc 4838 993d 4cfb f23c
00000160: 95f0 8c3d 0de3 c0bc 0140 f83c d141 0e3e
00000170: 8b1d 0ebc 743b 0dbc 66a3 cebb 9f37 61bb
00000180: f629 20bc 02df 8f3c e967 10bd b01e 50bc
00000190: 4838 ba3b 10da 613c f20a 5c3b 2725 1dbd
000001a0: 4076 e93c 3160 693b abb7 20bd 7de3 f13c
000001b0: b3e7 35bc a427 f8bb ba27 f13b caa0 1abd
000001c0: 5801 963c 694c 333d 042f 31bd 4de2 b7bb
000001d0: c85a 343d 6d29 f6bd 2c5e 893c 5fbd 063c
000001e0: b779 183a f28c d5bb 4b16 7dba 3396 883c
000001f0: 3830 57bd fae6 83bb af45 cebc ef76 d6bd
00000200: 6806 8d3c 0bb6 dc3b 6470 ab3c 946c 893d
00000210: 9475 e4bd 538c e03c b08c b13c c9cf 093d
00000220: 145d 3ebd 2160 0fbc f973 a73c f0c0 08bd
00000230: 1201 c4bb a437 4c3d b26c 31bb 709e 033c
00000240: e853 0d3d 75ef 933c 5992 aebb 7ea5 ee3c
00000250: e3f1 3abd 9298 383c b480 b3bc add6 7d3d
00000260: 9514 e93c 50cb a63c 4ec4 413d 4baf ca3c
00000270: 16cb 733d f485 673c 5895 cdbc 4961 eebc
00000280: 1f09 333c 62fb 553c 1e07 913c 4464 ca3c
00000290: e3ab 4a3c 0857 2c3c 765c 1b3c a096 723d
000002a0: 5a9d 893c 167c 15bd 1ea9 95bc 3530 963d
000002b0: 3723 123d d213 1f3d 1fe3 1cbd 3ea5 283d
000002c0: 36c7 4abd b7c2 f3bc f337 aebc 640a 4c3c
000002d0: c914 0cbc 4b20 2fbd c2fb f43c febe b93c
000002e0: 2ed7 bc3c 578a ef3c 467c 9dbc 02d3 fdbc
000002f0: 39e8 703c 4e63 463d c9ed f93c 97b4 fc3c
00000300: 2610 53bd 6c62 e93c c48f 18bc 6a61 ddbb
00000310: 0065 163c b2f3 cdbc 0b08 c13b d56c 053d
00000320: 170a 3cbc 629b 92bc 2007 11bd 2490 833c
00000330: 795a 2ebd 2414 c93c dad8 e53c 3217 bf3d
00000340: 231c 443d b771 d63c dd9d 5fbd a45a 923c
00000350: a966 fe3b 7098 763c 9622 283c 2c44 9cbc
00000360: d20a 47bc 22d2 19bd 6325 f0bb 20f9 96bb
00000370: 1999 a2bc 7b1a bfbc 3dda 11bd 4a60 73bc
00000380: ef19 d13c 9a42 593b 59e9 943c 77be ebba
00000390: cd07 8a3c c43f fb3c ef79 d03b 9a33 e23c
000003a0: ce9e bc3c fbbd 953d c4b0 59bc b4a7 1abd
000003b0: 9a0f 123c 3475 9e3d 5899 f6bc b7cd afbc
000003c0: a823 53bc e783 013d 5c75 72bd 3aaa 3a3b
000003d0: cab7 d0bc 9ce0 473c 60f9 e2bc 7fb7 10bc
000003e0: a5cb 04bd d9d9 453c 4a62 6c3a f059 a4ba
000003f0: 5718 93bb d0b8 07bd dbf0 0bbd f42b d53c
-0.0155441165 -0.0405942 -0.03326597 -0.009296205 -0.01207228 -0.03216348 0.0017136522 -0.015244716
0.038865387 -0.019227915 -0.017533768 -0.030901937 0.0664584 -0.075388744 -0.037067868 0.012472828
0.04400091 -0.027277056 0.02367006 0.03851839 -0.045112085 -0.043920286 0.0028866918 -0.0050488575
0.032366112 -0.021818954 -0.05807988 -0.016540091 0.00030027548 -0.022085616 0.015472226 -0.0123334685
0.027430868 0.027944403 -0.020658981 0.016984986 -0.015507201 -0.03913035 -0.036977272 -0.015402382
-0.030460577 -0.025488174 0.013538406 0.022869699 -0.039505567 -0.0139750745 -0.0014674132 0.032184664
-0.0047612074 0.0024439539 0.014452629 0.050361622 0.017802209 -0.021814333 0.014763834 0.041543532
-0.005678458 -0.004315495 0.015811233 0.023361435 -0.0126001835 0.039196663 0.026787208 -0.014282874
-0.041144494 0.022082368 -0.042732164 0.01922025 0.036162823 0.0013511789 -0.010892062 0.037553575
-0.012448884 -0.011497484 0.005712746 0.07201863 -0.0007670032 -0.057706043 0.05454769 0.015988324
-0.02528748 0.082245134 -0.022784926 0.028069751 -0.03190055 -0.030486032 0.07481438 0.029660843
0.06881825 -0.023545766 0.030303957 0.13892294 -0.008674036 -0.008620132 -0.0063060997 -0.0034365428
-0.009775629 0.017562393 -0.035255346 -0.012702629 0.005682979 0.0137849 0.003357586 -0.03836551
0.028498769 0.0035610313 -0.03923766 0.02952742 -0.011102605 -0.007573085 0.007359472 -0.037750997
0.018311188 0.043774042 -0.04325773 -0.005611694 0.04403189 -0.1201962 0.016768537 0.0082238605
0.0005816477 -0.006517046 -0.0009654506 0.016673183 -0.05253622 -0.0040253373 -0.025179712 -0.104719035
0.017214969 0.0067355684 0.020927615 0.06710163 -0.11155239 0.027410662 0.02167353 0.033645425
-0.046475485 -0.008750946 0.020441042 -0.033387125 -0.005981573 0.04985775 -0.0027072844 0.00803338
0.034503847 0.018058518 -0.0053275046 0.029131647 -0.045640837 0.011266844 -0.021911956 0.06197231
0.028452197 0.020360619 0.04730635 0.02474179 0.05951985 0.014131058 -0.025095627 -0.029099124
0.010927468 0.013060423 0.017703589 0.024706014 0.012370083 0.010518797 0.009482494 0.05922568
0.016798664 -0.03649529 -0.018269118 0.073334135 0.035678115 0.03883726 -0.038302537 0.041173212
-0.04950639 -0.029755933 -0.021266913 0.012453649 -0.008549877 -0.042755406 0.029905204 0.02267408
0.023051824 0.02924077 -0.019224297 -0.030984405 0.014703804 0.048434548 0.030508893 0.03084783
-0.051529072 0.028489314 -0.00931162 -0.0067559974 0.009179354 -0.025140617 0.0058908514 0.032574493
-0.011477015 -0.017896358 -0.035407186 0.016059943 -0.04256675 0.024545737 0.028057504 0.09330596
0.047878396 0.02617727 -0.05459391 0.017865486 0.007763703 0.015050992 0.010262152 -0.019075476
-0.012148576 -0.037553914 -0.0073286756 -0.0046073347 -0.019848393 -0.023328057 -0.03560852 -0.0148545
0.025525061 0.003315127 0.018177675 -0.001798584 0.016849423 0.030670054 0.006362192 0.027612496
0.023024943 0.073116265 -0.013286773 -0.03775759 0.0089148525 0.077371985 -0.030102417 -0.021460397
-0.012886919 0.031619933 -0.059193954 0.002848281 -0.025478262 0.012199547 -0.027706802 -0.008832811
-0.032420773 0.012075865 0.0009017332 -0.001253901 -0.0044889855 -0.033135235 -0.034165245 0.026021935

layers.3.bias f4 [48]
00000000: 3b19 633c 8898 073d 69aa c33c a751 96bd
00000010: c4a1 143c a1cd 9cbc e4f4 d43b 4bc4 43bb
00000020: 1a25 ffbb da06 143d baea b13c b3f1 35bd
00000030: 7dcc d5bb 97d0 c73b 27e3 463d f785 773c
00000040: 389c c6bb f84e a13c 886a 913c b836 6ebc
00000050: eecd b7bc 531a 50bd 7561 3b3d abc0 223c
00000060: cc62 163c 91fd 24bd bfe4 38bd 42ba 943b
00000070: 7698 553c 81d8 af3c cda0 ddba 6314 ffbb
00000080: da40 df3c f50a c73a c47a 0c3d 5b40 2ebc
00000090: f77a 283b 391a b3bc 7627 c03c 75f7 013c
000000a0: 2c98 71bb 17ae 663c ac9a 173d 23e4 763c
000000b0: 9994 be3b 89ce f2bc d794 96bc fc7b 4e3b
0.013860996 0.03310445 0.023884969 -0.07339793 0.009071771 -0.01914102 0.00649892 -0.0029871638
-0.0077864053 0.036139347 0.021718372 -0.044419955 -0.006524621 0.006097864 0.048556473 0.015107623
-0.006061103 0.019690976 0.017750993 -0.014539413 -0.022437062 -0.050806355 0.04574724 0.009933631
0.009178828 -0.040280882 -0.045140024 0.004538805 0.013036838 0.021465542 -0.0016908884 -0.0077844127
0.027252603 0.001518576 0.034296766 -0.010635461 0.0025708058 -0.02186309 0.023456316 0.0079325335
-0.0036864383 0.014079592 0.03701274 0.0150690405 0.005816054 -0.0296395 -0.01838152 0.0031507006

layers.4.weight f4 [4, 48]
00000000: 6918 cb3d 7c17 f7bb 1f74 5fb9 1ab0 ddbd
00000010: 0ffc 8c3d c98b 4bbd 83fc 1cbd 83ef 90b9
00000020: 44bb a1bc 3cd0 633d 3a97 5bb7 b8fe 8dbb
00000030: 80ca 043e 18a6 8bbd 4afa 593d 4f5b aa39
00000040: 9682 4c3a 11ea 45bd a8de 75bc 0183 48ba
00000050: 2b6a 3a3a 898c d73b 38b2 6d3c 3391 1bbd
00000060: 690c 0f3b d371 d5bd 4aad 88bd a48f ee3b
00000070: 2a58 53b9 617d 96bc ae9e a3bd d8de 6a3d
00000080: 8d99 38ba b72c 793d 745d 223d 3ad1 9abd
00000090: b5ab 8abc f113 64bc 9a2e 56b9 f6d7 e23b
000000a0: 94ff 7dbd ea68 a2bd 7811 19bc ac78 0239
000000b0: 2b55 a8bc aa2b 2a3a 954b 24bd c317 6ab9
000000c0: 0aa8 8c3d 531f bd3b d51e 6eb8 b515 c9bd
000000d0: e68f 103e c931 f0bd dfdd f1bd ec9e 4cba
000000e0: 8ec2 e0bd 82dc fbbd 8e13 3cba fb37 bbbd
000000f0: 5bac ad3d 5539 bebd 60a7 48bd 8890 273d
00000100: f552 313b d7b2 d6bc b105 ffbd faff 9ebc
00000110: 617b 2639 0cfe f33d e64e ccbd 41b1 47bd
00000120: 1629 993d 1d69 debd b892 f43d ef66 67bd
00000130: 8ec7 59ba c6aa dd3c edf2 bc3c 9498 98bc
00000140: 6854 14ba 1701 bebd 5e86 80bc 23fe 83bd
00000150: e491 edbd 1caf e9bc 00b1 1439 4090 f13c
00000160: 9af9 eebb 2bd1 a0bd 242f d8bd f47f b939
00000170: bfde 80bd 75ec e03a 8d2d c4bd e11a 30bb
00000180: 514f bcbc 0ff4 9d3d ed43 37bb b003 0ebe
00000190: 7c25 9abd abac 573d 09dc 9ebd ed98 77ba
000001a0: 8ff8 05be 3cfa f13b e017 55ba 2493 03be
000001b0: cd07 0e3e eba1 a13d 520c a33d 675f 8abd
000001c0: 9025 cb39 f8a1 f0bd e1f9 c9bd 8fb4 f33c
000001d0: f579 72ba 624a d2bd d2f8 06bc e793 01be
000001e0: 99bd a4bd 0046 b0bd 887f f6bd 224e e5bd
000001f0: d1bb 9bba a39a 2cbd 9678 353d 1d9a fa3d
00000200: 9022 cabb 1892 b23b 74cb 103e 8934 99bc
00000210: 7942 a93c 6aa4 afbd b6d2 733b 85d2 1c3d
00000220: 8a64 94bd 4a5a 65bd fe6c 3fbd 5d02 5b3b
00000230: 7ba9 a83d 6819 5a3c 9992 943d 5ad0 3fbb
00000240: faca e2bd b788 7fbd 9493 b43a fc69 adbd
00000250: 2fb0 b63d f6c4 07be fc41 a5bd 4d2e 9e3a
00000260: fdc8 07bd 7585 fe3d d13e 23ba aff3 103d
00000270: 281a 243d d723 dfbd ebd5 2c3d 737d fd3b
00000280: 040d 2abb 9569 4e3d f925 79bd c610 35bc
00000290: 39e7 92b9 2994 4ebd 6843 01bc a384 6e3c
000002a0: 5479 36ba 7b90 76bd 58ae 63bd 70f2 583c
000002b0: 5a09 943a e222 acbd 3ea4 78bc 9439 853d
000002c0: 1e5d 6e3b 673d d13d 052d 753d 8c4a 4abb
000002d0: 78c2 da3d 5cac 53bd 71f3 bdba 0ccb 9ebc
000002e0: 056e ae3b ca21 5c3d 9a6d 7b3d 5466 2939
000002f0: 624a e3bd 7288 a6bb fabb e0bd 6d05 f03a
0.09916765 -0.0075406414 -0.00021310196 -0.10824604 0.06884014 -0.049693856 -0.03832675 -0.0002764427
-0.019742616 0.05561851 -1.3088627e-05 -0.0043333434 0.12967873 -0.06818789 0.05321721 0.00032492957
0.0007801441 -0.048318926 -0.015006699 -0.00076489156 0.0007111157 0.0065780324 0.014507823 -0.03798027
0.0021827465 -0.10422101 -0.06673677 0.007280307 -0.00020155372 -0.018370332 -0.0798925 0.057341427
-0.0007041924 0.06083366 0.039639905 -0.07559438 -0.01692758 -0.01392077 -0.00020425991 0.006922717
-0.062011316 -0.07930167 -0.009342544 0.0001244272 -0.020548424 0.0006491492 -0.040111143 -0.00022324831
0.068679884 0.0057715564 -5.6772336e-05 -0.098185934 0.14117393 -0.11728246 -0.11809897 -0.00078056636
-0.10974608 -0.12297918 -0.0007174545 -0.09141537 0.0848014 -0.09288279 -0.048987746 0.04090932
0.0027057503 -0.026208324 -0.124522574 -0.019409169 0.00015876956 0.1191369 -0.09975986 -0.048753027
0.0747854 -0.108598925 0.11942047 -0.05649465 -0.0008307629 0.02705897 0.023065055 -0.018627442
-0.00056583295 -0.092775516 -0.015689071 -0.06444957 -0.11600092 -0.028525881 0.00014180318 0.02948773
-0.0072929384 -0.078523956 -0.10555866 0.00035381282 -0.062924854 0.0017160313 -0.095790006 -0.002687149
-0.02298704 0.07712566 -0.002796407 -0.13868594 -0.07526681 0.052654903 -0.07756812 -0.000944509
-0.13083099 0.0073845666 -0.0008128863 -0.12849098 0.13870163 0.078922115 0.07961334 -0.06756478
0.00038747163 -0.11749643 -0.09862114 0.029749183 -0.00092497404 -0.10268094 -0.008238034 -0.12654077
-0.080439754 -0.086071014 -0.120360434 -0.11196543 -0.0011881535 -0.04213966 0.044304453 0.12236426
-0.006168671 0.0054495446 0.14140111 -0.018701809 0.02066158 -0.08576281 0.003720445 0.038286705
-0.07245739 -0.05599431 -0.046734802 0.0033418157 0.08235451 0.013311721 0.07254524 -0.0029268474
-0.11073871 -0.06238624 0.0013776892 -0.084674805 0.08920323 -0.13258728 -0.08069226 0.0012068242
-0.03315066 0.12427799 -0.0006227317 0.035388645 0.040064007 -0.10895508 0.042196196 0.007735902
-0.00259477 0.05039366 -0.06082723 -0.011051362 -0.00028019564 -0.050434265 -0.007889606 0.01455799
-0.00069608283 -0.06019638 -0.05558619 0.013241395 0.0011294291 -0.08405091 -0.015175877 0.06505123
0.003637142 0.1021679 0.059857387 -0.0030867187 0.10681623 -0.051678047 -0.0014492107 -0.01938393
0.005323174 0.05374316 0.06138382 0.00016155216 -0.11098172 -0.0050821835 -0.10973354 0.0018312164

layers.4.bias f4 [4]
00000000: b07b 123e fca3 a2bd 9eed 40bc 7442 e23d
0.14304996 -0.07941434 -0.011775402 0.11047831
