modelo_preliminar.pth (torch, 168364 bytes, 6 tensors)

fc1.weight f4 [128, 256]
0.010463543 -0.04181996 -0.04187928 0.008973271 -0.00031436235 -0.03679073 -0.007710375 0.028902411
0.02831132 -0.008810066 0.036163315 -0.0022160783 0.009663381 0.04545466 0.026167229 0.009101659
0.030509189 -0.0033979788 0.050767258 0.032946244 0.011792637 0.0029817373 0.0571606 -0.055097573
-0.03175872 -0.020547964 0.029593349 -0.019190617 -0.028107084 0.052140735 -0.017629445 -0.034037925
-0.001803942 0.0027685165 -0.000103496015 -0.026964292 -0.059323676 0.029993683 -0.01646854 -0.021390855
-0.03300567 0.018664986 0.007016413 0.04280208 0.056659155 -0.006040804 -0.0123684555 0.013706975
0.05705692 -0.048001364 0.007077113 0.062273875 0.030360729 -0.021685734 -0.05206348 0.0073013604
-0.04570041 0.012942165 -0.04927074 0.045881554 0.055178195 0.031808145 0.037423782 -0.017486341
0.060251176 -0.0026552454 0.0053973645 -0.00651785 -0.015332989 0.014158167 0.03277339 -0.00759124
0.014905363 0.012742244 0.0066931993 0.0028430223 -0.009272203 0.042220928 -0.05424086 -0.05900082
-0.01701425 0.014485359 0.042556643 0.002427034 -0.047461502 0.0055841804 0.050916694 0.040256277
-0.06119203 -0.0468333 -0.051986426 -0.028386757 0.047812723 0.04176861 0.059050307 0.0022954866
-0.019012347 0.035819665 0.012679212 -0.018957071 0.017329454 0.013917886 -0.007977597 -0.033525832
0.008582056 0.056347087 -0.03013289 0.05554027 0.02044662 0.05168394 0.059589162 0.04786723
-0.024486877 -0.00010018051 -0.031431884 0.050913267 -0.037751354 -0.028888516 0.03570556 0.0077609047
0.036981642 -0.02770324 0.012463473 -0.041842304 -0.042400196 -0.015434504 0.047701105 0.0020184368
0.03035453 0.029672004 -0.0438556 -0.054609448 0.030559637 -0.05308914 -0.057086207 0.04116086
-0.0067914724 -0.041060746 0.031539388 0.03688228 -0.041978374 0.01986602 -0.023071446 -0.009081475
0.028109848 -0.024458148 -0.011513181 -0.04814019 -0.0036520734 0.03642519 0.027434848 0.030832402
-0.03871373 -0.009270579 0.039157003 0.006868884 0.058894217 -0.049905203 0.033102743 -0.055910334
0.054332875 -0.031393714 -0.020396143 0.0014563799 0.004719302 0.018680327 -0.057372294 0.008323401
0.0035818145 0.013200574 -0.048854016 0.022482798 0.044715278 0.020319432 -0.05453694 0.054798856
0.05507578 -0.030542977 0.054898337 -0.030618459 -0.056323625 0.011152826 0.002030231 0.0063847452
-0.017753802 -0.05526258 -0.023536079 -0.055022545 -0.061290056 0.022576004 -0.058502227 -0.036806807
0.0028922036 -0.038358785 -0.021470815 -0.035401367 0.039879248 -0.040449 0.031490147 -0.023957334
0.045995362 -0.028233118 -0.03440112 -0.02576457 0.058705598 0.0534138 -0.041090854 -0.049372703
-0.03106428 0.007097654 0.0052593797 -0.012823984 -0.042375058 0.027466185 0.014433309 -0.0054695606
0.023808584 0.029244244 0.022689946 -0.030093402 -0.018830098 -0.014581591 0.0024250671 -0.01470305
-0.060938194 -0.06135828 -0.04783658 0.05404053 -0.03848748 0.055173583 -0.05929233 -0.053238966
0.055255584 -0.050483607 -0.032095157 0.041416265 0.04766544 0.040755652 0.031202018 0.0125501305
0.01538793 -0.011528932 -0.010034099 -0.034083806 0.018762417 -0.055261552 -0.02124627 -0.009405933
0.03366045 0.0010484532 0.020361982 0.023147143 -0.027001306 0.039145686 0.00026647002 -0.029326595
00000000: 486f 2b3c 684b 2bbd 9c89 2bbd a004 133c
00000010: 00d1 a4b9 e0b1 16bd 50a7 fcbb c0c4 ec3c
00000020: 24ed e73c 1858 10bc fc1f 143d a03b 11bb
00000030: 2853 1e3c aa2e 3a3d a85c d63c 201f 153c
00000040: 68ee f93c a0b0 5ebb 54f1 4f3d a4f2 063d
00000050: e835 413c 4069 433b 3c21 6a3d fead 61bd
00000060: 6e15 02bd 3454 a8bc c06d f23c a435 9dbc
00000070: d440 e6bc 8691 553d a06b 90bc 5a6b 0bbd
00000080: 4072 ecba 0070 353b 000c d9b8 38e4 dcbc
00000090: 62fd 72bd 50b5 f53c 08e9 86bc e03b afbc
000000a0: f430 07bd 50e7 983c f0e9 e53b 3c51 2f3d
000000b0: 6e13 683d f0f1 c5bb 10a5 4abc 3893 603c
000000c0: 84b4 693d 149d 44bd 20e7 e73b e412 7f3d
000000d0: 10b7 f83c 48a6 b1bc 8440 55bd 4040 ef3b
000000e0: 5a30 3bbd 600b 543c 1ed0 49bd 4cee 3b3d
000000f0: 8802 623d 4249 023d ae49 193d 843f 8fbc
00000100: f0c9 763d a003 2ebb 60dc b03b b093 d5bb
00000110: 3837 7bbc a8f7 673c 643d 063d f0bf f8bb
00000120: a035 743c d8c4 503c a052 db3b 0052 3a3b
00000130: 70ea 17bc daef 2c3d aa2b 5ebd d8aa 71bd
00000140: 7861 8bbc 0054 6d3c e04f 2e3d e00e 1f3b
00000150: fe66 42bd 80fb b63b 068e 503d c4e3 243d
00000160: 7ea4 7abd 46d4 3fbd b8ef 54bd 588b e8bc
00000170: 46d7 433d 9015 2b3d bcde 713d e06f 163b
00000180: c8bf 9bbc a4b7 123d 78bc 4f3c dc4b 9bbc
00000190: 80f6 8d3c d807 643c 78b4 02bc 6252 09bd
000001a0: c09b 0c3c 34cc 663d 40d9 f6bc 327e 633d
000001b0: ac7f a73c 8ab2 533d c413 743d 6e10 443d
000001c0: b498 c8bc 0018 d2b8 b8be 00bd 6e8a 503d
000001d0: 2aa1 1abd 9ca7 ecbc fe3f 123d 304f fe3b
000001e0: 107a 173d e8f1 e2bc 9833 4c3c d662 2bbd
000001f0: d4ab 2dbd 00e1 7cbc 3c62 433d c047 043b
00000200: 10aa f83c b412 f33c eea1 33bd 28ae 5fbd
00000210: 3458 fa3c 0074 59bd 3ad3 69bd 4a98 283d
00000220: 008b debb 502f 28bd 722f 013d e011 173d
00000230: 84f1 2bbd 10be a23c 5400 bdbc 78ca 14bc
00000240: a046 e63c 745c c8bc c8a1 3cbc a62e 45bd
00000250: a057 6fbb 9432 153d 0cbf e03c 3c94 fc3c
00000260: 4a92 1ebd a0e3 17bc 1863 203d 6014 e13b
00000270: 103b 713d 6669 4cbd be96 073d 3c02 65bd
00000280: 268c 5e3d b296 00bd d015 a7bc 00e4 be3a
00000290: 60a4 9a3b 7c07 993c 36ff 6abd e05e 083c
000002a0: e0bc 6a3b 3847 583c 261b 48bd d82d b83c
000002b0: 5e27 373d f074 a63c 2062 5fbd c474 603d
000002c0: 2497 613d 4435 fabc 14dd 603d 90d3 fabc
000002d0: 9ab3 66bd 58ba 363c a00d 053b 2037 d13b
000002e0: 6c70 91bc 045b 62bd bcce c0bc 525f 61bd
000002f0: 480b 7bbd 50f1 b83c 08a0 6fbd bcc2 16bd
00000300: 208b 3d3b 1a1e 1dbd 90e3 afbc 0601 11bd
00000310: 6c58 233d daad 25bd d0fb 003d 2c42 c4bc
00000320: a265 3c3d 2449 e7bc 30e8 0cbd 3810 d3bc
00000330: 4875 703d 6ec8 5a3d e24e 28bd 083b 4abd
00000340: 847a febc 7093 e83b e056 ac3b b01b 52bc
00000350: 7891 2dbd c400 e13c b079 6c3c 003a b3bb
00000360: 380a c33c a091 ef3c 44e0 b93c 7086 f6bc
00000370: 9441 9abc a0e7 6ebc e0ed 1e3b 10e5 70bc
00000380: 549a 79bd d252 7bbd 4af0 43bd 9a59 5d3d
00000390: 0ca5 1dbd b2fd 613d 84dc 72bd 1a11 5abd
000003a0: ae53 623d e6c7 4ebd 3676 03bd 1aa4 293d
000003b0: d63c 433d 66ef 263d 609b ff3c 109f 4d3c
000003c0: a81d 7c3c d8e3 3cbc 1066 24bc 769b 0bbd
000003d0: a4b3 993c f059 62bd a80c aebc 581b 1abc
000003e0: 8adf 093d 406c 893a 2cce a63c 149f bd3c
000003f0: d831 ddbc 3a57 203d 00b5 8b39 543e f0bc

fc1.bias f4 [128]
-0.056328125 0.15021712 0.012947471 0.06102597 -0.06199408 0.014216065 -0.02009588 -0.012673378
0.02639576 -0.02981127 -0.08807864 -0.092105515 0.056147337 0.058390893 -0.10212564 -0.11666622
-0.011477858 -0.013395882 -0.016047858 0.031200983 -0.056318257 -0.057705503 -0.024336085 0.0136729255
0.029439503 -0.047370385 0.025171392 0.05252099 0.013571687 0.05556394 -0.05137134 -0.04146807
0.035124324 -0.0016042516 0.034538854 -0.12721269 -0.060608063 -0.019865705 -0.07018443 0.05287274
-0.017619342 -0.015014365 0.012479626 0.04922436 -0.0013011515 0.0030201806 -0.052562475 -0.08636555
-0.024246842 -0.102645755 -0.015986945 -0.022068515 0.011400178 0.015666425 0.00844089 -0.053666666
-0.04523105 0.027377695 0.00015301257 -0.016239867 -0.01184307 -0.015495412 0.039548226 -0.056825668
-0.034006834 0.007533066 0.0013504031 -0.046419635 0.061826117 -0.057693914 -0.0033376366 -0.0048157913
-0.032782868 -0.011858395 -0.042587385 -0.10859561 0.03728228 0.0037933672 0.024760783 0.059676953
0.025964893 -0.123559915 -0.020028545 0.036610246 -0.10440134 0.017204143 0.014473263 -0.025262848
0.051691115 0.01611315 -0.069367245 -0.02631209 -0.017312372 -0.0080057485 -0.032373644 -0.063114345
0.028098889 0.01602476 -0.05163815 0.035570163 -0.010576952 0.006130293 -0.059711352 -0.052605074
-0.04905138 -0.034165125 0.023846067 -0.0026089766 -0.1517817 0.010734841 0.06165216 -0.0049623307
-0.06835714 -0.08128809 -0.0012379065 -0.07036022 -0.03819719 0.0010634884 -0.031612843 0.0091169905
0.027640052 -0.03725722 -0.04601743 0.012600873 0.0045606126 0.03708516 0.034464218 -0.014586813
00000000: 52b8 66bd 84d2 193e a121 543c 5ef6 793d
00000010: 81ed 7dbd 80ea 683c 1da0 a4bc 00a4 4fbc
00000020: ec3b d83c c436 f4bc 9362 b4bd d1a1 bcbd
00000030: c0fa 653d 4a2b 6f3d 3f27 d1bd b3ee eebd
00000040: a00d 3cbc 677a 5bbc cc76 83bc 3499 ff3c
00000050: f9ad 66bd 9b5c 6cbd 785c c7bc 6804 603c
00000060: 1d2b f13c 7307 42bd 3c34 ce3c 4020 573d
00000070: c85b 5e3c 0497 633d c16a 52bd 6cda 29bd
00000080: 86de 0f3d c045 d2ba 9d78 0d3d 0b44 02be
00000090: 2940 78bd 67bd a2bc dbbc 8fbd 1691 583d
000000a0: 7056 90bc d0fe 75bc 5877 4c3c 7c9f 493d
000000b0: 668b aaba 39ee 453b c04b 57bd 6ce0 b0bd
000000c0: 50a1 c6bc f037 d2bd 0ef7 82bc 08c9 b4bc
000000d0: d0c7 3a3c e056 803c a94b 0a3c 94d1 5bbd
000000e0: 3244 39bd 3047 e03c 0072 2039 7809 85bc
000000f0: 7009 42bc 78e0 7dbc 52fd 213d 08c2 68bd
00000100: c04a 0bbd f0d7 f63b 0200 b13a 8422 3ebd
00000110: 623d 7d3d 7450 6cbd 40bc 5abb c9cd 9dbb
00000120: 5447 06bd b749 42bc 1c70 2ebd 6067 debd
00000130: 4eb5 183d 249a 783b 20d7 ca3c d26f 743d
00000140: 54b4 d43c fb0c fdbd e712 a4bc a0f4 153d
00000150: 5fd0 d5bd b4ef 8c3c 4421 6d3c 08f4 cebc
00000160: 10ba 533d baff 833c 6a10 8ebd 748c d7bc
00000170: add2 8dbc 8b2a 03bc 3a9a 04bd 1842 81bd
00000180: a42f e63c 5c46 833c 8682 53bd 05b2 113d
00000190: f44a 2dbc a0e0 c83b e493 74bd 6b78 57bd
000001a0: 1aea 48bd bbf0 0bbd d458 c33c 5dfb 2abb
000001b0: a96c 1bbe 30e1 2f3c fa86 7c3d 0c9b a2bb
000001c0: d4fe 8bbd 5f7a a6bd 4041 a2ba 0519 90bd
000001d0: a874 1cbd c064 8b3a 787c 01bd 6e5f 153c
000001e0: 646d e23c 079b 18bd c67c 3cbd e473 4e3c
000001f0: 3171 953b 9ce6 173d 5a2a 0d3d 87fd 6ebc

fc2.weight f4 [64, 128]
0.08608185 -0.055204216 -0.043624505 -0.013034914 -0.007684108 0.030216962 0.03824461 -0.017799404
-0.0077426923 -0.057841122 0.105133586 0.0480546 0.04379485 0.067851864 -0.020411577 -0.008372057
-0.057006635 0.054303303 0.07637124 0.07235457 0.04886991 -0.057305206 0.023558676 0.015849913
-0.050746806 0.067254074 -0.043274645 -0.082449675 0.012800577 -0.071404755 -0.077599354 -0.045816742
-0.03968659 0.013606846 0.014278879 0.026395965 -0.06021936 0.075792946 0.036102746 -0.060938366
-0.0670404 0.069126666 0.003099848 0.07456187 0.02602491 0.095966585 0.014849855 0.09632358
0.05585018 -0.0034479909 -0.06386153 -0.048137147 0.055103738 -0.011035509 -0.06726792 0.04501041
0.05163111 -0.06376092 -0.029555708 0.052036647 -0.019397592 -0.01968952 0.0039987243 0.040527314
0.02646585 0.05495537 -0.055614185 0.0039485483 0.054435268 0.029640466 0.07035198 -0.030770024
0.08612273 -0.057610027 -0.05572421 -0.04563466 0.048661627 -0.048074745 0.068307504 -0.011086138
-0.06836215 -0.026235066 0.031378213 0.00018051495 0.04677928 -0.020554733 0.044346582 0.070810236
0.05370423 0.09327267 0.05751759 -0.02757962 0.016160378 0.095463686 0.052181996 0.042176493
0.010932534 0.067476854 0.03802423 0.03970803 0.031712785 -0.009841215 0.058942292 0.057294134
-0.051004745 -0.012826622 -0.027932001 0.0013824104 0.0017812015 0.013522205 -0.05511303 0.05745683
-0.013627263 0.024949208 -0.080695726 -0.013381082 -0.035568893 -0.016943064 0.07971887 0.14449953
-0.08352913 0.018293586 0.035247367 -0.0037541776 -0.034199465 -0.035144906 -0.06456286 -0.023000637
-0.03569566 -0.044519648 -0.0043215565 0.045950465 -0.032416485 0.021168666 -0.062402233 -0.011014478
0.07668662 0.028490184 0.0265261 -0.083138645 0.04524156 0.018554455 0.0046284217 0.007931241
-0.016916532 -0.07070281 -0.007884348 0.01683932 0.069916055 -0.022018598 -0.04044204 0.051887933
0.040101927 -0.013946874 0.035491325 0.05109315 -0.062477432 -0.055556446 0.05701803 0.01467587
-0.018617732 -0.07158658 -0.050102796 -0.012534666 -0.052269258 -0.038561754 0.0032680088 -0.02119114
0.010398186 0.033420753 0.07652827 -0.020580791 -0.002824556 0.025223628 -0.010025905 -0.008245377
0.033989515 0.020668294 0.023856731 -0.025587995 -0.0007892735 0.06681652 0.052574985 -0.0542832
-0.08166689 0.078877434 -0.039383765 0.052830398 -0.023138914 -0.025422357 0.011589667 0.052219175
-0.058504175 -0.08352735 -0.014977146 0.0587597 -0.030848226 -0.06920208 0.08464005 0.031598087
0.021447228 0.022927128 -0.0022613155 -0.06233031 0.036535066 0.025400564 -0.03269389 0.07930624
-0.029168326 0.055800363 0.07495757 -0.08336407 0.037603736 0.06634513 -0.036427993 -0.085252106
-0.039076272 -0.055626143 -0.020768167 -0.014219415 -0.017168267 -0.0583194 0.038437612 -0.036120772
-0.014230283 -0.08440721 0.025300331 0.07097922 0.08054296 -0.010731409 0.0053102076 0.024243055
0.048852894 0.018497812 0.015529638 -0.064971216 -0.014357065 0.034539983 -0.06137266 -0.06421426
0.015117007 0.03839312 -0.08228488 -0.074985266 -0.0187641 -0.025148613 0.061509196 -0.051781017
-0.047207832 0.062067468 -0.03956865 -0.015367439 -0.08859524 -0.016408747 0.033949424 0.05357805
00000000: ae4b b03d d11d 62bd 9caf 32bd 6490 55bc
00000010: f8ca fbbb 9089 f73c 61a6 1c3d 0ed0 91bc
00000020: 69b6 fdbb d0ea 6cbd 4750 d73d e6d4 443d
00000030: 3b62 333d ebf5 8a3d 2e36 a7bc f42a 09bc
00000040: ca7f 69bd 246d 5e3d 8668 9c3d a22e 943d
00000050: d12b 483d ddb8 6abd 20fe c03c add7 813c
00000060: e2db 4fbd 81bc 893d c140 31bd 60db a8bd
00000070: 83b9 513c a83c 92bd 69ec 9ebd 56aa 3bbd
00000080: 688e 22bd 40ef 5e3c f6f1 693c 5a3c d83c
00000090: 93a8 76bd 5539 9b3d 79e0 133d 829a 79bd
000000a0: 7a4c 89bd 4892 8d3d d226 4b3b e5b3 983d
000000b0: 3132 d53c 218a c43d ce4c 733c 4c45 c53d
000000c0: 29c3 643d b0f7 61bb d5c9 82bd 752b 45bd
000000d0: 75b4 613d 48ce 34bc c3c3 89bd d65c 383d
000000e0: 257b 533d 1695 82bd d01e f2bc 6124 553d
000000f0: b3e7 9ebc eb4b a1bc bb07 833b f8ff 253d
00000100: e9ce d83c e218 613d b3cb 63bd d362 813b
00000110: 84f7 5e3d 90d0 f23c b314 903d 6b11 fcbc
00000120: 1d61 b03d 7ef8 6bbd 123f 64bd 69eb 3abd
00000130: 6a51 473d 06ea 44bd cee4 8b3d a2a2 35bc
00000140: 7401 8cbd ecea d6bc 7186 003d 9d48 3d39
00000150: a19b 3f3d 6662 a8bc c3a4 353d f504 913d
00000160: f7f8 5b3d be05 bf3d 9097 6b3d a8ee e1bc
00000170: c562 843c 7782 c33d cabc 553d 42c1 2c3d
00000180: 5f1e 333c 4e31 8a3d 4cbf 1b3d e3a4 223d
00000190: 44e5 013d 0c3d 21bc 796d 713d 41ad 6a3d
000001a0: 5aea 50bd c126 52bc a7d1 e4bc ff31 b53a
000001b0: 3477 e93a 3d8c 5d3c 33be 61bd da57 6b3d
000001c0: e244 5fbc 4862 cc3c cd43 a5bd 533c 5bbc
000001d0: b0b0 11bd 2ecc 8abc a643 a33d aff7 133e
000001e0: 5211 abbd 6edc 953c 8b5f 103d a608 76bb
000001f0: bd14 0cbd 1bf4 0fbd 8839 84bd d56b bcbc
00000200: 9d35 12bd 3c5a 36bd d89b 8dbb 8e36 3c3d
00000210: 26c7 04bd e969 ad3c 7c99 7fbd 1276 34bc
00000220: e00d 9d3d 3f64 e93c 434d d93c 9844 aabd
00000230: 374f 393d 83ff 973c 04aa 973b 09f2 013c
00000240: 8a94 8abc a3cc 90bd 5a2d 01bc 9df2 893c
00000250: 2630 8f3d 5960 b4bc 8da6 25bd 7188 543d
00000260: eb41 243d 6e81 64bc 5a5f 113d 0d47 513d
00000270: 56e8 7fbd 288f 63bd bd8b 693d 0f73 703c
00000280: 3784 98bc fc9b 92bd 9738 4dbd 335e 4dbc
00000290: 4a18 56bd eef2 1dbd 172c 563b 0b99 adbc
000002a0: 275d 2a3c 33e4 083d dbba 9c3d 0c99 a8bc
000002b0: 301c 39bb c8a1 ce3c b243 24bc 9e17 07bc
000002c0: 9738 0b3d 8e50 a93c 316f c33c ea9d d1bc
000002d0: 3fe7 4eba 1ad7 883d de58 573d 1058 5ebd
000002e0: f840 a7bd 7e8a a13d df50 21bd b064 583d
000002f0: d28d bdbc 8c42 d0bc 96e2 3d3c c6e3 553d
00000300: 13a2 6fbd 6310 abbd b462 75bc 03ae 703d
00000310: 6bb5 fcbc d2b9 8dbd c357 ad3d ff6c 013d
00000320: 19b2 af3c acd1 bb3c 9432 14bb 114e 7fbd
00000330: cba5 153d d814 d03c 07ea 05bd 4f6b a23d
00000340: 6af2 eebc ec8e 643d 5b83 993d c8ba aabd
00000350: 6006 1a3d f5df 873d 8535 15bd a898 aebd
00000360: 710e 20bd 3dd8 63bd 0122 aabc 8df8 68bc
00000370: 77a4 8cbc 53e0 6ebd c270 1d3d 60f3 13bd
00000380: 2226 69bc b0dd acbd a442 cf3c 8e5d 913d
00000390: b5f3 a43d cbd2 2fbc 4001 ae3b 5f99 c63c
000003a0: f919 483d b988 973c 0670 7e3c a10f 85bd
000003b0: e539 6bbc cc79 0d3d e661 7bbd c482 83bd
000003c0: 53ad 773c 1b42 1d3d fa84 a8bd e091 99bd
000003d0: 2bb7 99bc 7704 cebc 11f1 7b3d 5518 54bd
000003e0: 005d 41bd 753a 7e3d bd12 22bd b6c7 7bbc
000003f0: 6c71 b5bd a36b 86bc 8d0e 0b3d a874 5b3d

fc2.bias f4 [64]
-0.08848821 -0.080599755 -0.073672794 0.05218453 0.076363675 0.098114446 -0.0030029246 0.07821542
-0.026965253 -0.22092615 0.05537982 -0.065502405 0.028831385 -0.06726209 -0.051366974 0.026939496
-0.03970543 0.04548011 0.06349588 -0.0036206043 -0.053146183 0.044770226 -0.06459341 -0.011011105
-0.0036802734 0.05473944 0.063736476 0.04380692 -0.10483726 -0.04189667 0.008847498 0.061970573
-0.07839362 0.04738431 -0.0029323755 -0.045517974 -0.045587096 0.027738063 0.17233689 -0.04302075
0.0059659346 0.06878076 -0.037426114 -0.026876535 -0.00996863 0.18104285 -0.010481461 -0.026634237
-0.09612512 -0.05769691 0.019823268 0.019040247 -0.0097324345 -0.10093935 -0.01214103 -0.0033362557
0.04119368 -0.015260463 -0.041515563 -0.08036329 0.05309475 0.019450042 -0.121387124 -0.095215656
00000000: 4f39 b5bd 7c11 a5bd c3e1 96bd 72bf 553d
00000010: 8f64 9c3d 3af0 c83d b7cc 44bb 682f a03d
00000020: 3ce6 dcbc 773a 62be f3d5 623d 2026 86bd
00000030: cc2f ec3c b5c0 89bd 2d66 52bd 38b0 dc3c
00000040: 29a2 22bd 5a49 3a3d 210a 823d a947 6dbb
00000050: d0af 59bd fc60 373d 8d49 84bd ec67 34bc
00000060: be30 71bb 7736 603d 4588 823d e36e 333d
00000070: ebb4 d6bd d89b 2bbd 19f5 103c dbd4 7d3d
00000080: d68c a0bd 0d16 423d 192d 40bb 0e71 3abd
00000090: 89b9 3abd ef3a e33c 1579 303e 8736 30bd
000000a0: e37d c33b eddc 8c3d 204c 19bd 2e2c dcbc
000000b0: 7753 23bc 4c63 393e 6fba 2bbc 0b30 dabc
000000c0: 3fdd c4bd 9853 6cbd 6864 a23c 4bfa 9b3c
000000d0: ca74 1fbc 4ab9 cebd 2ceb 46bc 15a5 5abb
000000e0: b4ba 283d 0507 7abc 390c 2abd 8295 a4bd
000000f0: e179 593d b255 9f3c d099 f8bd 6d00 c3bd

fcn.weight f4 [4, 64]
0.09963929 -0.018306063 0.0076171816 -0.06350955 -0.08839399 -0.33797053 -0.094691396 0.05568863
0.023911566 0.11975463 -0.018652553 -0.080972075 0.120103456 0.08839772 0.04340646 0.12213981
0.0752154 -0.05720563 -0.21005654 -0.036273185 -0.065925345 -0.028751452 0.07979066 0.084411174
0.1045528 0.09983373 -0.097134046 0.083191365 0.07693752 -0.06859504 -0.012662217 0.16684377
0.050247863 -0.0983636 0.007897688 0.039771993 0.24439237 -0.005608314 -0.03717903 -0.10022774
0.11146858 -0.06961239 -0.024635175 0.01969657 -0.025300117 -0.4590816 -0.032593094 -0.046711013
0.10477639 0.11313046 -0.0396199 -0.04737594 -0.0677215 0.08103245 -0.030476023 -0.10324923
-0.08832764 0.070486195 -0.099485055 -0.053643256 -0.07459343 0.09280777 -0.025710743 0.11078613
0.06323023 0.1151277 0.121961355 -0.08728625 0.07313968 -0.019100863 -0.044928733 -0.1475287
0.16000488 0.33916008 0.14357656 0.074616104 -0.15499155 -0.075322315 -0.08549092 -0.05667524
0.17288306 0.111355096 0.113481835 -0.11452081 0.08025178 0.07831729 0.09290707 -0.11705915
0.020428052 0.09538132 0.0129608 -0.027099026 0.052792642 0.09839816 -0.044387266 0.018793806
0.10154849 0.099170044 -0.1016671 -0.09405696 -0.05756019 -0.070300706 -0.18924952 0.067013055
0.13487391 -0.076071486 0.044102304 0.031400908 -0.09716169 -0.086902924 -0.035097603 -0.067543074
0.026450753 0.09455579 -0.04240361 0.087664515 -0.071481824 0.083095014 0.0931198 0.024926556
0.12356209 -0.050713006 0.033768773 -0.08234838 -0.016271425 -0.06813763 0.06731484 0.14684044
0.073682286 0.057737313 -0.03270301 0.030007338 -0.036450986 -0.063726485 0.017690377 0.085701704
-0.105700314 0.22199196 0.0032888493 0.08573559 0.117708005 0.11278732 -0.018676972 0.12082942
-0.10782652 0.07294005 -0.0020966681 -0.0056620976 -0.066205084 -0.11500918 -0.0859876 0.12649558
0.109870024 0.0338293 0.013087208 0.0743106 -0.052677177 0.101769 0.10954814 -0.0369204
0.025311604 -0.016262604 0.00784002 0.12625538 -0.11002076 -0.03640715 -0.13290815 -0.017467752
0.0034176945 0.071918614 -0.06680183 -0.051306143 -0.040015798 0.022571253 0.023435356 0.09381905
0.094956115 0.061065245 0.020238915 -0.07259281 -0.12485401 0.025981158 0.15343511 0.013406251
0.08427078 0.12728515 0.0006199032 0.061558425 -0.11007898 0.1119124 0.14065413 -0.0016409091
0.023831762 -0.0674651 0.052609127 0.11962196 -0.060849674 0.0890023 -0.13099228 0.051466264
-0.13345385 -0.006205962 -0.006833852 0.006937921 0.058482196 -0.067422114 -0.056480005 -0.07151076
0.07992426 0.036540452 -0.00086733553 -0.09895527 0.019382 0.056119163 0.096931934 0.05699608
-0.04124336 -0.09697704 0.012206526 0.008255821 -0.031012367 0.14503089 -0.06568462 -0.10685942
0.073998734 0.12991911 -0.12756062 -0.08171034 -0.05649533 -0.03334813 0.07621026 -0.027735516
0.041870385 0.06501887 -0.01127184 -0.1028404 -0.03871199 -0.050481517 0.13061814 -0.091884345
0.06384807 -0.00062210823 0.048787076 -0.031908277 -0.056133732 0.09209934 0.11623246 -0.09298514
0.04527073 0.0070400103 0.05154352 0.0048392117 0.09408925 -0.116877556 0.14287367 0.12946828
00000000: af0f cc3d 99f6 95bc 8d99 f93b 4c11 82bd
00000010: e907 b5bd 790a adbe 90ed c1bd c319 643d
00000020: 30e2 c33c ea41 f53d 3dcd 98bc b0d4 a5bd
00000030: cdf8 f53d dd09 b53d f9ca 313d 7024 fa3d
00000040: 880a 9a3d 7350 6abd 1019 57be 3193 14bd
00000050: de03 87bd 2a88 ebbc 4969 a33d c4df ac3d
00000060: c71f d63d a075 cc3d 37ee c6bd 3c60 aa3d
00000070: 6b91 9d3d 8e7b 8cbd 3075 4fbc 18d9 2a3e
00000080: b4d0 4d3d db72 c9bd 4e65 013c f5e7 223d
00000090: fe41 7a3e f3c5 b7bb 0a49 18bd 3444 cdbd
000000a0: a449 e43d f190 8ebd b5cf c9bc b35a a13c
000000b0: 3142 cfbc be0c ebbe 5680 05bd 0c54 3fbd
000000c0: 0195 d63d f1b0 e73d 7a48 22bd 460d 42bd
000000d0: 92b1 8abd 57f4 a53d daa8 f9bc 5574 d3bd
000000e0: 1fe5 b4bd 115b 903d d2be cbbd 08b9 5bbd
000000f0: 71c4 98bd 0012 be3d 569f d2bc d7e3 e23d
00000100: da7e 813d 12c8 eb3d e0c6 f93d 22c3 b2bd
00000110: 42ca 953d 6a79 9cbc 3107 38bd c311 17be
00000120: 52d8 233e 64a6 ad3e bc05 133e 54d0 983d
00000130: 1bb6 1ebe 9642 9abd dd15 afbd 4c24 68bd
00000140: 4208 313e 240e e43d 2a69 e83d e389 eabd
00000150: 0c5b a43d d164 a03d 1046 be3d b5bc efbd
00000160: bb58 a73c 4857 c33d 8959 543c c7fe ddbc
00000170: 193d 583d f984 c93d 6ccf 35bd 78f5 993c
00000180: a8f8 cf3d aa19 cb3d d736 d0bd efa0 c0bd
00000190: 3cc4 6bbd d1f9 8fbd a0ca 41be 243e 893d
000001a0: 631c 0a3e 5ecb 9bbd 9ea4 343d 3d9e 003d
000001b0: b5fc c6bd 29fa b1bd 81c2 0fbd 0654 8abd
000001c0: 40af d83c 77a6 c13d 68af 2dbd 7489 b33d
000001d0: 1065 92bd b82d aa3d 98b5 be3d c732 cc3c
000001e0: 1f0e fd3d 71b8 4fbd 2051 0a3d 44a6 a8bd
000001f0: a74b 85bc be8b 8bbd 5ddc 893d 575d 163e
00000200: bde6 963d f67d 6c3d 97f3 05bd f3d1 f53c
00000210: a14d 15bd 0883 82bd 69eb 903c 6084 af3d
00000220: 6879 d8bd dc51 633e bc89 573b 2496 af3d
00000230: e510 f13d 0afd e63d 7300 99bc 6a75 f73d
00000240: 27d4 dcbd 9861 953d 4168 09bb 1e89 b9bb
00000250: 8896 87bd ef89 ebbd 441a b0bd 0f88 013e
00000260: 8903 e13d 9890 0a3d bb6b 563c 2830 983d
00000270: 06c4 57bd 446c d03d c65a e03d d839 17bd
00000280: 485a cf3c 2739 85bc 6d73 003c 1749 013e
00000290: 9052 e1bd aa1f 15bd 1319 08be 8818 8fbc
000002a0: 66fb 5f3b 114a 933d 66cf 88bd 6426 52bd
000002b0: 9be7 23bd 59e7 b83c 81fb bf3c 3424 c03d
000002c0: 5a78 c23d 8d1f 7a3d 15cc a53c 8aab 94bd
000002d0: 76b3 ffbd 70d6 d43c 181e 1d3e e4a5 5b3c
000002e0: 2996 ac3d 0a57 023e 0081 223a b024 7c3d
000002f0: 1771 e1bd 5432 e53d a307 103e c613 d7ba
00000300: d43a c33c 242b 8abd ab7c 573d 5cfc f43d
00000310: 823d 79bd d646 b63d d722 06be 4ace 523d
00000320: 20a8 08be 625b cbbb 81ee dfbb 8057 e33b
00000330: 078b 6f3d 9b14 8abd 9457 67bd 3c74 92bd
00000340: 55af a33d 71ab 153d e75d 63ba 10a9 cabd
00000350: 00c7 9e3c 35dd 653d 4084 c63d b974 693d
00000360: ccee 28bd e69b c6bd e1fd 473c 6c43 073c
00000370: a60d febc fa82 143e a885 86bd 1dd9 dabd
00000380: a68c 973d 8409 053e 409f 02be c057 a7bd
00000390: a667 67bd 0c98 08bd 2014 9c3d 9835 e3bc
000003a0: 4880 2b3d 9d28 853d 86ad 38bc fd9d d2bd
000003b0: 7790 1ebd b5c5 4ebd c3c0 053e dc2d bcbd
000003c0: c7c2 823d fa14 23ba f5d4 473d 41b2 02bd
000003d0: 7cec 65bd 949e bc3d 490b ee3d fe6e bebd
000003e0: cd6d 393d e3af e63b 4c1f 533d 4092 9e3b
000003f0: ddb1 c03d 805d efbd 7a4d 123e 5593 043e

fcn.bias f4 [4]
-0.09687099 0.006616767 0.01358491 -0.008544658
00000000: 4c64 c6bd 77d1 d83b 3e93 5e3c e5fe 0bbc
