modelo1.pth (torch, 150920 bytes, 6 tensors)

fc1.weight f4 [128, 256]
-0.05747935 0.11645537 0.19445756 0.07409846 0.12031892 -0.118997835 0.21349624 -0.010977797
-0.10157456 0.5407421 -0.0024942583 0.050922867 0.157885 0.16556035 0.025535094 0.10377448
0.25277048 0.15471865 0.20212413 -0.3003018 0.014170597 0.15495697 0.062100306 0.22038513
-0.24625675 0.1660854 0.07526074 0.18177505 0.06865137 0.2057831 -0.22582439 0.19815633
-0.08042194 0.3437586 -0.025029749 -0.15940568 0.27955362 0.024398763 0.05681888 0.1932651
-0.17716978 0.36095238 0.035699204 0.047306 0.2822247 0.07470158 0.08004696 -0.006150301
-0.117699936 0.23948231 -0.11707486 -0.26399317 -0.31430918 0.41147122 -0.17777038 0.09531556
-0.07690941 0.19529858 -0.15943441 0.080488235 0.07286233 -0.14357907 -0.12641801 0.16384059
0.09258933 -0.013184048 -0.029792566 0.04693253 0.05944186 0.08466047 0.10032297 -0.2316207
0.0067632883 0.0933434 -0.02140901 -0.19918796 0.074165106 -0.11314211 -0.23102145 0.16658372
-0.102077715 -0.020981729 -0.0031647014 0.060779102 0.14488316 0.013922408 0.015745008 -0.15033744
-0.11159068 -0.02963419 0.092739925 -0.062458176 0.060932096 -0.108170174 -0.013164672 -0.08340128
0.07043649 -0.124640234 0.12842523 0.0035630881 0.11503464 -0.043760594 0.06316552 0.071058616
0.027803384 -0.06928775 0.07913401 0.07666359 0.14320226 -0.24991012 0.0030305088 -0.016393304
-0.056384504 0.084552124 0.022223642 -0.083894886 0.051649444 -0.03792553 0.14752279 0.04121964
0.07536736 -0.113931604 -0.0051565645 0.096972734 0.015623499 -0.0673467 -0.084775224 -0.044772524
0.057724323 0.003083796 -0.18692347 -0.10928433 0.07931583 -0.19857028 0.032865148 -0.037580095
0.15012422 -0.019941082 0.0119536705 0.13074468 -0.12451848 -0.12453814 0.018667368 -0.037305836
0.05006573 -0.1223708 0.06438429 0.01337704 -0.047854245 -0.0062065357 -0.14954798 0.040331736
0.19270079 -0.12567218 0.038005665 -0.08368278 0.032449275 -0.19181827 0.11190539 -0.044715494
0.059252206 0.051865596 0.064527534 -0.031900704 -0.08475752 -0.2500734 -0.057620354 0.17497243
0.15253957 0.07545148 -0.069130674 -0.13310505 0.13137361 -0.06356794 0.048029948 0.08948449
-0.03654065 -0.20768312 0.08370673 0.08650486 -0.011740601 0.029168194 0.10643255 -0.037513055
0.03100482 0.060451936 -0.34475818 -0.09530647 0.06468757 0.15357715 -0.07779362 -0.03043095
-0.22848529 0.11091083 0.06830015 -0.018448563 -0.033895914 0.08942133 -0.20168778 0.48228475
-0.15080515 0.18215744 -0.0026887038 0.21556315 -0.038507838 0.31575018 -0.03924036 -0.024967518
-0.1306389 0.2795109 -0.08989235 0.34295142 -0.017259642 0.124150045 0.01996784 0.17585261
-0.10977959 0.050614692 -0.0318642 0.24263528 0.13817292 -0.0068979785 -0.05365038 0.26935196
-0.16409162 -0.12473115 -0.08723198 0.1047275 -0.008127701 0.45069012 0.048672855 0.09771267
0.05129796 0.039032847 -0.03424294 0.42141056 0.059060067 0.49525967 0.06600959 -0.08988622
-0.036919564 -0.009057762 0.10014198 0.1082737 -0.08068939 0.14886868 0.022060346 0.07224232
0.06055541 0.5000543 -0.0028970803 -0.07731011 -0.09661573 -0.04004541 0.09475763 0.13275152
00000000: 786f 6bbd 2780 ee3d e21f 473e efc0 973d
00000010: c469 f63d 23b5 f3bd c29e 5a3e 38dc 33bc
00000020: 5306 d0bd 136e 0a3f b676 23bb 7f94 503d
00000030: 9bac 213e a788 293e f92e d13c b787 d43d
00000040: 226b 813e 916e 1e3e a1f9 4e3e 28c1 99be
00000050: cb2b 683c 0aad 1e3e e45c 7e3d a4ac 613e
00000060: bb2a 7cbe 4b12 2a3e 4e22 9a3d 3d23 3a3e
00000070: 1799 8c3d ceb8 523e 823e 67be 7ee9 4a3e
00000080: 42b4 a4bd 2101 b03e 300b cdbc 3e3b 23be
00000090: a721 8f3e eadf c73c eaba 683d 49e7 453e
000000a0: ff6b 35be c0ce b83e 5439 123d f0c3 413d
000000b0: c27f 903e 24fd 983d a9ef a33d 7788 c9bb
000000c0: aa0c f1bd da3a 753e f2c4 efbd 1d2a 87be
000000d0: 22ed a0be 5bac d23e 7009 36be ce34 c33d
000000e0: ae82 9dbd 5afc 473e c642 23be 04d7 a43d
000000f0: d838 953d 6406 13be b973 01be d4c5 273e
00000100: 7a9f bd3d e801 58bc 8a0f f4bc 533c 403d
00000110: 4f79 733d 7862 ad3d 2176 cd3d fa2d 6dbe
00000120: 939e dd3b d32a bf3d f361 afbc eef7 4bbe
00000130: e0e3 973d 0db7 e7bd e390 6cbe ec94 2a3e
00000140: 1f0e d1bd e0e1 abbc e166 4fbb 82f3 783d
00000150: 405c 143e d01a 643c adfb 803c 0ff2 19be
00000160: a889 e4bd 67c3 f2bc 6eee bd3d 25d4 7fbd
00000170: ef93 793d 5388 ddbd a3b0 57bc 4ace aabd
00000180: 0241 903d 6143 ffbd e781 033e b382 693b
00000190: 4897 eb3d 4f3e 33bd ed5c 813d 2e87 913d
000001a0: ecc3 e33c bce6 8dbd 0311 a23d cd01 9d3d
000001b0: 9da3 123e 70e8 7fbe 809b 463b 404b 86bc
000001c0: 70f3 66bd aa29 ad3d 5b0e b63c 15d1 abbd
000001d0: 5e8e 533d cd57 1bbd 3710 173e edd5 283d
000001e0: 345a 9a3d f954 e9bd 66f8 a8bb a499 c63d
000001f0: b4f9 7f3c 11ed 89bd a29e adbd 6563 37bd
00000200: 5770 6c3d 8319 4a3b de68 3fbe 76d0 dfbd
00000210: 5670 a23d 0256 4bbe 9b9d 063d 96ed 19bd
00000220: 2aba 193e 7b5b a3bc 54d9 433c efe1 053e
00000230: 8b03 ffbd da0d ffbd 4fec 983c 01ce 18bd
00000240: b911 4d3d 8b9d fabd e9db 833d 5f2b 5b3c
00000250: d002 44bd 3260 cbbb 1b23 19be e432 253d
00000260: 5b53 453e 35b0 00be d4ab 1b3d e161 abbd
00000270: 88e9 043d 026c 44be a72e e53d 9827 37bd
00000280: 71b2 723d 0571 543d 0327 843d 50aa 02bd
00000290: 5a95 adbd 9f09 80be 5203 6cbd f92b 333e
000002a0: 5533 1c3e 4e86 9a3d 6294 8dbd b14c 08be
000002b0: ce86 063e e82f 82bd 0dbb 443d a543 b73d
000002c0: a6ab 15bd e2aa 54be 6f6e ab3d 7629 b13d
000002d0: a65b 40bc 23f2 ee3c 4ff9 d93d 4aa7 19bd
000002e0: d2fd fd3c 739c 773d 2584 b0be 0a30 c3bd
000002f0: eb7a 843d 5443 1d3e 4352 9fbd 544a f9bc
00000300: 0cf8 69be 3825 e33d f3e0 8b3d 7121 97bc
00000310: 71d6 0abd 8822 b73d 3e87 4ebe 07ee f63e
00000320: aa6c 1abe 7b87 3a3e f734 30bb 96bc 5c3e
00000330: 65ba 1dbd 02aa a13e 80ba 20bd ae88 ccbc
00000340: 34c6 05be 0d1c 8f3e 7b19 b8bd 5497 af3e
00000350: 1864 8dbc 6142 fe3d 9893 a33c b512 343e
00000360: 1fd4 e0bd 5a51 4f3d 0984 02bd 6275 783e
00000370: 347d 0d3e 7008 e2bb 80c0 5bbd 80e8 893e
00000380: a207 28be 0c73 ffbd aea6 b2bd 5f7b d63d
00000390: 0c2a 05bc dbc0 e63e 305d 473d 951d c83d
000003a0: cf1d 523d e8e0 1f3d 5342 0cbd 20c3 d73e
000003b0: f8e8 713d ad92 fd3e 0930 873d 4416 b8bd
000003c0: f838 17bd 0267 14bc 3d17 cd3d 9abe dd3d
000003d0: 7b40 a5bd 0871 183e e6b7 b43c c8f3 933d
000003e0: f308 783d 8f03 003f f1dc 3dbb c354 9ebd
000003f0: 78de c5bd a806 24bd 4a10 c23d 04f0 073e

fc1.bias f4 [128]
-0.054476995 -0.031421036 0.11120219 0.112135775 -0.123996794 -0.029502533 0.04672039 -0.32368174
-0.05341861 -0.31819487 -0.23388293 0.0072157276 0.04136659 0.054240007 -0.015085377 -0.0060254335
-0.3144126 -0.05909381 -0.3345248 0.02630774 0.027564453 0.031437106 -0.04520252 -0.029925153
-0.27766067 0.05060924 -0.022480305 -0.029326988 0.041092303 -0.013572513 -0.28690732 -0.05512583
-0.049483124 0.04598723 -0.026754363 -0.13423951 0.017401282 -0.008008754 -0.020861642 0.006363488
-0.25161305 -0.2996293 -0.33630282 -0.028229382 -0.021438226 -0.044589195 0.02421458 -0.17616929
0.033355735 -0.39412928 -0.056437943 -0.0140456855 -0.05372536 0.22898717 0.0333665 -0.10319054
0.020484649 -0.06018311 0.039168615 -0.026529143 0.03225438 -0.27225584 -0.038792163 -0.3033332
-0.04904469 -0.06179431 0.05841866 -0.066602826 0.069001265 -0.16380991 -0.061446395 -0.030096002
-0.018091343 0.17566113 -0.019012533 0.011662254 -0.05915218 -0.10007608 -0.036899492 -0.037114277
-0.060249172 -0.039720908 0.040377334 -0.25741497 0.051829837 0.028583778 0.0073962514 -0.19084127
-0.015671268 -0.02199043 0.032114796 -0.050910912 -0.05607355 -0.049470473 0.04604917 0.023025915
-0.007252523 -0.14181301 -0.022216126 -0.11234185 -0.04185106 0.02414175 -0.2475029 -0.19009483
-0.024620794 -0.3230611 -0.02687823 -0.18603306 -0.00053281395 0.027881015 -0.05214849 0.042750042
-0.061149858 -0.04601749 -0.21991968 0.023866598 0.035165608 -0.4075486 0.04635829 -0.05206852
-0.18300174 -0.10684513 -0.25773317 -0.017016867 -0.19461359 0.026274882 0.029402744 0.01628805
00000000: 4523 5fbd 58b3 00bd f9bd e33d 71a7 e53d
00000010: 08f2 fdbd 4caf f1bc e15d 3f3d 9db9 a5be
00000020: 79cd 5abd 70ea a2be 027f 6fbe e971 ec3b
00000030: 0370 293d c52a 5e3d a828 77bc 0071 c5bb
00000040: b0fa a0be 5a0c 72bd d646 abbe 5483 d73c
00000050: d9ce e13c 32c4 003d 4726 39bd 9825 f5bc
00000060: 8a29 8ebe a24b 4f3d 9e28 b8bc 273f f0bc
00000070: 6750 283d 3f5f 5ebc 84e5 92be 9fcb 61bd
00000080: d1ae 4abd 1b5d 3c3d f72b dbbc 1576 09be
00000090: 228d 8e3c 2637 03bc 09e6 aabc ce84 d03b
000000a0: 6dd3 80be 0369 99be e22f acbe 4e41 e7bc
000000b0: 389f afbc 29a3 36bd a85d c63c b965 34be
000000c0: 06a0 083d 50cb c9be 792b 67bd e01f 66bc
000000d0: 200f 5cbd 9d7b 6a3e 50ab 083d 9055 d3bd
000000e0: 6ccf a73c 9182 76bd 456f 203d a553 d9bc
000000f0: 2b1d 043d 1e65 8bbe 88e4 1ebd 7d4e 9bbe
00000100: 16e3 48bd 081c 7dbd 6848 6f3d 1067 88bd
00000110: 8950 8d3d c9bd 27be 37af 7bbd e48b f6bc
00000120: 4c34 94bc 83e0 333e 2cc0 9bbc 0a13 3f3c
00000130: 8e49 72bd b0f4 ccbd ec23 17bd 2405 18bd
00000140: d6c7 76bd 64b2 22bd b462 253d e5cb 83be
00000150: 864b 543d 8728 ea3c 415c f23b e56b 43be
00000160: 0861 80bc 4625 b4bc ce8a 033d f687 50bd
00000170: 61ad 65bd 8da1 4abd 0e9e 3c3d d8a0 bc3c
00000180: 93a6 edbb 6e37 11be 98fe b5bc 7c13 e6bd
00000190: 046c 2bbd ebc4 c53c 6671 7dbe 38a8 42be
000001a0: 8cb1 c9bc 4468 a5be bc2f dcbc 737f 3ebe
000001b0: 8aac 0bba ba66 e43c a899 55bd ab1a 2f3d
000001c0: 4678 7abd d67c 3cbd a032 61be e283 c33c
000001d0: d009 103d 36aa d0be 31e2 3d3d cd45 55bd
000001e0: cf64 3bbe 9fd1 dabd 9af5 83be f566 8bbc
000001f0: c948 47be 6c3e d73c 06de f03c 846e 853c

fc2.weight f4 [32, 128]
0.03305761 -0.06061805 0.005445035 -0.080845766 0.04544829 -0.0127254315 -0.0040909466 -0.08506681
-0.050099846 -0.06708028 0.042071912 -0.048283305 0.057084646 0.026984762 0.08103589 -0.0013053417
-8.20896e-05 0.043632306 0.0603648 -0.034387216 -0.093604065 0.07052278 -0.035045013 -0.0005857164
-0.09272515 0.032888453 0.07156832 0.026568664 0.05546325 -0.05423001 -0.08545946 -0.032236163
0.074793875 0.07762044 0.055145845 -0.10114015 0.0401289 -0.0007659257 0.04734753 0.06137746
-0.054581832 0.049006492 -0.059759524 -0.015293881 0.01655607 0.06615061 0.06348758 0.011859223
-0.017658971 -0.04728506 -0.09112832 -0.062756434 0.022859678 -0.027936885 -0.00620619 -0.043881975
-0.054172628 -0.03550239 -0.07524814 0.051845238 0.03139339 -0.0689649 0.0582398 0.0573261
-0.054301094 -0.016224384 0.0818407 -0.06835603 0.032630634 -0.09306458 -0.04773574 0.06277279
-0.04658592 -0.035322797 0.024598112 0.061456945 0.003108941 -0.06106869 -0.02369856 0.077849664
0.007668443 0.04134967 -0.059942827 -0.059899133 -0.05285578 0.0803774 0.050682582 -0.056366693
-0.080358356 0.042491514 0.06572609 -0.05833479 -0.025109384 0.010855973 -0.046947546 -0.09560265
0.0511941 -0.09796867 0.056797333 0.047815956 -0.029858533 -0.0057415375 0.006349869 0.03612153
-0.0254625 0.040017027 -0.045226667 0.037341148 0.05691599 -0.070679314 -0.019626945 -0.07846356
-0.021887051 0.07127798 0.0470911 -0.05307124 -0.029488469 0.011619217 -0.07504859 0.032475397
-0.08654113 -0.106510624 0.06056558 0.022229355 0.023732325 0.03072498 0.0333213 -0.016183063
0.050390642 -0.024781441 0.06769338 -0.017182926 0.045751292 0.006709433 0.04598383 -0.028611902
-0.040306896 -0.066205986 -0.083448045 0.07113976 0.051494487 -0.09220868 0.027472109 0.027832858
-0.064138934 -0.04056135 0.037406396 0.04084904 0.020000458 0.075980105 0.01589174 -0.05721289
0.0073596537 -0.07480786 -0.011084834 0.03699828 0.011858276 -0.048565023 0.00095024344 -0.06503439
-0.07246955 -0.0540142 -0.023126341 -0.07387506 0.05609928 0.020838127 -0.012466265 -0.016286822
0.024466308 -0.091969006 0.042113036 -0.012680687 -0.071124926 -0.021397166 0.049221277 0.064572506
0.009184703 -0.025533218 0.033459842 -0.06304719 -0.0078590065 -0.08700525 0.009825323 -0.09103579
-0.025881417 0.009431044 -0.015961943 -0.042086326 -0.07504384 -0.054690614 -0.026957534 0.066959076
0.0359774 -0.087342665 0.051547877 -0.0010192174 -0.08518782 0.055838805 -0.06943341 0.042709976
-0.0013320819 -0.016786128 -0.041301638 -0.03122659 0.030467987 0.021064356 0.08080899 -0.02844885
0.05663284 0.017526105 -0.037361305 0.056583226 0.02622779 0.03372313 -0.006407488 0.021317296
0.071798615 -0.02752103 -0.03213673 0.03145042 0.028876383 0.055860795 0.065938175 -0.05463079
0.059443124 -0.08323411 -0.050336275 -0.016855724 -0.013942048 0.059666596 0.03136879 -0.017176408
-0.0061457604 0.020502832 -0.039743394 0.026811242 -0.0036070484 0.05202367 -0.07097356 0.05210843
0.021913737 -0.013365043 -0.037659355 0.024073191 -0.00013606233 0.008796323 -0.06266719 0.023296876
-0.057254624 -0.08730268 -0.058781683 -0.033863 -0.066190295 0.0013631955 -0.05021095 0.03304669
00000000: 6b67 073d a24a 78bd 446c b23b 7792 a5bd
00000010: fc27 3a3d 547e 50bc 590d 86bb 8237 aebd
00000020: 7f35 4dbd 6361 89bd 9953 2c3d b7c4 45bd
00000030: 97d1 693d 260f dd3c 25f6 a53d 0018 abba
00000040: 8527 acb8 cab7 323d 1541 773d 9cd9 0cbd
00000050: 7db3 bfbd 3f6e 903d 5c8b 0fbd c38a 19ba
00000060: afe6 bdbd 0bb6 063d 6992 923d 87a6 d93c
00000070: 6f2d 633d 4920 5ebd 5f05 afbd 110a 04bd
00000080: 882d 993d 77f7 9e3d 9ce0 613d 9122 cfbd
00000090: 345e 243d 67c8 48ba 7cef 413d ee66 7b3d
000000a0: 3391 5fbd 08bb 483d 67c6 74bd 3093 7abc
000000b0: 98a0 873c f979 873d c705 823d 304d 423c
000000c0: 8ca9 90bc fbad 41bd 7ca1 babd 7286 80bd
000000d0: 3844 bb3c e5db e4bc 4c5d cbbb 96bd 33bd
000000e0: 1ee4 5dbd f46a 11bd b21b 9abd ac5b 543d
000000f0: 5b96 003d 783d 8dbd db8c 6e3d c6ce 6a3d
00000100: d36a 5ebd 00e9 84bc 199c a73d 3ffe 8bbd
00000110: b3a7 053d a498 bebd 8d86 43bd 058f 803d
00000120: e1d0 3ebd a3ae 10bd fb81 c93c 47ba 7b3d
00000130: 60bf 4b3b 2a23 7abd 7c23 c2bc a56f 9f3d
00000140: 9047 fb3b 465e 293d 9c86 75bd cb58 75bd
00000150: 4d7f 58bd e89c a43d 8a98 4f3d c3e0 66bd
00000160: ec92 a4bd 950b 2e3d 669b 863d 76f0 6ebd
00000170: 32b2 cdbc 40dd 313c 124c 40bd 52cb c3bd
00000180: e8b0 513d cca3 c8bd 52a4 683d aada 433d
00000190: e299 f4bc 8223 bcbb 9012 d03b 2bf4 133d
000001a0: bc96 d0bc e5e8 233d 993f 39bd 08f3 183d
000001b0: be20 693d 51c0 90bd b0c8 a0bc 81b1 a0bd
000001c0: 794c b3bc 31fa 913d 99e2 403d 3b61 59bd
000001d0: cd91 f1bc 875e 3e3c 13b3 99bd ec04 053d
000001e0: 7a3c b1bd 3e22 dabd 9d13 783d 561a b63c
000001f0: 4b6a c23c f4b2 fb3c ea7b 083d 5892 84bc
00000200: 6b66 4e3d 7302 cbbc d4a2 8a3d 35c3 8cbc
00000210: b565 3b3d ceda db3b 8a59 3c3d 8263 eabc
00000220: d818 25bd 0197 87bd cfe6 aabd b9b1 913d
00000230: e2eb 523d e8d7 bcbd 300d e13c bc01 e43c
00000240: 465b 83bd a823 26bd 7337 193d 5351 273d
00000250: 00d8 a33c 759b 9b3d 652f 823c 1058 6abd
00000260: 4029 f13b dd34 99bd 2a9d 35bc 828b 173d
00000270: 3749 423c 1eec 46bd c219 793a c030 85bd
00000280: ea6a 94bd fe3d 5dbd 7473 bdbc cf4b 97bd
00000290: 5cc8 653d b8b4 aa3c 4e3f 4cbc f16b 85bc
000002a0: 916d c83c 3f5a bcbd b87e 2c3d a8c2 4fbc
000002b0: f2a9 91bd 1c49 afbc 409c 493d 973e 843d
000002c0: 707b 163c 0a2b d1bc 300d 093d e31e 81bd
000002d0: 10c3 00bc cf2f b2bd 64fa 203c f970 babd
000002e0: 4405 d4bc aa84 1a3c 9fc2 82bc b662 2cbd
000002f0: 96b0 99bd 4403 60bd 0cd6 dcbc d721 893d
00000300: 0a5d 133d b6e0 b2bd de23 533d 4397 85ba
00000310: f476 aebd 3bb7 643d 1b33 8ebd a8f0 2e3d
00000320: 4099 aeba 1083 89bc e82b 29bd e8ce ffbc
00000330: 0098 f93c 288f ac3c 2f7f a53d 900d e9bc
00000340: d6f7 673d e892 8f3c 2b08 19bd d0c3 673d
00000350: aadb d63c 4421 0a3d e8f5 d1bb 9ca1 ae3c
00000360: 270b 933d c873 e1bc cea1 03bd 28d2 003d
00000370: 2a8e ec3c 4ace 643d 980a 873d 89c4 5fbd
00000380: a27a 733d a576 aabd 692d 4ebd 0415 8abc
00000390: 306d 64bc f664 743d 8f7c 003d 8ab5 8cbc
000003a0: 6062 c9bb 8ef5 a73c f8c9 22bd 40a3 db3c
000003b0: 3b64 6cbb c616 553d 965a 91bd a66f 553d
000003c0: 7084 b33c 0ef9 5abc b240 1abd 2435 c53c
000003d0: f4ab 0eb9 741e 103c a857 80bd 17d9 be3c
000003e0: d383 6abd bfcb b2bd 10c5 70bd eeb3 0abd
000003f0: c78e 87bd 40ad b23a ffa9 4dbd f75b 073d

fc2.bias f4 [32]
-0.024479048 -0.08974964 -0.085097544 0.023544323 0.13679226 0.0065181744 0.045792677 -0.059790004
-0.060709447 0.030362388 0.029485721 -0.025695523 -0.12782729 0.04070601 -0.17555195 0.024447449
-0.060438044 0.06589009 -0.0068425834 -0.2157536 -0.053304885 -0.019533455 0.018232655 -0.28744468
-0.06671534 -0.040501624 -0.011044678 -0.10115778 0.022687353 0.049194954 0.01857756 -0.037071653
00000000: 4988 c8bc a9ce b7bd 9f47 aebd 06e0 c03c
00000010: 4513 0c3e 6996 d53b 1a91 3b3d 5de6 74bd
00000020: 78aa 78bd 8bba f83c 0a8c f13c 6b7f d2bc
00000030: 28e5 02be 58bb 263d e4c3 33be 0446 c83c
00000040: e28d 77bd 62f1 863d c037 e0bb 83ee 5cbe
00000050: 3956 5abd a004 a0bc a65c 953c f32b 93be
00000060: 0da2 88bd 08e5 25bd bdf4 34bc cf2b cfbd
00000070: d4da b93c a680 493d f82f 983c 72d8 17bd

fcn.weight f4 [4, 32]
0.12797299 -0.15116309 0.10870501 -0.030501535 -0.012987122 -0.010371575 0.2984689 0.10412011
-0.043540906 0.1895021 0.1609301 0.115026504 0.09669352 -0.09924455 0.03287455 0.009528067
0.11442996 -0.05224325 0.09045587 -0.17250569 -0.012325244 -0.1449126 0.11742785 0.08472561
0.08574668 -0.13107988 0.03191288 0.025612552 -0.06850961 0.013542265 -0.04727605 -0.07976563
-0.053226385 -0.09258015 0.0020971927 -0.06401375 0.42019904 0.013407749 -0.02181718 -0.039832212
-0.14458992 -0.036263503 -0.09233873 -0.015600758 0.22603846 0.0008154849 0.15586966 0.20192662
-0.035119355 -0.1401347 0.110200524 0.054804217 0.07424184 0.15873347 -0.13186796 0.026826382
0.005224543 -0.03042227 0.049514588 0.088125914 -0.15161449 0.038121954 0.047900856 0.06430799
0.08088971 0.035812795 0.036165524 -0.01659514 0.0366313 0.09170175 0.041172273 0.20604768
-0.10196151 0.09494193 0.020635746 -0.018582368 0.02004288 -0.04985109 -0.15871833 0.27375594
-0.05870512 0.02813301 -0.6175044 0.27827734 -0.11328919 0.05529654 0.020471161 0.14066446
0.090041794 0.15550281 -0.005442363 0.140318 0.033194877 -0.13458274 -0.16632544 -0.022879193
-0.05919834 0.07083793 -0.08800331 -0.10590367 -0.37115732 -0.075827114 0.025986489 0.08056745
0.013880789 -0.14685851 0.050279483 -0.10477228 0.024678934 0.07535198 0.3259207 -0.14676936
-0.03376112 -0.022812048 0.4064103 0.27984962 -0.09864173 0.105366305 -0.002509496 0.22012234
-0.026861047 -0.080338195 -0.11374185 -0.12925538 0.014249264 -0.004016295 -0.011422381 -0.050754577
00000000: 5a0b 033e 7fca 1abe bba0 de3d 5bde f9bc
00000010: f0c7 54bc 8aed 29bc ead0 983e ed3c d53d
00000020: f357 32bd d70c 423e dcca 243e 0493 eb3d
00000030: 4107 c63d ba40 cbbd 77a7 063d 9c1b 1c3c
00000040: 415a ea3d 05fd 55bd ed40 b93d 55a5 30be
00000050: d2ef 49bc f863 14be 037e f03d 9f84 ad3d
00000060: f59b af3d ce39 06be 14b7 023d 6ad1 d13c
00000070: c44e 8cbd 60e0 5d3c 88a4 41bd 2a5c a3bd
00000080: e903 5abd a99a bdbd 0e71 093b a419 83bd
00000090: 5424 d73e 2dac 5b3c f1b9 b2bc 1a27 23bd
000000a0: 610f 14be 0a89 14bd 171c bdbd 529a 7fbc
000000b0: a076 673e 44c6 553a 4c9c 1f3e dac5 4e3e
000000c0: 50d9 0fbd 797f 0fbe d0b0 e13d 637a 603d
000000d0: 1b0c 983d 078b 223e 6508 07be 00c3 db3c
000000e0: a532 ab3b 2038 f9bc cfcf 4a3d 5c7b b43d
000000f0: d440 1bbe c425 1c3d b033 443d e8b3 833d
00000100: 81a9 a53d 70b0 123d 4d22 143d 88f2 87bc
00000110: b40a 163d 21ce bb3d 42a4 283d 2afe 523e
00000120: 32d1 d0bd ea70 c23d 4c0c a93c 0d3a 98bc
00000130: f730 a43c a830 4cbd 0f87 22be bd29 8c3e
00000140: c874 70bd 3377 e63c c514 1ebf 5e7a 8e3e
00000150: 2a04 e8bd a07e 623d 23b3 a73c 580a 103e
00000160: d567 b83d 213c 1f3e da55 b2bb 86af 0f3e
00000170: 5af7 073d 0fd0 09be 3751 2abe 256d bbbc
00000180: f579 72bd 7a13 913d 143b b4bd 06e4 d8bd
00000190: 5508 bebe 3f4b 9bbd 9ee1 d43c 8c00 a53d
000001a0: 406c 633c 1462 16be dcf1 4d3d d992 d6bd
000001b0: 7a2b ca3c 2452 9a3d 14df a63e b54a 16be
000001c0: 1a49 0abd 55e0 babc 0315 d03e 7348 8f3e
000001d0: ad04 cabd 4aca d73d 5b76 24bb c067 613e
000001e0: b30b dcbc 5a88 a4bd 7df1 e8bd 865b 04be
000001f0: bf75 693c 209b 83bb f024 3bbc 08e4 4fbd

fcn.bias f4 [4]
-0.09851534 -0.069358505 0.09444499 -0.23341422
00000000: 69c2 c9bd d50b 8ebd 606c c13d 2304 6fbe
