modeloD6.pth (torch, 261970 bytes, 6 tensors)

layers.1.weight f4 [128, 256]
0	0x3d8ea340	0.06964731
1	0x3e20fc6e	0.15721294
2	0x3d487ebf	0.048949
3	0x3e4ad57e	0.19808003
4	0x3d8f452e	0.06995617
5	0x3e3b3eb4	0.18285638
6	0xbd4fd7f7	-0.05074307
7	0x3d964984	0.07338241
8	0x3d024ced	0.031811643
9	0x3e16d7f4	0.14730817
10	0x3d1e40cd	0.038636018
11	0x3e4144b3	0.18873863
12	0xbcf5ffc0	-0.030029178
13	0x3e0ff01f	0.14056443
14	0x3d61dbed	0.05514138
15	0x3e38ad02	0.18034747
16	0x3d8a570d	0.06754885
17	0x3e07a0e6	0.13244972
18	0x3d459223	0.04823507
19	0x3dc2d76c	0.09513745
20	0x3d0fbabf	0.035090204
21	0x3da1c3ee	0.07898699
22	0xbd2cd005	-0.04219057
23	0x3e57bc1f	0.21067856
24	0xbd1b403e	-0.037903063
25	0x3e058107	0.13037501
26	0x3d29e9ac	0.041482612
27	0x3deda3e8	0.11603528
28	0x3d515acf	0.051111992
29	0x3e095aa2	0.1341348
30	0x3d3e3bf4	0.046443895
31	0x3e28fd35	0.16502841
32	0xbb92a0b8	-0.0044747256
33	0x3e07b5f7	0.13253008
34	0xbd006089	-0.031342063
35	0x3de1e0a1	0.11029173
36	0x3d807ef3	0.06274214
37	0x3e3ba7d0	0.18325734
38	0xbcf8caff	-0.030370234
39	0x3dad2cec	0.08455834
40	0x3d80f645	0.06296972
41	0x3df1dcdf	0.11809706
42	0xbc5610df	-0.013065546
43	0x3e1ac3be	0.15113732
44	0xbc840331	-0.016114803
45	0x3e2ec99b	0.17069094
46	0x3d0a7f3a	0.03381274
47	0x3e440db6	0.19145855
48	0x3d462d14	0.048382834
49	0x3e246d7b	0.16057388
50	0x3d8e4128	0.06946021
51	0x3dd8b22c	0.105808586
52	0xb9959a1c	-0.00028534315
53	0x3e117d40	0.14207935
54	0x3d121482	0.03566409
55	0x3e3d5d20	0.18492556
56	0xbc7466ec	-0.014917117
57	0x3e112f69	0.14178242
58	0xbd22f30b	-0.039782565
59	0x3dca9447	0.09891563
60	0xbcaf8866	-0.021427345
61	0xbd0f53de	-0.03499209
62	0xbd6c65cc	-0.05771427
63	0xbd62e162	-0.055390723
64	0x3d06b9e1	0.03289211
65	0xbcb5f5db	-0.02221196
66	0x3d48f103	0.04905797
67	0xbd4d770e	-0.050162368
68	0xbbaea687	-0.00532991
69	0xbc92939d	-0.017892653
70	0x3c94ed21	0.018179478
71	0x3c025ebd	0.007957158
72	0x3cb265ba	0.021777023
73	0xbc80859c	-0.01568871
74	0xbd57fd9d	-0.0527321
75	0xbd939aff	-0.072072975
76	0x3cd29b8c	0.025708936
77	0xbb894bd4	-0.0041899476
78	0x3d46c4dc	0.048527583
79	0xbb9750f3	-0.004617804
80	0xbd351ae3	-0.044215094
81	0x3cf99b3d	0.030469531
82	0xbd3b3448	-0.045704156
83	0xbe6f5823	-0.23373465
84	0x3be6a837	0.0070390957
85	0xbbf85ab8	-0.007579174
86	0xbd1b4886	-0.03791096
87	0xbd9cbcc5	-0.076531924
88	0xbc50c69c	-0.012742665
89	0xbcf3b500	-0.029749393
90	0xbd1b4bd0	-0.037914097
91	0xbd84a984	-0.06477645
92	0xbd37d011	-0.044876162
93	0x3c667a14	0.014067192
94	0x3d7e752a	0.062123455
95	0x3c814182	0.015778307
96	0xbd579b06	-0.052638076
97	0xbbb160dc	-0.005413158
98	0x3ca8bb57	0.020597143
99	0xbd55db1e	-0.05221092
100	0xbd3b8224	-0.04577841
101	0xbc5233c0	-0.012829721
102	0x3ca56239	0.020188438
103	0xbc13c815	-0.009019871
104	0x3ccdf061	0.025139036
105	0xbda4f065	-0.08053664
106	0xbd3c6fd7	-0.046005096
107	0xbdb1cec6	-0.08682017
108	0xbcd2ed7b	-0.025748005
109	0xbd35a650	-0.04434806
110	0xbb3374f8	-0.0027382951
111	0xbcc4ff6e	-0.02404758
112	0xbd31e783	-0.043433677
113	0xbc90d848	-0.017681256
114	0x3d37ab78	0.04484126
115	0xbdaff8d0	-0.08592379
116	0xbc2a94b1	-0.010411427
117	0x3c829be9	0.015943484
118	0xbd57dfe7	-0.052703764
119	0xbd8eec70	-0.069786906
120	0x3d7ce287	0.06173947
121	0xbd817933	-0.06321945
122	0xbd846c9c	-0.06466028
123	0xbc9bed83	-0.019034153
124	0x3caaf466	0.020868491
125	0x3c82e501	0.015978338
126	0x3d780261	0.060549144
127	0xbd1df291	-0.038561407
128	0xbd11c6f2	-0.03559012
129	0xbd421340	-0.04738164
130	0x3cbd0929	0.023075657
131	0xbbcf2ab0	-0.0063222274
132	0x3d0a898e	0.03382259
133	0xbbe994cd	-0.007128334
134	0x3d100d2b	0.035168808
135	0x3c057186	0.008144742
136	0x3d8265a3	0.06367042
137	0xbdaa2674	-0.083081156
138	0xbd4ebcc9	-0.05047301
139	0xbb135175	-0.0022478972
140	0xbc959793	-0.018260753
141	0x3d1b9f21	0.037993554
142	0x3c829ea0	0.015944779
143	0x3cbdfaa9	0.023190813
144	0xbd275dd6	-0.040860973
145	0xbd272a26	-0.04081168
146	0xbce0ba6f	-0.027432648
147	0xbdace87b	-0.0844278
148	0xbd0c8631	-0.034307662
149	0x3ce91b9a	0.028455544
150	0x3d42d161	0.04756296
151	0x3c1aea49	0.009455272
152	0x3cf20ff7	0.029548628
153	0xbc74ab10	-0.014933363
154	0x3d00c2f2	0.031435914
155	0x3d0c9fec	0.0343322
156	0x3cb6a02a	0.022293169
157	0x3b20992b	0.0024505358
158	0xbcd52b6f	-0.026021687
159	0xba548454	-0.00081068766
160	0xbd4a19b4	-0.04934092
161	0xbd842743	-0.06452801
162	0xbc2772aa	-0.010220209
163	0x3ca2b275	0.019860486
164	0x3c8fa01a	0.017532397
165	0xbc8f4553	-0.017489111
166	0xbd33c725	-0.04389109
167	0xbcb35371	-0.021890374
168	0x3cd62316	0.026139777
169	0xbda30267	-0.079594426
170	0x3a94102f	0.0011296327
171	0xbcd7fb49	-0.02636494
172	0x3cab7dad	0.02093395
173	0xbd38d275	-0.045122582
174	0xbb563eea	-0.0032691308
175	0xbc92be50	-0.017913014
176	0xbcf66ff5	-0.030082682
177	0xbcead0e0	-0.028664052
178	0x3d8b15db	0.06791278
179	0xbcb8e318	-0.022569224
180	0xbcde8bfa	-0.027166355
181	0xbc81aef1	-0.015830489
182	0xbc2aeda0	-0.010432631
183	0x3e239a66	0.15976867
184	0x3c7d71f3	0.015469062
185	0x3e3a99b7	0.182227
186	0x3c1bfbac	0.0095204525
187	0x3e8116b2	0.25212628
188	0x3cb9d977	0.022686703
189	0x3e11900d	0.14215107
190	0x3d242b96	0.04008063
191	0x3e29ddc1	0.16588499
192	0xbd457f9b	-0.048217397
193	0x3e154a63	0.14579158
194	0xbbb1a3cd	-0.005421138
195	0x3dce61b4	0.10077229
196	0x3c899810	0.016796142
197	0x3e2fbd60	0.17162085
198	0xbc3dfd41	-0.011596025
199	0x3dc002ae	0.09375511
200	0xbd17e7f7	-0.037086453
201	0x3dbcf180	0.0922575
202	0xbd36e7eb	-0.044654768
203	0x3e4b0b2d	0.19828482
204	0x3d118bd1	0.03553373
205	0x3da4d7ac	0.08048949
206	0x3d011963	0.03151835
207	0x3eadf209	0.3397372
208	0xbca98252	-0.020692024
209	0x3e27c2a5	0.16382845
210	0x3d20440b	0.03912739
211	0x3d9eb1e9	0.077487774
212	0xbd1e67ae	-0.038673095
213	0x3db07347	0.086157374
214	0xbd00d6e8	-0.03145495
215	0x3e2791bc	0.16364187
216	0xbd4ed79a	-0.050498582
217	0x3e0f2776	0.13979897
218	0xbd1ce008	-0.03829959
219	0x3dd88575	0.1057233
220	0xbd5083b9	-0.05090687
221	0x3e11b205	0.14228065
222	0xbd030551	-0.031987492
223	0x3dfa51d4	0.12222639
224	0x3cb0ceaf	0.02158293
225	0x3dcad96b	0.099047504
226	0xbc6f14eb	-0.01459239
227	0x3d93d050	0.07217467
228	0x3b0065e6	0.0019591986
229	0x3e2acbc5	0.16679294
230	0xbcb6ce50	-0.022315174
231	0x3da482c7	0.08032756
232	0xbd4c6d37	-0.049908843
233	0x3e177cb2	0.14793661
234	0xbd318de0	-0.043348193
235	0x3dfedd74	0.124445826
236	0x3d0985d1	0.033574883
237	0x3e050430	0.12989879
238	0x3c81ba2f	0.01583585
239	0x3e389c55	0.18028386
240	0x3d4841d4	0.048890904
241	0x3e319a46	0.17344007
242	0x3d37f8e1	0.044915084
243	0x3db36383	0.08759215
244	0xbc82d69f	-0.01597148
245	0x3d560e53	0.052259754
246	0x3d0e4ce1	0.034741286
247	0x3d86deef	0.0658549
248	0x3c0dbc58	0.008650862
249	0xbd91cfc5	-0.07119707
250	0xbd30e112	-0.043183394
251	0x3c146c8c	0.009059083
252	0xbd83657c	-0.06415841
253	0x3c9e1e2f	0.019301502
254	0x3d7c26e4	0.061560526
255	0x3dad24a7	0.084542565

layers.1.bias f4 [128]
0	0xbcfcafd5	-0.030845562
1	0x3d8c504f	0.06851255
2	0xbb710185	-0.0036774587
3	0xbc66330b	-0.0140502555
4	0x3bf26fe3	0.007398592
5	0xbca88f62	-0.020576183
6	0xbb8d37a3	-0.004309611
7	0x3d1979bf	0.03746962
8	0x3db89622	0.090130106
9	0x3ccbccb9	0.024877893
10	0xbd9030a5	-0.07040528
11	0x3b1a30a1	0.002352752
12	0xbd0374ee	-0.032093935
13	0xbbac530b	-0.005258923
14	0xbc73847f	-0.0148631325
15	0x3d3b8499	0.04578075
16	0xbdd7ff28	-0.10546714
17	0xbda04f7f	-0.07827663
18	0xbd0dd2ce	-0.034624867
19	0x3d46c98f	0.048532065
20	0x3dad828d	0.08472166
21	0x3d1555f6	0.036458932
22	0xbd11ba4a	-0.03557805
23	0xbcb347ba	-0.021884788
24	0x3cbaf5b8	0.022822246
25	0xbd7f0bfc	-0.06226729
26	0xbdbc8958	-0.09205884
27	0xbcfe5547	-0.031046523
28	0xbc6f8efe	-0.014621494
29	0xbdb86b17	-0.09004801
30	0x3c95b698	0.018275544
31	0x3d7e9b54	0.06215985
32	0x3c0168b7	0.007898501
33	0x3daa4ecf	0.08315813
34	0xbb8343ca	-0.004005884
35	0xbba14477	-0.0049214917
36	0x3d9beae1	0.07613159
37	0xbd3408dc	-0.04395376
38	0xbc68dae6	-0.014212346
39	0xbd175462	-0.036945708
40	0xbd09ddef	-0.033658918
41	0xbcbb4382	-0.022859339
42	0x3cba9b21	0.02277905
43	0xbccdd3ca	-0.025125403
44	0x3db0e1df	0.086368315
45	0x3b36cebd	0.0027894222
46	0xbd964343	-0.07337048
47	0xbb981a26	-0.004641789
48	0x3d18826d	0.03723376
49	0xbd1b914a	-0.037980355
50	0x3c80ae6b	0.015708169
51	0x3c8f9a69	0.017529683
52	0x3d571d7c	0.052518353
53	0x3d37ea47	0.04490116
54	0x3bbb0385	0.0057072067
55	0x3d8b67b8	0.06806892
56	0x3ce96f91	0.028495582
57	0xbb148e96	-0.0022667996
58	0xbd584cb7	-0.052807536
59	0xbbd0144c	-0.006350076
60	0xbd412275	-0.047152
61	0x3d4c6d12	0.049908705
62	0xbc2c2feb	-0.010509471
63	0x3cc4eb5f	0.024038015
64	0x3d890c45	0.06691793
65	0xbd8f33c1	-0.06992293
66	0x3d7f021b	0.062257867
67	0xbcdd30fb	-0.027000895
68	0x3d1b2f77	0.037887063
69	0x3d10ef90	0.035384715
70	0xbd01eff1	-0.031722967
71	0x3d064b7e	0.03278684
72	0xbd65492b	-0.05597798
73	0x3d1bbf2c	0.038024113
74	0xbc889cee	-0.016676392
75	0x3cae0695	0.021243373
76	0x3c59b1c8	0.013287015
77	0xbd8b4158	-0.06799573
78	0xbd9a13af	-0.075232856
79	0xbcabc18d	-0.020966316
80	0xbc1983e6	-0.009369826
81	0xbd227cc1	-0.039669756
82	0x3d8505dd	0.06495259
83	0x3dbdf0c8	0.09274441
84	0x3d4ceedb	0.050032478
85	0xbd18301c	-0.037155256
86	0xbdc0ab87	-0.09407716
87	0x3d35cc1c	0.044384107
88	0x3b054133	0.0020333051
89	0xbc08eb2e	-0.008356852
90	0x3c1a3db9	0.00941413
91	0x3dde21bf	0.1084628
92	0x3cdcb413	0.026941335
93	0xbd63db3d	-0.055629004
94	0x3da76394	0.0817329
95	0xbcfe5487	-0.031046165
96	0xbce9e171	-0.028549882
97	0x3c379277	0.0112043535
98	0xbda89217	-0.082309894
99	0x3d43ce6e	0.04780429
100	0x3d5a3e5d	0.05328213
101	0x3d0c9881	0.034325127
102	0xbd435ea5	-0.047697682
103	0x3d37f87b	0.044914704
104	0x3d24c38d	0.040225554
105	0xbd1a14b3	-0.037617397
106	0xbd4a6acd	-0.04941826
107	0xbcd0790f	-0.02544835
108	0x3c82cc73	0.01596663
109	0xbd8057a8	-0.06266719
110	0x3cf0ebfb	0.0294094
111	0x3d869027	0.06570464
112	0x3cbca24c	0.023026608
113	0xbd0ecd72	-0.034863897
114	0x3d89781c	0.06712362
115	0x3da8f3be	0.08249615
116	0xbc8494ff	-0.016184328
117	0x3a8b70e1	0.0010638499
118	0xbc9e81be	-0.019348975
119	0xbd4e6ece	-0.05039864
120	0xbd9adacb	-0.07561263
121	0x3dc5742a	0.09641297
122	0xbd408099	-0.04699764
123	0xbd70331a	-0.058642484
124	0xbdb77ed3	-0.08959737
125	0x3c475da1	0.012168319
126	0xbd75cef7	-0.06001183
127	0xbb5b06e5	-0.0033420858

layers.2.weight f4 [240, 128]
0	0x3d6c6bf2	0.057720132
1	0x3d9884d0	0.07447207
2	0xbc83b0b0	-0.016075462
3	0xbd229931	-0.039696876
4	0x3d763c0f	0.06011587
5	0x3c8d3f60	0.017242134
6	0x3c902387	0.017595066
7	0x3cbac827	0.022800518
8	0x3d6d67ac	0.057960197
9	0xbca15394	-0.019693173
10	0x3d1f2173	0.03885026
11	0x3c154241	0.009110034
12	0xbd9f1bc9	-0.077689715
13	0x3d1d628b	0.038424056
14	0xbd4c519e	-0.049882524
15	0x3c8e1f65	0.017348954
16	0xbd65373b	-0.055960875
17	0xbcd3edca	-0.025870223
18	0x3cb29f37	0.021804435
19	0x3b80a5f4	0.003926033
20	0xba6fcc4c	-0.0009147569
21	0x3c3e79fa	0.011625761
22	0x3d023047	0.031784322
23	0xbd0b3758	-0.033988327
24	0xbd570c90	-0.052502215
25	0xbd9a0b41	-0.07521678
26	0xbd20865a	-0.039190628
27	0x3c997bd8	0.018735811
28	0x3d5c881a	0.053840734
29	0x3cc9f69a	0.024653722
30	0xbd811a3f	-0.06303834
31	0x3bbf6e87	0.0058420333
32	0xbd8e9761	-0.06962467
33	0x3d678064	0.056518927
34	0xbc0d4925	-0.008623396
35	0xbcc2d895	-0.023784915
36	0x3dc5fb98	0.09667128
37	0xbae838f2	-0.0017717166
38	0xbcae722a	-0.021294672
39	0x3d2cf5be	0.042226546
40	0x3c2665b0	0.01015608
41	0xbbfebd16	-0.0077740056
42	0x3d8526ca	0.06501539
43	0x3d2e6cfc	0.042584404
44	0xbc0d0534	-0.008607198
45	0x3c7930a2	0.015209349
46	0x3d5754ce	0.05257111
47	0x3b9773ac	0.0046219435
48	0x3d2ddf27	0.042449143
49	0x3d036f81	0.03208876
50	0xbc5f633e	-0.013634501
51	0x3cc4eba3	0.024038142
52	0x3d0a0880	0.033699512
53	0x3c206c20	0.009791404
54	0xbd5f69d9	-0.054544304
55	0x3d882858	0.0664832
56	0xbd9c0f2b	-0.076200806
57	0xbc47dbb4	-0.012198377
58	0xbcc9bf02	-0.024627212
59	0x3ba435f4	0.0050113145
60	0xbcb19e3b	-0.021681895
61	0xbcd30d26	-0.025763106
62	0x39dfbc50	0.00042674178
63	0x3c873690	0.01650551
64	0x3be034de	0.0068422398
65	0xbd0e5c1c	-0.03475581
66	0xbd8535ce	-0.06504403
67	0xbb58f509	-0.0033105037
68	0x3cb212f9	0.021737562
69	0x3cde7e1f	0.027159749
70	0xbd029b6e	-0.03188651
71	0xbcb5cd3e	-0.022192594
72	0x3da26335	0.079290785
73	0x3d845a4f	0.064625375
74	0x3cb5dbc4	0.022199519
75	0xbb0a9fe0	-0.0021152422
76	0xbd92a01f	-0.07159447
77	0xbca6f942	-0.020382527
78	0x3d6af956	0.05736669
79	0x3d604450	0.054752648
80	0xbd3b878b	-0.04578356
81	0x3d5f710b	0.054551166
82	0xbda20bd9	-0.07912416
83	0xbce9dace	-0.028546717
84	0xbd3a331a	-0.04545889
85	0xbd6db286	-0.05803158
86	0x3d9c102f	0.07620274
87	0xbde6ca6c	-0.11269078
88	0xbcd5be40	-0.026091695
89	0xbad6b94c	-0.0016382127
90	0xbcc15017	-0.02359776
91	0xbdb0c201	-0.08630753
92	0x3d3d32f3	0.046191167
93	0xbcbe8277	-0.02325557
94	0x3c048dce	0.0080904495
95	0x3cecd752	0.028911266
96	0xbcbef645	-0.02331079
97	0x3d8dfc90	0.06932938
98	0x3cf74def	0.030188529
99	0x3cfe6681	0.031054737
100	0xbd94f673	-0.07273569
101	0x3c64a67e	0.01395571
102	0xbd4062f8	-0.046969384
103	0x3d401965	0.046899218
104	0xbdc1b1bc	-0.09457728
105	0xbc54bb2b	-0.012984077
106	0xbcf1045b	-0.029421022
107	0x3d6e32e8	0.058154017
108	0x3d15fa79	0.036615822
109	0xbd05656a	-0.03256742
110	0xbb69cbeb	-0.0035674523
111	0xbcd1b4e8	-0.025598958
112	0xbcacef03	-0.021110063
113	0x3cf4ce0a	0.029883403
114	0xbca18245	-0.019715438
115	0xbb9ee819	-0.0048494455
116	0xbbf36b2e	-0.0074285483
117	0xbd352680	-0.04422617
118	0x3b5b5eda	0.0033473284
119	0x3c120106	0.008911377
120	0x3d842a73	0.06453409
121	0x3d3b1018	0.045669645
122	0x3dc6defb	0.09710499
123	0xbdcc82ea	-0.099859074
124	0xbd2407fb	-0.040046673
125	0xbd52c236	-0.051454745
126	0xbd0c2de7	-0.034223463
127	0xbd63a1da	-0.055574276
128	0x3d162d79	0.03666446
129	0xbcbf9d50	-0.023390442
130	0x3d388d34	0.045056537
131	0x3d68aa6f	0.056803163
132	0xbd2d1cc5	-0.042263765
133	0xbce6064b	-0.028079173
134	0xbd438902	-0.047738083
135	0xbc24a752	-0.010049658
136	0x3d89f30f	0.06735813
137	0x3d74234b	0.05960397
138	0xbdbfe1e6	-0.093692586
139	0xbcf97fb1	-0.030456396
140	0x3d1125dc	0.035436496
141	0xbccb0cfc	-0.024786465
142	0x3d9ca06e	0.07647787
143	0x3d0452d7	0.032305565
144	0x3d939697	0.07206457
145	0x3cbd9eab	0.023146948
146	0xbc0dd08e	-0.00865568
147	0xbd355002	-0.044265755
148	0x3d94aa7e	0.07259081
149	0xbcb0898e	-0.021549966
150	0x3d1f37e9	0.03887168
151	0x3d748eef	0.059706625
152	0x3d10e7e6	0.035377406
153	0xbda30c7e	-0.07961367
154	0x3dd19a5c	0.1023452
155	0xbd468054	-0.048462227
156	0xbd03f6bc	-0.032217726
157	0xbd0a8e3c	-0.03382705
158	0x3d6bdcce	0.057583623
159	0xbc16e74e	-0.009210421
160	0x3d213acc	0.039362714
161	0xbd8596fe	-0.0652294
162	0xbc09b92a	-0.008405963
163	0xbc0f0790	-0.00872983
164	0xbda600ef	-0.08105647
165	0xbd40f50a	-0.047108687
166	0xbd046488	-0.032322437
167	0x3cfa0e6d	0.030524457
168	0x3d61a8fc	0.055092797
169	0x3d6f77ec	0.058463976
170	0x3d375ddd	0.04476725
171	0x3d919de7	0.071101956
172	0xbd77bef3	-0.060484838
173	0xbd4dbff1	-0.050231878
174	0x3d9c9483	0.07645514
175	0x3d354e58	0.044264168
176	0x3cd6d985	0.026226768
177	0x3d826396	0.06366651
178	0xb80c9350	-3.3515797e-05
179	0xbcc08d88	-0.023504987
180	0x3dc4ae66	0.09603576
181	0xbd86887f	-0.06569003
182	0x3d5a0c6b	0.0532345
183	0x3d83c1de	0.064334616
184	0x3cbede01	0.02329922
185	0xbcfbe1e7	-0.030747367
186	0x3c584218	0.013199352
187	0xbd4eec29	-0.05051819
188	0x3c91037c	0.017701857
189	0xbc2345a2	-0.009965332
190	0xbccf3198	-0.025292203
191	0x3d9916ba	0.07475038
192	0xbcac9c37	-0.021070583
193	0xbcfca412	-0.030839954
194	0xbd33a424	-0.04385771
195	0x3d3a0999	0.04541931
196	0x3d8108b8	0.06300491
197	0xbd0d16c6	-0.034445547
198	0x3ce617fa	0.028087605
199	0xbd2740e9	-0.040833388
200	0xbbf8c13d	-0.007591395
201	0x3d6b08dc	0.057381496
202	0x3cb31293	0.021859443
203	0x3c82e4e0	0.015978277
204	0x3cf0e00a	0.029403705
205	0xbba578d4	-0.005049804
206	0xbd6849c6	-0.05671098
207	0xbd2a1d13	-0.041531634
208	0xbc00240f	-0.007821097
209	0x3d36c571	0.04462189
210	0xbcfa667b	-0.030566445
211	0x3d20799f	0.039178487
212	0xbbc4766c	-0.0059955623
213	0xbe0f8c37	-0.14018331
214	0x3d5c3954	0.05376561
215	0x3bf2b00e	0.0074062413
216	0x3cea6692	0.028613362
217	0xbc91fe1e	-0.017821368
218	0x3c9058b9	0.017620431
219	0xbc5e64f0	-0.01357387
220	0xbd1754b0	-0.036946
221	0xbd8ffbfe	-0.070304856
222	0x3c50fa45	0.012754981
223	0x3ce370f3	0.02776382
224	0x3cada1d9	0.021195339
225	0x3cd2196a	0.025646884
226	0xbb9d656f	-0.0048033516
227	0x3b8ff455	0.0043931403
228	0x3bfbf68f	0.007689304
229	0xb7ff84e8	-3.0460258e-05
230	0xbdd4672a	-0.103712395
231	0x3afaa870	0.0019123685
232	0x3bd7930c	0.0065788087
233	0x3c0d4506	0.0086224135
234	0xbd948728	-0.072523415
235	0x3d6230fa	0.05522249
236	0xbda3572f	-0.07975613
237	0xbd8fe380	-0.07025814
238	0xb93274a6	-0.00017018858
239	0x3ce110b3	0.027473783
240	0x3cfb2c46	0.03066076
241	0xbcb36faa	-0.021903832
242	0xb906c968	-0.00012854266
243	0xbd6e1496	-0.0581251
244	0xbd9388b5	-0.07203809
245	0xbb9493f8	-0.004534241
246	0x3c162839	0.009164863
247	0xbd03f824	-0.032219067
248	0xbdc2fe48	-0.095211565
249	0xbca11f7e	-0.019668337
250	0x3ccaac78	0.024740443
251	0xbcff3b91	-0.031156333
252	0xbb1aba25	-0.0023609486
253	0x3d05c2de	0.032656543
254	0xbd42718a	-0.04747156
255	0xbdabc1db	-0.08386584

layers.2.bias f4 [240]
0	0xbd7dc84e	-0.061958604
1	0x3d1e22ca	0.038607396
2	0xbc786527	-0.015160835
3	0xbbf4b2d0	-0.007467605
4	0xbdb69388	-0.08914858
5	0xbd9f40fe	-0.07776068
6	0x3c2e8070	0.010650739
7	0xbd7ca938	-0.061684817
8	0x3da69fdf	0.08135962
9	0xbd09f6ea	-0.03368274
10	0xbda88ce9	-0.082300015
11	0xbd850608	-0.06495291
12	0x3cbb8e3c	0.022894971
13	0x3d358db3	0.044324588
14	0x3cb41312	0.02198175
15	0x3b826b42	0.0039800713
16	0x3d9b1172	0.07571687
17	0x3d4e1072	0.050308652
18	0x3d897f36	0.06713717
19	0xbcf02480	-0.02931428
20	0xbd3320cd	-0.043732453
21	0xbcd427ac	-0.025897823
22	0xbc45e129	-0.012077608
23	0xbd5258e1	-0.051354293
24	0xbd90ef57	-0.070769005
25	0x39d85165	0.00041259374
26	0xbd99941e	-0.07498954
27	0x3d2947f7	0.041328397
28	0x3d454287	0.04815915
29	0x3ddafb33	0.10692444
30	0xbceb98ea	-0.028759439
31	0xbca86417	-0.020555539
32	0x3ddbb8bc	0.10728595
33	0xbd0c01c4	-0.03418137
34	0xbd4cb320	-0.049975514
35	0x3d72719e	0.059190385
36	0xbcbbfbc7	-0.022947205
37	0x3d94576a	0.072432354
38	0xbd7e2596	-0.062047563
39	0x3d64a385	0.055820007
40	0x3da5b01b	0.0809023
41	0xbb8e65c8	-0.0043456294
42	0xbd62ea2d	-0.05539911
43	0x3d4b7e64	0.049681082
44	0x3d88ce9f	0.06680035
45	0xbd2fb75e	-0.042899482
46	0x3dd12b36	0.1021332
47	0xbd136906	-0.03598883
48	0xbc81d615	-0.015849153
49	0xbd6ff37a	-0.058581807
50	0xbdca09ed	-0.098651744
51	0x3c3bdf65	0.011466836
52	0x3d415246	0.047197603
53	0x3d5dae0e	0.05412107
54	0x3d9f4ceb	0.07778343
55	0xbd282fb0	-0.041061103
56	0x3ca3f86b	0.020015916
57	0xbdb29547	-0.08719879
58	0xbcc469d9	-0.023976253
59	0x3aa7c1bf	0.001279883
60	0x3d3e6a13	0.04648788
61	0xbd5ec54c	-0.054387376
62	0x3c8f235e	0.01747292
63	0x3d7f8d6b	0.062390726
64	0xbd455d7d	-0.04818486
65	0xbd481ecc	-0.048857495
66	0xbdaf44eb	-0.08558067
67	0xbd86564d	-0.06559429
68	0x3c63fbc2	0.013915004
69	0xbd8dbdfe	-0.06921004
70	0xbcff2d01	-0.03114939
71	0x3da344ce	0.07972108
72	0x3cc67512	0.024225745
73	0x3b2eea96	0.0026690117
74	0xbdc7caef	-0.097555034
75	0xbd22183c	-0.039573893
76	0x3dbeb05f	0.09310984
77	0x3ce22326	0.02760465
78	0xbd8d3827	-0.06895476
79	0x3b0d1d31	0.0021532292
80	0xbd7171a0	-0.058946252
81	0x3be6e0a9	0.0070458245
82	0xbd468d12	-0.04847438
83	0x3d857b72	0.06517686
84	0x3d5f277d	0.05448102
85	0x3d476e9c	0.04868947
86	0xbda5f5f2	-0.08103551
87	0xbd989780	-0.07450771
88	0x3d22a4a4	0.039707795
89	0x3d62ab15	0.055338938
90	0x3db37c5f	0.08763956
91	0xbcb1bbd7	-0.021696014
92	0x3ba22d87	0.004949275
93	0xbd3ef86f	-0.046623643
94	0x3c700c13	0.014651316
95	0xbd4010e7	-0.04689112
96	0xbd44cfb4	-0.048049644
97	0xbc537107	-0.012905366
98	0xbd897462	-0.067116514
99	0xbd939940	-0.072069645
100	0x3af0ec63	0.0018380996
101	0x3d12004c	0.035644814
102	0x3bbb652a	0.005718847
103	0x3d6ae575	0.057347734
104	0xbd3981af	-0.04528969
105	0xbb02dab5	-0.0019966785
106	0xbd8328b1	-0.06404246
107	0x3c2df21c	0.010616805
108	0xbd81bbf0	-0.06334674
109	0xbd4edc38	-0.050502986
110	0x3b644588	0.0034831483
111	0x3c0d0f77	0.008609644
112	0xbd702d1f	-0.05863678
113	0x3d8442af	0.064580314
114	0x3d1068c6	0.03525617
115	0xbdc858fc	-0.097825974
116	0x3d571fc4	0.05252053
117	0x3d23fd75	0.040036637
118	0x3c107428	0.008816756
119	0xbd3ad74d	-0.045615483
120	0xbdaa2525	-0.08307866
121	0x3da5e4f8	0.08100313
122	0xbdbb032e	-0.09131466
123	0x3d94afa6	0.07260065
124	0x3d815769	0.063155
125	0x3dd7c700	0.10536003
126	0xbda4c4e6	-0.08045368
127	0x3d6a26a2	0.05716575
128	0x3d92f611	0.0717584
129	0xbd83ce45	-0.06435827
130	0xbd32e1e7	-0.04367247
131	0x3d2d879e	0.042365663
132	0x3d8373ec	0.06418595
133	0x3ca1848a	0.01971652
134	0xbd84dd42	-0.06487514
135	0xbd5011dc	-0.050798282
136	0x3d7592fd	0.059954632
137	0xbd154a86	-0.036448024
138	0xbd91ca4b	-0.071186624
139	0x3d1933a3	0.03740276
140	0x3afbce3d	0.0019211244
141	0x3d932b6e	0.07186018
142	0xbce184b8	-0.027529106
143	0x3c63e3b0	0.013909265
144	0xbccb95aa	-0.024851639
145	0x3d9637d6	0.073348686
146	0xbd2bc702	-0.041937836
147	0x3d8134cb	0.063088976
148	0xbd275c4a	-0.040859498
149	0x3cda26a9	0.026629763
150	0xbd45d774	-0.048301175
151	0xbd1cdce4	-0.038296595
152	0xbc44ebb8	-0.01201909
153	0x3d83d560	0.064371824
154	0xbd44eae9	-0.04807559
155	0xbd5f62ff	-0.05453777
156	0xbd801c2c	-0.06255373
157	0xbd8db350	-0.06918967
158	0xbd7cc163	-0.061707865
159	0xbd7b7a4a	-0.06139592
160	0x3b6f8066	0.0036545037
161	0x3cf1f027	0.029533459
162	0xbc0baec9	-0.008525559
163	0xbd1e8604	-0.038702026
164	0x3d914768	0.07093698
165	0x3d8cd2ff	0.06876182
166	0x3c2e13ba	0.01062482
167	0x3d2fd849	0.042930875
168	0x3d618784	0.05506088
169	0x3d354d3a	0.044263102
170	0x3ceda3ae	0.029008713
171	0x3d222893	0.039589476
172	0x3cbad462	0.02280635
173	0x3cba770f	0.02276185
174	0xbdb16e94	-0.08663669
175	0x3d996008	0.0748902
176	0x3ca7dc65	0.020490834
177	0x3dc15ae5	0.09441165
178	0x3d1862f9	0.037203763
179	0xbb884dd7	-0.00415967
180	0x3d7885d2	0.060674496
181	0xbd69d5a5	-0.057088513
182	0x3c7066e8	0.014672972
183	0x3a590314	0.0008278352
184	0x3cedb3bc	0.029016368
185	0xbb0dcd64	-0.0021637315
186	0x3bd6b245	0.006552013
187	0x3d128edc	0.035780773
188	0xbd010e24	-0.031507626
189	0xbd7736b3	-0.0603549
190	0x3d29792f	0.041375335
191	0x3d3c2848	0.045936853
192	0x3dab9e02	0.08379747
193	0xbd144b5d	-0.036204685
194	0x3d162642	0.03665758
195	0x3d8c44f4	0.06849089
196	0xbd709e82	-0.058744915
197	0x3d06e518	0.032933325
198	0x3a97b7d6	0.0011575173
199	0x3cfd77d9	0.030940937
200	0xbd488c3f	-0.048961874
201	0x3d9a6cdb	0.07540294
202	0xbcfc4d21	-0.030798497
203	0x3c3d2ca6	0.01154629
204	0x3cf35739	0.029704677
205	0x3b867784	0.004103603
206	0x3d46b319	0.048510645
207	0xbd74acea	-0.059735216
208	0x3d2b013a	0.041749217
209	0x3ca3b734	0.019984819
210	0xbd2fbd05	-0.042904872
211	0x3d2a580b	0.04158787
212	0x3c1e616e	0.009666784
213	0x3d8af568	0.06785089
214	0x3da6257f	0.081126206
215	0x3d2c224a	0.042024888
216	0xbd695832	-0.056968875
217	0x3b43a508	0.0029853005
218	0xb9a9b634	-0.00032369944
219	0x3cfe4720	0.031039774
220	0x3d4f6a73	0.050638627
221	0xbd53235f	-0.051547404
222	0xbcb68943	-0.022282248
223	0xbd20f909	-0.0393
224	0xbcc2f45d	-0.023798162
225	0x3d48c3dc	0.04901491
226	0xbd633a52	-0.05547554
227	0x3c2daebd	0.010600743
228	0xbbf998d2	-0.0076170946
229	0xbd765e91	-0.06014878
230	0x39d3bf79	0.00040387714
231	0xbdb479df	-0.088123076
232	0xbd380500	-0.044926643
233	0x3ccf69c8	0.025318995
234	0x3dc1c936	0.09462206
235	0x3dceed7a	0.10103889
236	0xbda8906a	-0.0823067
237	0x3d5f5ff5	0.05453487
238	0xbc6b296c	-0.014353137
239	0xbd90d186	-0.070712134

layers.3.weight f4 [4, 240]
0	0xba99b553	-0.0011727012
1	0xbb04a632	-0.0020240662
2	0x39d0baa9	0.00039811924
3	0xbcdd0d4e	-0.026983883
4	0x3d828df5	0.063747324
5	0xbd1605cd	-0.036626626
6	0xbbb01aeb	-0.0053743026
7	0x3ba75bac	0.0051073637
8	0xbb5729f1	-0.0032831396
9	0x3d090afe	0.03345775
10	0x3bbb4f38	0.0057162307
11	0xbccf9056	-0.02533738
12	0x3bb8ae48	0.0056360103
13	0x3d2b973f	0.041892286
14	0xbb744ec6	-0.0037278398
15	0xbd19340f	-0.037403163
16	0x3d8a2e0e	0.067470655
17	0x3a08fc2c	0.0005225565
18	0x3ca28037	0.019836528
19	0x3c93ee93	0.018058097
20	0xbc97a0bd	-0.018509263
21	0x3b0bca10	0.0021330155
22	0xbcdb3900	-0.026760578
23	0xbd068496	-0.032841288
24	0xbab9f388	-0.0014186958
25	0x3a606658	0.0008560172
26	0x3d909619	0.07059879
27	0x3bd24443	0.006416829
28	0xb8b8bf4b	-8.809435e-05
29	0xbd426102	-0.047455795
30	0x3b1fec8c	0.0024402468
31	0xbc91328d	-0.0177243
32	0xbb1c6da1	-0.0023869055
33	0x3b465294	0.0030261623
34	0xbd411414	-0.04713829
35	0xbd753dcf	-0.0598734
36	0xbcfb2075	-0.030655125
37	0xbc94195c	-0.018078499
38	0x3b5a9ed3	0.0033358827
39	0x3a4de36c	0.0007854018
40	0xbb3d34e2	-0.0028870632
41	0x3cab7a59	0.020932363
42	0xbc0f4b89	-0.008746036
43	0x3c9e5f5d	0.019332582
44	0xbb07c090	-0.0020714141
45	0x3ce9a195	0.028519431
46	0xbc19f904	-0.009397749
47	0xbc90b430	-0.017664045
48	0xbc97b64b	-0.018519541
49	0x3cbd3741	0.023097636
50	0x3c04790e	0.008085502
51	0xb9e81a95	-0.00044270293
52	0x3d83712b	0.064180695
53	0xbcf42ec1	-0.02980745
54	0x3ca1417a	0.019684542
55	0x3d9c8ff3	0.07644644
56	0xba832430	-0.0010005292
57	0x3d870502	0.06592752
58	0x3d1c97e2	0.038230784
59	0xb9ccdfef	-0.00039076756
60	0xbc552e04	-0.013011459
61	0x3d08f669	0.03343812
62	0x3c4ffaee	0.012694104
63	0xbcb8cdfc	-0.022559159
64	0xbb9d3a04	-0.0047981758
65	0x3b147dd7	0.0022658014
66	0x3d5570c9	0.052109513
67	0x3ce80605	0.028323183
68	0x3adbd21f	0.0016770995
69	0x3d114d25	0.03547396
70	0xb8baad87	-8.901493e-05
71	0x3d6ffb10	0.05858904
72	0x3ccc90c7	0.024971379
73	0xbcaeaf72	-0.021323893
74	0x3c1855ab	0.009297769
75	0x3d751ef4	0.059843972
76	0xbb06e42f	-0.0020582785
77	0x3b0f80b4	0.0021896781
78	0x3d8caa5d	0.06868432
79	0x3d2506d3	0.04028971
80	0x3a6e25aa	0.0009084592
81	0x3d187d95	0.03722914
82	0xbc8158b8	-0.015789375
83	0xbab9c6cd	-0.0014173627
84	0x3c56cad4	0.013109881
85	0xbd3ee352	-0.04660351
86	0x3b6a8abf	0.0035788266
87	0xbd7120f3	-0.058869313
88	0x3a7021b1	0.0009160294
89	0xbb242226	-0.0025044768
90	0xbd4ffea1	-0.050779942
91	0x3ad6863a	0.0016366907
92	0xbbaaec3d	-0.00521615
93	0xbd924e87	-0.07143884
94	0x3d276cf0	0.040875375
95	0xbd34a0fd	-0.044098843
96	0xbc97cbf3	-0.018529868
97	0xb9647d5a	-0.00021790472
98	0x3b703094	0.0036650049
99	0x3c287fbe	0.010284362
100	0xba43ffeb	-0.00074767944
101	0xbab292cd	-0.0013624072
102	0xbc67ec72	-0.014155494
103	0xbaae25c3	-0.00132864
104	0x3a141d35	0.0005650104
105	0x3a8e08bd	0.0010836344
106	0x3a575d77	0.00082155265
107	0x3cd6cc8c	0.026220582
108	0xbc9ad419	-0.018899964
109	0x3cd9460b	0.026522657
110	0xbc65bbe8	-0.014021851
111	0x3d5016af	0.050802883
112	0xbcb99f0d	-0.02265885
113	0xbd1d24cf	-0.03836518
114	0x3bcb6963	0.0062076314
115	0x3d2ef065	0.042709727
116	0xbabb3d18	-0.0014285175
117	0xbd044ffa	-0.032302834
118	0x3d2801a3	0.041017186
119	0x3b2928de	0.0025811712
120	0x3cd727d9	0.026264118
121	0xbd006857	-0.031349506
122	0xbae672f9	-0.0017581872
123	0xbcff8bf8	-0.031194672
124	0xb949b88c	-0.00019237603
125	0x3a9693e9	0.0011488172
126	0x3c1329cc	0.008982133
127	0xbd832520	-0.064035654
128	0x3a3daa47	0.0007235151
129	0x3b9b85d0	0.0047461763
130	0xb9c76d19	-0.00038037522
131	0xba7771da	-0.00094392675
132	0xbce7849b	-0.028261473
133	0xba72f310	-0.00092677865
134	0xbd1a4e99	-0.037672613
135	0x3b858664	0.0040748585
136	0x3d12d272	0.035845228
137	0x3cd4f8d7	0.025997562
138	0x3c067835	0.0082073705
139	0xbc54ac62	-0.012980552
140	0x3ad13a95	0.0015962893
141	0x3bc7e165	0.006099867
142	0x399070f6	0.00027549983
143	0x3c389607	0.011266238
144	0x3bf5be27	0.0074994746
145	0xbd6e2ba2	-0.05814708
146	0xbd15a101	-0.0365305
147	0xbcdf8edb	-0.027289798
148	0xbcb5fff9	-0.022216784
149	0xbba26035	-0.0049553164
150	0xbd089ffd	-0.0333557
151	0xbd3e4a19	-0.046457384
152	0x39b4ad8e	0.00034461584
153	0xbd3f3674	-0.04668279
154	0xbc3ed9f7	-0.011648647
155	0x3da808aa	0.082047775
156	0xbd60f7ba	-0.05492375
157	0xbd3d7759	-0.046256397
158	0x3a80be0b	0.0009822262
159	0x3a39d612	0.0007089089
160	0xb9c67a8e	-0.00037856813
161	0x3cb504dc	0.022097044
162	0x3a179142	0.0005781838
163	0x3943ffed	0.00018691989
164	0xbb007ea9	-0.0019606745
165	0x3c1b3f28	0.009475507
166	0x39db0306	0.00041773188
167	0xba6f9a65	-0.0009140133
168	0xba390902	-0.0007058532
169	0x3cf7ac6d	0.030233586
170	0x3a2c6cf4	0.00065775146
171	0xbd7ff1ce	-0.062486462
172	0xb8c02f7c	-9.164118e-05
173	0x3a4857be	0.0007642469
174	0x3b6045cd	0.0034221292
175	0x3cf5ec89	0.030020015
176	0xbab9eafa	-0.0014184408
177	0xbcf8f547	-0.030390395
178	0x3af2ab4d	0.0018514186
179	0x3a6f79e8	0.0009135292
180	0x3d3b4ebb	0.04572938
181	0xbd4b6aaf	-0.04966229
182	0xbae979ab	-0.0017812749
183	0xbbf9542a	-0.00760891
184	0x3b0cfa56	0.0021511517
185	0xbcad7ad9	-0.021176742
186	0x3d9dbca9	0.07702
187	0x3a4d136a	0.00078230223
188	0xb931dc69	-0.00016962145
189	0x39b02487	0.0003359655
190	0xba4501ec	-0.000751524
191	0xbc82e910	-0.015980273
192	0x3d70d536	0.058797084
193	0x3d270f4e	0.04078608
194	0x37e33d6c	2.708911e-05
195	0xbcda8aff	-0.026677607
196	0xb9cf51a8	-0.00039542955
197	0xb7c6a064	-2.3678127e-05
198	0xbab2f3c7	-0.0013652974
199	0x3d2e6de7	0.04258528
200	0x3b4177b0	0.0029520802
201	0x3d8d8af0	0.06911266
202	0xba382a96	-0.0007025389
203	0x3af598c1	0.0018737541
204	0xbc56f9f0	-0.013121113
205	0xbbe536a8	-0.006995041
206	0xba543322	-0.00080947776
207	0x3a70cd7d	0.00091858936
208	0xbd3210af	-0.043472942
209	0x39dee1be	0.0004251133
210	0xbc3c32b2	-0.011486696
211	0xbb011274	-0.0019694837
212	0x3c957aab	0.01824697
213	0x3d791412	0.060810156
214	0xbd2e1588	-0.042501003
215	0xbc4b53dc	-0.01241013
216	0xbd477c74	-0.048702672
217	0xbbb7024a	-0.0055849897
218	0xbb8346a0	-0.004006222
219	0x3ad57a53	0.0016287066
220	0x3d353f37	0.04424974
221	0xbc2d53e5	-0.010579084
222	0xb8b84024	-8.785751e-05
223	0x3a360805	0.0006943944
224	0x3ba695f3	0.0050837933
225	0x3b0b1ea1	0.0021227973
226	0x3ae4ed33	0.001746571
227	0xbd204779	-0.03913066
228	0xbba50707	-0.005036238
229	0xbd726981	-0.059182648
230	0xba83f534	-0.0010067583
231	0x3c39a8ed	0.011331779
232	0x3bff14f8	0.007784482
233	0x3882da1e	6.2395105e-05
234	0xbd5ac3fc	-0.05340956
235	0xbb95d118	-0.004572045
236	0xbd4fb97d	-0.050714005
237	0xbacad396	-0.0015474434
238	0xbb1db158	-0.0024062004
239	0xbae31671	-0.0017325414
240	0x3b5a514a	0.0033312612
241	0x3b0c6bdb	0.0021426592
242	0xbbb388ba	-0.0054789456
243	0x3a1d0e62	0.0005991218
244	0x3d7afbfc	0.061275467
245	0x3d46801c	0.04846202
246	0xbd201ce3	-0.03909005
247	0x3d542b36	0.05179902
248	0xbd100280	-0.035158634
249	0x3d972efc	0.073820084
250	0x3c1c9854	0.009557802
251	0x3cbe6bad	0.023244703
252	0xbc4567ad	-0.012048644
253	0x3c9a4ae0	0.018834531
254	0xbc8e9b60	-0.017408073
255	0xbd5063d9	-0.050876472

layers.3.bias f4 [4]
0	0xbcea21e1	-0.028580608
1	0xbd638c8f	-0.05555397
2	0x3d9ffdbb	0.07812067
3	0xbc542b47	-0.012949771
