modeloD2.pth (torch, 270482 bytes, 6 tensors)

layers.1.weight f4 [128, 256]
00000000: 1f80 22bd 1d88 47bc 8b3d 7d3d dda9 e5bd
00000010: ecd1 bbbc d53a 233b 0802 2a3c 8f04 a4bd
00000020: f68c 943d caf4 393c aba1 3bbc 9837 9ebd
00000030: 3ca0 b8bc 7436 48bd 954b c7bc f2fd 50bd
00000040: c506 0bbd a856 f5bc ef39 723d 7a31 bebd
00000050: edf2 12bd c09b 92bb 780a f63c 6213 52bd
00000060: 8cc3 8b3d 8fcf 91bc 137e 80bc 8fa1 46bd
00000070: a1f8 30bc 5ec1 87bc 4086 25bd b0b3 ddbb
00000080: 2cd4 a53d ff3c 86b7 3774 14bd eea2 36bd
00000090: 28bf 953d 23f3 1fbd c030 18bd 4964 94bd
000000a0: a0c5 01bd 7ef9 393b ec30 fb3b 9ed7 2ebd
000000b0: 0651 5c3d dbf0 a4bc 683a 89bc 1ca4 66bd
000000c0: 4e5a 973d eae3 57bd 5a67 183d 5363 61bd
000000d0: f32d 563d a224 81bd a4ae 1dbd 5b83 a0bc
000000e0: 9d6f 0e3d 66f5 72bd 522e 7abc 5bd3 8dbd
000000f0: d490 f3bc be4b 093d 713f e5b8 29a7 593c
00000100: 9fa8 b5bc a849 4bbc 7c86 2d3d 329c 093d
00000110: cd38 133d 2949 ef3b 6c2b 23bd dca4 d7bc
00000120: 229f 4c3c 5ca9 523d 9ac0 af3c 930f 813d
00000130: 8ef4 64bd 7154 c0bb 54c4 283d 2e50 4c3d
00000140: e44b b0bb 2fef b03c 12af 13bc 74fd b1bd
00000150: 3ebc 2d3d 362a 6f3d bdc8 4abd 6f65 323c
00000160: 2010 0b3c 694e 803d 4d55 18bd 52a0 cbb9
00000170: 80c7 623d 2271 6c3c 9830 623c c262 0c3d
00000180: f511 6b3d 60bc 68bc 8945 6f3d 40b3 873d
00000190: d7eb 62bd cfa2 443b 7379 e4bc e694 44bd
000001a0: 6f03 0fbd 08bc 0a3d 7fa1 53bd 738c b33c
000001b0: c2c7 2abd 9e2b 0e3d 91a3 cabb 0586 1aba
000001c0: d638 7ebd 288d e2bb 3a41 3f3d afd5 763d
000001d0: 0de2 c1ba c38f 283d 7396 84bc 6ad3 4fbd
000001e0: 628d 2e3d 4002 12bd 4390 1a3d a498 0bbd
000001f0: 5a6b 613c bd70 02bd 2933 123c 72c5 1e3d
00000200: bb62 62bd 53b7 c53b 8a43 60bd 97fb 53bd
00000210: 3844 45bd 483a f8bc 98a5 cb3b 4828 f73b
00000220: a94f 273b ca2d 283c fef5 593b 0d38 26bd
00000230: 52cd d2bc d138 073d 1bb0 2c3c cf62 533d
00000240: e3a1 33bd 253f f1ba 8c62 90bc f1bf 483d
00000250: 8120 dabc 8258 e7bc 72a9 7c3d ebd8 b13b
00000260: cbde 023d 06db 13bd c981 5e3d 1d75 7a3d
00000270: 55d3 e0bc 46bf 383b 1146 c73c 4a5e 97bc
00000280: 3c1e 883d 7b73 f53c 2cc9 983c 7e4a 723c
00000290: 95f8 8fbd b3c5 e23a de97 2e3a 1104 1d3d
000002a0: 3850 84bd 9ddc 713d 7099 47bc 7eff 1abd
000002b0: 0f6a f3bb 5b1e b5bb 1fee 4a3d 6ceb c93b
000002c0: 2b9b 3abd 9a74 1abd 9631 a93c 6578 ffbc
000002d0: e06f 2f3b 797b 8d3c b018 bb3a 8ef5 eabc
000002e0: 45ae 8ebc ea20 49bc cba2 0f3d 303d d4bd
000002f0: 4516 2abd e57f 48bd 5a13 413c 2770 4ebd
00000300: 48f0 2d3c a45c 1dbd cbfa 4dbd aa12 a1bd
00000310: 4e91 afbc 73b5 bb3c c214 3fbd 8602 6e3c
00000320: 9f27 873d c7cf fdbc 84af ebbc ddc3 90bc
00000330: f687 bfbc a81c f5bc abe5 063d 0dbb d4bd
00000340: 9d21 50bc dc61 c43b 7122 483d f168 7cbd
00000350: 2d60 ebbc 20f8 803c f3e9 d3bc 6ab0 27bd
00000360: 3f92 36bd dafa 3ebc bf94 d53c bb8c 99bd
00000370: bf30 613d 2fbf 97bd 58af 273d afa7 f6bc
00000380: 160a 3b3d 3496 76bd d1a3 323c 6eed 41bc
00000390: 98bb 4fbd 0c23 6ebd ad35 c93c 7d7a c5bd
000003a0: 34dc f83b 373e 363c be0c 07bd e334 a6bc
000003b0: 136f d6bc e409 f1bc 2280 3dbd b6af dbbd
000003c0: afea 6a3d ed94 bdbc bc04 10bd 59e2 32bd
000003d0: 3040 87bc 2ef5 2c3b fd2b 0abd 0b4b 723d
000003e0: 02c7 61bd 58fd 7f3c dba0 503d ca63 0938
000003f0: 7f04 5ebd d68b 943c 000f 823c fbfd e33c
-0.039672967 -0.012178448 0.06182627 -0.112140395 -0.022927247 0.0024906893 0.010376461 -0.08008682
0.07253449 0.011349866 -0.011452119 -0.077254474 -0.022537343 -0.048880056 -0.024328033 -0.05102343
-0.033942003 -0.029948547 0.05913728 -0.09286781 -0.035876203 -0.0044741333 0.030034289 -0.051288016
0.06824407 -0.017799167 -0.015685117 -0.048493918 -0.010801465 -0.016571697 -0.040411234 -0.006765805
0.08097109 -1.6002448e-05 -0.036243644 -0.044588976 0.07311851 -0.039050233 -0.037155867 -0.072456904
-0.03168261 0.0028377469 0.007665744 -0.042686097 0.053788207 -0.02013438 -0.016751483 -0.05630885
0.07390271 -0.05270759 0.03720794 -0.055026364 0.052289914 -0.06305815 -0.03849663 -0.019593885
0.03477441 -0.05931606 -0.015269833 -0.069250785 -0.029732145 0.0335195 -0.00010931388 0.013284483
-0.022175131 -0.012407698 0.042364582 0.033596225 0.03594284 0.0073024225 -0.039836332 -0.026323728
0.012489112 0.051431045 0.021454144 0.06301799 -0.055897288 -0.005869441 0.041202858 0.049881153
-0.0053801406 0.021598427 -0.009013908 -0.086909205 0.04241585 0.058389865 -0.049507845 0.0108884415
0.008487731 0.062649556 -0.037190724 -0.00038838625 0.05536604 0.01443127 0.013805531 0.03427387
0.057390172 -0.014205068 0.058415923 0.06625986 -0.055400696 0.0030004268 -0.027889943 -0.047993563
-0.034915384 0.033870727 -0.051667687 0.021917557 -0.04169441 0.034709565 -0.0061840494 -0.0005894604
-0.06206592 -0.0069138 0.046693064 0.06026238 -0.00147921 0.041152727 -0.016185021 -0.05073873
0.042615302 -0.035646677 0.037735235 -0.034081116 0.013758505 -0.031845797 0.00892333 0.038762517
-0.055269938 0.006033817 -0.05475191 -0.051753607 -0.04816076 -0.030301228 0.0062148087 0.0075426437
0.002552966 0.010264823 0.0033258195 -0.040580798 -0.02573267 0.03301317 0.010540034 0.051607903
-0.04385556 -0.0018405659 -0.017625116 0.049011175 -0.026626827 -0.028240446 0.061685033 0.00542747
0.031950753 -0.03609755 0.05432299 0.061146844 -0.027444521 0.002819018 0.024325402 -0.018477578
0.06646392 0.029962292 0.018650614 0.014788268 -0.07029835 0.0017301351 0.0006660203 0.038333956
-0.06460613 0.059048284 -0.012182578 -0.037841313 -0.0074284147 -0.0055273003 0.049543496 0.0061620977
-0.045558136 -0.037708856 0.020653527 -0.031185338 0.0026769564 0.01727079 0.0014274325 -0.028681543
-0.017417083 -0.012275914 0.03506736 -0.10363233 -0.041525144 -0.048950095 0.011784399 -0.050399926
0.01061637 -0.038418427 -0.050288003 -0.07864888 -0.021431591 0.02291367 -0.046650656 0.014526969
0.06599354 -0.030982865 -0.028770216 -0.01767152 -0.02338026 -0.02992089 0.032933872 -0.103872396
-0.0127033265 0.005993111 0.04886097 -0.061623517 -0.028732384 0.015743315 -0.025868392 -0.040939726
-0.044573065 -0.011656487 0.026071904 -0.07497545 0.05497813 -0.07409512 0.040938705 -0.030109255
0.045663916 -0.06020184 0.010903315 -0.011836393 -0.050716013 -0.058138892 0.024561727 -0.096425034
0.0075946096 0.011123232 -0.032971136 -0.02028889 -0.026176011 -0.029423662 -0.046264775 -0.107268736
0.057352718 -0.023142302 -0.035160765 -0.043672893 -0.0165101 0.0026391256 -0.033733357 0.059153598
-0.05512143 0.015624367 0.050934654 3.275628e-05 -0.054203507 0.018133085 0.015876293 0.027831068

layers.1.bias f4 [128]
00000000: 4108 f63b bac9 dfbc a069 26bd a5d1 703d
00000010: 5899 c43c 84be 993c 7e0e 28bd 5424 5fba
00000020: 8891 afbc 56eb f13c 9af5 9dba d9cc 1a3c
00000030: ddef 8c3d 7b74 30bb 5bc2 a03c 2905 803c
00000040: d953 25bd 5bd3 563d c7d9 493d 0eb6 97bd
00000050: 88f5 23bd 54af 823d 4cb8 bfbd f698 2ebd
00000060: 7b84 023d 7dc1 1b3d 72b0 ea3c bd3b a73d
00000070: 282b 34ba af16 953d 3bcc cc3d 14f3 2ebd
00000080: 88f2 65bd 0721 873d a70f e4bb d915 21b9
00000090: 3574 7f3d 5438 7a3c f746 98bc b90a 9f3c
000000a0: 298f 853c b0c9 be3c 8c7d 83bc 0785 0dbd
000000b0: 1eea b43b cd33 4ebd e15f 083d 3140 8e3a
000000c0: 3ecd 2a3d 6aa0 223c c0e4 eab9 2bf7 883c
000000d0: 8bef 073d 86fb 5bbd d674 243d 2b19 0ebd
000000e0: bee1 063d 26d8 c73c 4186 31bd f77b 343d
000000f0: 1225 c4bb 784d 273b 9175 dfbb 8e94 2b3d
00000100: c3d0 4439 2fb6 7c3b 29ac 19bd 7a55 833d
00000110: a586 d1bb 506b a8bd ba88 fdbb fa0f 823b
00000120: 333f 1abd 606f 143c 417e 943a a129 313d
00000130: 1f92 823d 8272 323d b8f1 d3b9 6cb5 e73c
00000140: a4e0 2cbd e75e c2bb 78c6 b2bd c681 ddbc
00000150: 16c0 d0bb 9dbd a13d 71fe efbc 4eed 04bc
00000160: f4c9 8a3a 1f18 5cbc 60e4 77bd 7afe 593d
00000170: bc7c 8d3d e0d5 883d 2b7f 4fbc 89a3 103c
00000180: eee3 423d dfd2 fcbc 2f14 cc3c f776 623d
00000190: 4ff3 c13d fbab db3c 065f 68bc 87d6 1ebd
000001a0: 7dbc cbbc 5bd3 3abd 9061 523d 6740 86bc
000001b0: 18a8 c0bb 1ae8 ff3c 880d db3c f0be 5d3d
000001c0: 1b0a a83d ce04 593d 5c61 c13b 8154 c73d
000001d0: 4676 a4bc 64be f93a 9c7e 513d 6689 14bb
000001e0: 3310 103d ad34 633d a9b9 223d 4572 26bd
000001f0: c2e1 c0bc 7b49 85bc 2f66 2dbd 83a9 7b3d
0.007508308 -0.02731787 -0.040628076 0.058793683 0.023998901 0.018767603 -0.041029446 -0.0008512188
-0.0214317 0.029531162 -0.0012051344 0.009448254 0.06881688 -0.0026924897 0.019623926 0.01562746
-0.040363166 0.052447658 0.049279954 -0.07407771 -0.04002908 0.063810974 -0.09361324 -0.042626344
0.031864624 0.03802632 0.028648589 0.08165691 -0.0006872886 0.07279717 0.09999891 -0.042712286
-0.0561395 0.06598096 -0.0069598737 -0.00015362295 0.062366683 0.015272219 -0.018588526 0.019414293
0.016303616 0.023289531 -0.016051076 -0.034550693 0.005521073 -0.05034237 0.033294562 0.0010852871
0.04169964 0.009925941 -0.0004480239 0.016719421 0.03318743 -0.05370667 0.040150486 -0.03469197
0.03293013 0.02439506 -0.043340925 0.044063535 -0.0059858644 0.0025528353 -0.006819435 0.04188972
0.00018769786 0.0038560738 -0.0375177 0.06412788 -0.0063942247 -0.08223593 -0.0077372463 0.0039691897
-0.037657928 0.009059757 0.001132913 0.04325259 0.06375527 0.043566234 -0.0004042515 0.02828475
-0.04220642 -0.0059317234 -0.08729261 -0.02703942 -0.0063705547 0.07897494 -0.029296132 -0.0081132185
0.0010588751 -0.013433485 -0.06052053 0.053221203 0.06908557 0.066814184 -0.012664597 0.008828052
0.047580652 -0.03086227 0.024911968 0.055289235 0.094702356 0.026815405 -0.014182812 -0.038778808
-0.024870152 -0.04561172 0.051362574 -0.016388131 -0.0058794133 0.031238604 0.02673985 0.05413717
0.082050525 0.052983098 0.0059014987 0.09732915 -0.020075928 0.0019053933 0.051146135 -0.0022664904
0.0351717 0.055470157 0.03972784 -0.04063632 -0.02354515 -0.01627039 -0.042333778 0.061440956

layers.2.weight f4 [256, 128]
00000000: bf8f 493d 90a5 12bd 5832 3bbd 2f70 95bd
00000010: c836 2d3b d3b7 3c3d 6e61 d93c d1db 17bd
00000020: f974 a53d 1183 1c3d 108c 073d a3d3 2bbd
00000030: 2420 ae3d fe9e 1abd 3dc9 b2bc 535e 69bc
00000040: 7327 9b3c 7691 a4bd 7282 a7bd 3c26 1f3d
00000050: 83be 083b 09ff 7bbd 428d 83bc 2da7 a2bd
00000060: 8cd9 f73c 1596 ad3d 86ee 983d 30f1 9b3c
00000070: ad2c 693d 2139 bebd f24f a9bd ea64 6dbd
00000080: 61e9 693c 2cae 393d 8269 bdbb 8c3d e53d
00000090: 0208 8cbd f7b5 923d 62e4 a0bd b2e8 3ebd
000000a0: a493 7bbd fefd 54bd 2f37 913d e3ec 9d3d
000000b0: 2bb4 9abd e899 283c 79bc 1ebd b3ba 26bd
000000c0: e29b 363c 2194 35bd 7077 0e3d d3f0 8dba
000000d0: 00b4 46bd 2ebd 3bbd d1a2 0f3d d6aa 30bd
000000e0: aa8b 8f3d 3b4e 34bd 2422 933d 6e90 913d
000000f0: ee2c 8abd 8c4c 043d c6ae 94bd afa3 60bd
00000100: e2a8 14ba 68c3 a63c cb85 9fbd 23f3 fb3c
00000110: aee3 23bd 2d5f 9ebc 5cc9 023d 5009 a5bc
00000120: 2a2a 85bd 5e33 91bd 63e2 9dbd 6cd6 693d
00000130: 3209 29bd 71e1 b2bc bad7 a63d 335c 80bd
00000140: 3c1b 1e3d ffb0 6d3d 9524 adbd 5c53 0cbd
00000150: ee3f 963b a5f1 853d bb90 07bd 9f6e ae3d
00000160: 61d9 c53d a721 77bd dfac 7abd df74 4b3d
00000170: c0c6 1c3d a0ba 17bd 3af1 643d 7e28 a8bd
00000180: 76c3 a9bc 8290 7b3d 72ca 7ebd 372c 8b3c
00000190: 7f93 083c 7a8f 23bd 260c e2bc 0043 44bc
000001a0: 26ab 0f3d d8c3 0e3c faad fb3c ea8d a6bb
000001b0: 88db c2bb 929f 823b 3208 933d b022 483d
000001c0: d237 523d d5ad 823d 37dc 303d bd2b e23b
000001d0: d4ad 5b3d 7907 ee3c f2ec 463d fb87 bb3c
000001e0: e5b9 89bd 6a9d 163d 9f76 db3c 5068 83bd
000001f0: 5020 84bd 94df 61bc 8065 b33d 9f9e c3bd
00000200: 7023 52bc ac89 7cbd 7044 c4bc 16a9 9f3b
00000210: 9591 663c 3f40 323c 2aa1 b73d d791 293d
00000220: 1fae c5bd 6750 7ebc 6987 f13c 5999 99bd
00000230: ebe1 84bd ebda 32bd 3fff e03d c02b fe3c
00000240: 2525 9d3d ad5e 3a3c a7e8 b53b 76ea 23bd
00000250: 7a05 88bc 6573 c53d 535a 6cbd 711d e8bc
00000260: 65d2 4dbd 7c27 b93d 6d21 b63c e035 c83c
00000270: 727a 823d e562 37be a3cc c03c 060c a1bd
00000280: cc15 2ebd 8754 73bd 81fb 29bb 2773 6cbc
00000290: 53f7 87bd ed76 08bc 72cd 64bd 9bdd f0bc
000002a0: a2fe 2f3c eef9 ae3d d44d c4bd 8396 8bbd
000002b0: 357d 1d3d cfe6 713d d3bf 31be 2fd7 103d
000002c0: 4b95 8b3c 526c 33bd 213c cc3b b297 26bd
000002d0: 2139 1cbc 2267 993d 8696 41bd 680c 833d
000002e0: 3083 113d 10d7 ac3c 336d 20bd d0b6 37bd
000002f0: da61 153d 87d2 0d3d fe5d 94bc 330b 6d3d
00000300: 9d7b 86bd aa32 863c 4d10 c63d 6d5b 253d
00000310: b4ac 8e3d 0efd 83bd f22a 0e3d c05d a43c
00000320: ea51 723c 2f06 6cbd 44bc 7c3c cd2a f23c
00000330: 6156 42bd 092c 80bc 18e8 98bd 7c50 2abc
00000340: 7a83 9abd 7f19 113d 1d8c a53b 809a 8c3d
00000350: b7ee 8b3d 83b6 10bd fb7f 913d e54b b33d
00000360: 51ad 773d 63fa 9e3d ef39 a23d d2c0 f4bd
00000370: 1c71 dd3c caa2 5a3d 6e6e 473d 5888 a5bd
00000380: 956a 82bd 7675 3cbd 9d5b 2f3d c9dc c93d
00000390: 1dc6 aabd 1ed6 313d c61d a33d 508a 0e3d
000003a0: 696a b9bd a416 0dbc 38fd 9f3b 42c3 dd3b
000003b0: b256 513c 292f d3bb 2222 013d bfa9 acbd
000003c0: 4f15 fabc 8986 9f3c 2896 53bd 4904 b7bd
000003d0: d422 1f3c f37b c3bb 4328 a6bd 5dc1 b53c
000003e0: 8014 6abd 8168 5f3c 7bbf 563d a7d7 b7bd
000003f0: 88dd a03d 6903 b23d bba5 59bd 9827 ab3d
0.049209353 -0.035802424 -0.04570231 -0.07296788 0.0026430357 0.046073746 0.026535716 -0.037074868
0.080789514 0.038210932 0.03309256 -0.04194988 0.08502224 -0.037749283 -0.021824474 -0.01424368
0.01893971 -0.08035557 -0.08179177 0.038854823 0.0020865507 -0.061522517 -0.016058568 -0.079420425
0.030255102 0.084758915 0.0746737 0.019035906 0.05692737 -0.0928824 -0.082672015 -0.057957567
0.014276833 0.04533212 -0.0057804 0.1119338 -0.06837465 0.07163613 -0.078560606 -0.046608634
-0.061420098 -0.05200004 0.070906036 0.07711198 -0.075538956 0.0102906 -0.03875396 -0.040705394
0.011145564 -0.04433072 0.034781873 -0.0010829217 -0.048511505 -0.045834713 0.035067383 -0.04313167
0.07009061 -0.04401992 0.07184246 0.07107626 -0.06746851 0.032299563 -0.07259898 -0.0548436
-0.00056709175 0.020356849 -0.07789191 0.030755585 -0.040012054 -0.019332493 0.031930313 -0.020146042
-0.06502183 -0.07089876 -0.077091955 0.057089254 -0.041268535 -0.021836014 0.08146615 -0.062675856
0.03860019 0.058030125 -0.08454243 -0.034259185 0.0045852577 0.06540231 -0.03309701 0.08517193
0.09660602 -0.060334828 -0.06120002 0.049672004 0.03827548 -0.037043214 0.055894114 -0.08210848
-0.020723086 0.06141711 -0.062204786 0.016988857 0.008335947 -0.03993175 -0.027593683 -0.011978865
0.03507533 0.008713685 0.030722607 -0.0050828354 -0.0059465803 0.0039863074 0.071792975 0.048861206
0.051322766 0.06380812 0.043178763 0.0069021867 0.053632572 0.029056298 0.048565812 0.022891989
-0.0672491 0.036771215 0.026789961 -0.064163804 -0.064514756 -0.013786215 0.08759594 -0.09551739
-0.012825832 -0.06165473 -0.023958415 0.0048724515 0.014072795 0.010879575 0.089662865 0.04139885
-0.096523516 -0.015522099 0.029483514 -0.07499952 -0.06488403 -0.043665808 0.10986184 0.031026721
0.076731004 0.0113751115 0.005551416 -0.04001852 -0.016604174 0.096411504 -0.057703327 -0.028334351
-0.050249476 0.09040734 0.022232736 0.024439752 0.06371011 -0.17908819 0.023535078 -0.078636214
-0.042501256 -0.059406783 -0.0025937262 -0.014431751 -0.0663897 -0.008329135 -0.05585999 -0.029402545
0.010741862 0.08543764 -0.09585157 -0.06815817 0.038449485 0.059058007 -0.17358331 0.035361465
0.017038962 -0.043804474 0.006232754 -0.04067201 -0.009535105 0.07490374 -0.04726269 0.06398851
0.0355255 0.021098644 -0.03916664 -0.044852078 0.03647027 0.034624603 -0.018111225 0.05787201
-0.06566546 0.01638158 0.09671078 0.040370394 0.06966534 -0.06444751 0.034708925 0.020064235
0.014790038 -0.057623085 0.015425745 0.029561425 -0.04744566 -0.015645998 -0.07466143 -0.0103951655
-0.075446084 0.035424706 0.005052103 0.06865406 0.068326406 -0.035330307 0.071044885 0.0875471
0.06046802 0.07762601 0.07921206 -0.1195084 0.027031474 0.053377904 0.0486893 -0.08082646
-0.06367985 -0.046010457 0.04281198 0.098565646 -0.08338568 0.04341709 0.07964663 0.034799874
-0.09053499 -0.008611355 0.004882481 0.0067676613 0.012777017 -0.006444831 0.031526692 -0.08430814
-0.030527739 0.019473331 -0.051656872 -0.08936364 0.0097128935 -0.0059657036 -0.08113148 0.02218693
-0.057148457 0.0136357555 0.052428704 -0.08976679 0.07854754 0.08692057 -0.05313657 0.08357161

layers.2.bias f4 [256]
00000000: 26a3 5ebd 2661 c9bc e07e f63b f1ca 5dbc
00000010: 187c 87bd 6b97 bfbb 02a2 55bd d30b 5e3d
00000020: d7ee 14bd 38b0 123d 99e2 1a3d c572 fe3c
00000030: b0fb 9ebd d39f 58bd 591b 8ebd 4b61 27bd
00000040: 534a a63c 112e acbd de80 bdbc 02a5 a63c
00000050: 03f6 683d 27fd 9c3d fd1b 4bbd 30a1 a63d
00000060: ee94 10bc 8fe3 1f3d 1aba 74bc e1ed c0bd
00000070: 9ebf 9bbd 22d5 483d 7c20 9a3d d6ab 28bd
00000080: f3c1 463d 9615 6a3d 24dd fb3c da7b 18bb
00000090: 696f 7d3d 3a64 73bc eaf6 86bb 504d 84bd
000000a0: d776 4abd 6550 943d 6070 8e3c ce1d 93bd
000000b0: 9b1e 793d ce17 83bc 1317 373d 3cb3 d9bc
000000c0: ded0 363d ff79 4dbd 38bf bb3c 5000 80bc
000000d0: 54c4 2bbd 33f1 75bd 7a0d 9fbd 9951 8abb
000000e0: a9c5 9a3c 7183 34bc 6631 5e3d 9950 49bd
000000f0: 285d af3d 1406 713d 45d5 a63d 6003 81bd
00000100: 07d2 febb e338 2d3b 6750 8bbd afd6 1dbd
00000110: 3534 4bbd bfcb 4bbd 6645 9a3c 1375 68bd
00000120: 1147 c5bc 5857 a1bc 4b8d fd3c d0ce 5dbd
00000130: cf77 7d3d 4fc9 e5bc 67a2 9b3c ec68 933d
00000140: d917 87bd 640d a9bd ffab 173c 6c6b fdbc
00000150: 354a 3dbd 295a 2f3d a9b1 6f3c b0df 943b
00000160: 9d31 203d 34c3 76bd 5501 d9bb d420 89bc
00000170: 4550 793b a9e8 3abc 6c44 9b3d 84e9 1f3d
00000180: c932 d83c 6e9d bcbd 4914 a1bb 603e 0ebd
00000190: 0e3a 3e3c 80bc 2a3d 4683 82bd 9d19 bebc
000001a0: 3fc3 943c d11f 843d 4eff 81bc 727c f9bb
000001b0: bc04 b53a e4aa 063d f51e 8d3d 3efe d03c
000001c0: 636c 9abd cbc1 b6bc 5df1 d73b f149 7dbd
000001d0: 29ce c0bd 4e86 7d3d 859b 2bbc 92dd 79bc
000001e0: 3a6c e33c 7382 f2bc 2c96 88bd db68 bdbd
000001f0: a278 34bd dac2 723d acf9 c5bd a59c 2dbd
00000200: 7b75 df3c 9be7 b9bd b37f cdbd 5def 90bc
00000210: 9951 86bd eb12 84bd 5fb3 3abd e043 d3bc
00000220: fbde 2fbd a490 3abd 0576 bfbd c00b 263c
00000230: 7e7e 32bd c43d 5f3c e874 73bd 16fd 963d
00000240: 1e5d 0f3c 29dc 093d 3669 c43c 56b3 b5bd
00000250: 557b 483c 663f 08bd 537c 193d 79fd d6bc
00000260: 4557 823d 40be b5bd e416 ccbc 5def 853d
00000270: aca9 8d3d 51fd a83d 97e4 e1bc 17b0 c6bb
00000280: f67c db3c 2b2d 943d e0c9 383d a382 233d
00000290: 8e29 9d3d d190 7fbd a814 83bb ad00 3b3c
000002a0: 5a57 8b3d 5234 43bd 2d69 8f3d 3a90 96bc
000002b0: 9f24 82bd 7b8a 45bd cd6a 82bd a1c4 6dbd
000002c0: b0f7 b0bd 0fa7 4cbc 1f4d a73c 860f 2a3d
000002d0: 7afe 9fbd 45bc 8a3c 0beb 50bd 2e3f af3d
000002e0: 62b7 283b 0bdb 123d 177f 793d 8935 bfbb
000002f0: 9d53 8f3c df7f 86bd 7e7c 93bd 0171 373d
00000300: 18f2 61bc ad64 8dbd 940e 88bd 85a9 c73c
00000310: b3c5 80bd 5be5 3ebc 6bcc 1cbd 1d05 fa3c
00000320: b9b7 45bd 66be 273c 7fbd 98bd b221 44bd
00000330: 228f 45bc 110b 94bd 5f9b aabd 9747 983d
00000340: 1a9b ad3d 2497 f53c 48ce 55bc 9388 533d
00000350: 46f2 a3bd 8b50 bc3d 6eb6 933d 1e9d adbd
00000360: 0dee 75bc 6410 933d 94f2 7f3d fd3b 23bd
00000370: 126c a73c e5a3 04bd e9e7 533d 92ef 93bb
00000380: bc7d 903d c86f 51bd 2eed 4cbc 0cbe 3b3d
00000390: 92ee c8bc d9e4 ccbb 3f69 93bd cc9f 76bc
000003a0: 939a 5c3d e386 ae3d dba3 063d 389a 983d
000003b0: 7285 693d c616 5b3d d788 693d 9770 c5bd
000003c0: df63 8abd 5291 8f3d 6c0f b13c 3727 5bbc
000003d0: b05f 0b3c 7086 0f3d f230 953d 285a 24bd
000003e0: 0cc6 3abd f471 59bc 9765 8a3d 3f5c 03bd
000003f0: 5417 4e3d 9f74 5abd d9a5 ae3c 24da 96bd
-0.05435481 -0.024582457 0.007522449 -0.0135371545 -0.06615466 -0.005846908 -0.052156456 0.054210495
-0.036360588 0.035812587 0.037813757 0.031060586 -0.07762849 -0.052886795 -0.0693881 -0.04086427
0.020299112 -0.08407224 -0.023132738 0.020342354 0.05687524 0.076654725 -0.04958724 0.08136213
-0.00882457 0.039035376 -0.014936948 -0.09420372 -0.076049075 0.049031384 0.07525727 -0.0411795
0.04852481 0.057149492 0.030745097 -0.002326718 0.061873827 -0.014855439 -0.00411879 -0.06460059
-0.04942974 0.072418965 0.017387569 -0.07183419 0.060820203 -0.016002562 0.04469974 -0.026574723
0.044632785 -0.050165173 0.022918329 -0.015625149 -0.04193528 -0.06004448 -0.07766242 -0.004221153
0.01889308 -0.011017666 0.05424633 -0.04914913 0.0856269 0.058843687 0.08146147 -0.06299472
-0.007776502 0.0026431612 -0.06802445 -0.038534816 -0.049610335 -0.049754854 0.01883192 -0.056752276
-0.024081739 -0.019694969 0.030951163 -0.05415231 0.061881837 -0.028050093 0.018998338 0.07197747
-0.065963455 -0.08254507 0.009257316 -0.030935012 -0.046213347 0.042810593 0.01462976 0.004543267
0.039109815 -0.060244754 -0.0066224732 -0.016739286 0.003804223 -0.01140801 0.0758141 0.039041057
0.026391404 -0.09209715 -0.0049157483 -0.034727454 0.011610521 0.041683674 -0.06372695 -0.023205573
0.018159507 0.06451381 -0.01586881 -0.007613712 0.0013810615 0.032877818 0.0689067 0.025511857
-0.075402044 -0.022309205 0.006590052 -0.061838094 -0.09414322 0.06189566 -0.01047409 -0.01525058
0.027761567 -0.029603219 -0.06669268 -0.09248515 -0.044060357 0.059267856 -0.09666762 -0.042385716
0.027277699 -0.09077378 -0.10034122 -0.017692262 -0.06558532 -0.06448921 -0.045581218 -0.025789201
-0.04293726 -0.045548096 -0.09348682 0.010134637 -0.043577664 0.013625566 -0.059437662 0.07372491
0.008750228 0.033657227 0.02397595 -0.08872096 0.012236436 -0.033263586 0.03747208 -0.026243912
0.063643016 -0.08874178 -0.024913259 0.065397955 0.06917128 0.08251441 -0.02757482 -0.006063472
0.026792984 0.072351776 0.045114398 0.039919507 0.076739416 -0.062393967 -0.004000265 0.011413735
0.0680377 -0.04765732 0.070024826 -0.01837932 -0.06354641 -0.04822777 -0.06368027 -0.058048848
-0.08640993 -0.012491002 0.020422516 0.04151871 -0.078122094 0.016935477 -0.051005404 0.085569724
0.002574407 0.035853427 0.060912218 -0.0058352393 0.017495925 -0.06567358 -0.072014794 0.044785503
-0.01379063 -0.06903968 -0.066434056 0.024372825 -0.06287708 -0.011651362 -0.038280886 0.030520016
-0.048270915 0.010238266 -0.074580185 -0.047883697 -0.012058051 -0.07228673 -0.08330416 0.0743553
0.08476849 0.029979296 -0.01304967 0.05164392 -0.08005194 0.0919505 0.0721253 -0.08477233
-0.015010369 0.07180861 0.0624872 -0.03985213 0.020437274 -0.032382865 0.05173484 -0.004514643
0.07055232 -0.051131994 -0.01250772 0.04583554 -0.024527822 -0.0062528667 -0.071978085 -0.015052747
0.05385835 0.08521821 0.03287111 0.0745129 0.05701203 0.053488515 0.057015266 -0.096406154
-0.0675733 0.070101395 0.021613799 -0.013376049 0.0085067 0.03504032 0.07284726 -0.040125042
-0.04559903 -0.013271797 0.06757658 -0.032070395 0.050315216 -0.053333875 0.021319317 -0.07365826

layers.3.weight f4 [4, 256]
00000000: 8edb dcbb 6eff 283d 9487 593d 9b79 1f3c
00000010: 4751 14bc 3a9f 84bd c65a cd3c 3332 fbba
00000020: 6237 81bd acac 06bd 43bb e5bc 9955 5bbc
00000030: c1ae e13b a796 913c acb6 713b 093b 03bc
00000040: ddb0 b33c 28a8 ba3c 37bf 99bb b491 aebc
00000050: 3c5c 9fbc 070e 143b 050c f7bc 6d0a 0bbc
00000060: da0e e13a bb28 4bbd 73f3 53bb 959e 41ba
00000070: 0fc1 28bc eef4 18bd 9e1c 44bb b5fd 3f3d
00000080: c4e1 383b 0761 5b3d 0f0a 713a 8c5d 443c
00000090: bb77 cebc 485e ec3a 15e2 3ebd 12b6 b8bc
000000a0: ab09 4f3a ebbd 5a3d 17d3 083b 105a 9c3d
000000b0: 3801 573d 7af0 f33c 071a 56bc 16c4 b63c
000000c0: 5a48 463d 6673 5ebc b1ce 54bd 8111 0b3c
000000d0: d2ac 74bb 5c88 67bd 2cef 33bd 4779 29bd
000000e0: 1358 9f3c 6570 bc3b fafc 0e3d 0a8b 65bc
000000f0: 5a28 93bc 5e37 53bd 73ee 9ebc 34e2 d5bb
00000100: 0f43 733d ab3c 57bd 85b5 30bd 89e3 21bd
00000110: d79a 0b3d 9de2 903c 79e0 b23c 8b99 a03a
00000120: 3e53 5c3d 0658 fd3c cdc0 2d3b 8999 babb
00000130: f155 3fbd 65cf fabc 8567 08bc 1cab 96bb
00000140: 62ae 933d e27b 50bb 9ede 083d a1a6 3fbd
00000150: 5d59 12bd 2304 5abc 7df3 e43c 5cb8 7f3b
00000160: 388f 7d3a 6439 133c ea9a ad3b 79d0 183d
00000170: 2957 9dbb e0a8 83bc fc59 a4bc 2003 22bd
00000180: 546b 0d3c 2f88 bd3c fc5a fa3b 9220 32bd
00000190: 9950 af3b 4e9d 3abc f7c1 8b3c d202 31bd
000001a0: c792 32bc 192b ecbc 2447 543c 5b7e 0dbc
000001b0: 407d 2e3d be12 383d fc4e aabc b275 98bc
000001c0: 503a 04bc d184 46ba c6fc f13c c004 0b3b
000001d0: 6a6f d0bc 91e3 af3c ac52 c8bb 8546 363c
000001e0: d923 64bc 0aea 6abd a3f9 2d3c d164 ad3c
000001f0: 71be 49bd 6bc5 79bc 35a4 b43c e34b 8e3c
00000200: ba25 0dbd edd8 083b d58e dd3c e12e a1bc
00000210: 4a8b 48bd 93be e03c 75d3 153c be35 723c
00000220: 501f 293d a1c8 39ba 5c63 42bc 47d3 39bd
00000230: 7903 273c edd2 25bc eeef a7bb 6230 3ebc
00000240: c3d4 d73c aa8e 9db9 de6e 263d 4fd3 433d
00000250: 3c2e 173d 6d44 dcbb dd68 eb3c 1a08 713c
00000260: 45ae da3c c3c0 cabc 3e71 b037 8846 c13c
00000270: be4e 26bd b0df c9bc ef1b 3abd 6bcd 4fbd
00000280: 9e0a 0b3d f9ad 0abc 75f0 c13b 3068 a03c
00000290: a309 06bd 2956 c63c c6a7 6d3d f0a5 21bd
000002a0: 0c5e 1a3d b085 323b dee4 b53b 437c 013d
000002b0: 74b4 f6bb 36b3 3abd c5be 2d3d d77c 563c
000002c0: 8e01 1c3d c099 36bd 9ba4 1f3c a995 9e3c
000002d0: eaec df3a 6446 cc3a 8a43 d63b c15a 713a
000002e0: 1049 ce3c d591 0c3d 5853 aebc 61c4 1bbd
000002f0: 17d5 403d 78df 19bd 5db6 4dbc f5cf 973a
00000300: 9e48 50bc 882c 8cbd 7a00 0c3c 1b06 24bd
00000310: 0efc 8a3a 5cb8 9c3b c4c1 49bb 02e1 283d
00000320: 1c4d 40bb 9fee 493c afee 5ebd 22d8 b13b
00000330: b35b babc 4f6c 4cbd 7a44 6b3b baa1 80bb
00000340: 0866 593d 7b06 0dbc 55d5 f63b 43f1 7a3d
00000350: bc65 f73b 81cb 4cbb 3f7d 203b 7577 733d
00000360: 41dd 233c 1795 1b3c 9fb2 133d bb89 0a3d
00000370: e7a2 5ab9 3fac b1bc 9e9b f43a 0360 dcbc
00000380: be64 643d 4712 53bc f9f3 b5bc b12c 9fbc
00000390: d76c 873c ab82 6cbd ff85 483d 2520 2f3b
000003a0: 58aa eb3c 8eba 06bd 892f 173c 81a3 6a3d
000003b0: 9da7 893c f769 8c3c 14ff 0abc e84a 893c
000003c0: 3fb2 22bd c0ef bfba 0389 cf3c 72a5 5abc
000003d0: ea59 bbba 6039 7fbd d3c5 a63a 57bc c73c
000003e0: bef8 99ba 3b5f 36bc 1d22 17bc 92a3 04bc
000003f0: 1696 0b3c 4e5e d33c 24ff 1e3c 513a 87bd
-0.00674004 0.04125922 0.053107813 0.009733583 -0.009052581 -0.064756826 0.025067698 -0.0019164741
-0.063093916 -0.032879516 -0.028043395 -0.013387107 0.0068872874 0.017772032 0.0036882563 -0.008009681
0.02193492 0.022785261 -0.004691984 -0.021309711 -0.01945316 0.0022591369 -0.030157099 -0.008486372
0.0017170564 -0.04959939 -0.0032341152 -0.0007385996 -0.010299935 -0.03734296 -0.0029924284 0.046872813
0.0028210739 0.05355933 0.0009194919 0.011985194 -0.025203576 0.0018033469 -0.046602327 -0.022547755
0.0007897864 0.053403776 0.0020877772 0.076343656 0.052491397 0.029777754 -0.013067729 0.022310298
0.048408844 -0.013577318 -0.05195493 0.00848806 -0.0037334454 -0.056526527 -0.043929264 -0.041375425
0.019451177 0.005750703 0.034909226 -0.0140102 -0.017963577 -0.051566474 -0.01940081 -0.0065272097
0.059390124 -0.05254809 -0.04314186 -0.039523635 0.034083214 0.017686183 0.021835553 0.0012252791
0.053790323 0.030925762 0.0026512623 -0.0056945723 -0.04671282 -0.030616472 -0.008325462 -0.0045980345
0.07210995 -0.003181212 0.03341543 -0.04678977 -0.035729755 -0.01330665 0.027948136 0.00390198
0.00096725253 0.008985851 0.005298008 0.03730819 -0.00480165 -0.016071737 -0.02006244 -0.03955376
0.008631546 0.023136226 0.0076402407 -0.043488093 0.005350184 -0.011390043 0.017060263 -0.04321558
-0.010899252 -0.028829144 0.012956414 -0.0086360825 0.042599916 0.04493975 -0.020789616 -0.018610809
-0.008070543 -0.0007572892 0.029539477 0.0021212548 -0.025443751 0.021470817 -0.006113371 0.011125212
-0.013924562 -0.057352103 0.0106186 0.021166237 -0.049253885 -0.015244822 0.022050956 0.01737017
-0.034459807 0.002088125 0.027045647 -0.019675674 -0.04896096 0.027434623 0.009144654 0.014783321
0.041289628 -0.0007087086 -0.011864509 -0.045367505 0.010193699 -0.010121089 -0.0051250374 -0.011608215
0.02634657 -0.00030051667 0.040633075 0.04780894 0.036909327 -0.006722024 0.028736526 0.014711404
0.026694426 -0.02475012 2.1033567e-05 0.023593202 -0.04060244 -0.024642795 -0.045436796 -0.05073301
0.033945672 -0.00846433 0.0059185573 0.01958093 -0.032724034 0.024211006 0.05802133 -0.03946489
0.037687346 0.0027240328 0.0055509647 0.031612646 -0.007528836 -0.045581065 0.04241826 0.013091288
0.03808742 -0.04458022 0.009743835 0.019358473 0.0017084156 0.0015584943 0.006538813 0.0009206944
0.025181323 0.034318764 -0.021279976 -0.03802908 0.04707822 -0.037566632 -0.012555686 0.0011582362
-0.012712626 -0.06844431 0.0085450355 -0.040044885 0.0010603683 0.0047827195 -0.003078566 0.04123021
-0.0029342836 0.012324958 -0.054426845 0.0054273764 -0.022748804 -0.04990798 0.003589897 -0.0039255293
0.05307582 -0.008607502 0.0075327554 0.06126524 0.0075499695 -0.0031249227 0.0024488715 0.059440095
0.0100014815 0.009495995 0.03605902 0.033822756 -0.00020850786 -0.021688579 0.00186621 -0.02690125
0.055760138 -0.012882776 -0.022211062 -0.01943049 0.016531391 -0.057741802 0.048955914 0.002672204
0.02876775 -0.032892756 0.009227642 0.057284836 0.016803557 0.017140372 -0.008483667 0.01675935
-0.03972077 -0.0014643595 0.025333887 -0.013345109 -0.0014293764 -0.062310576 0.0012723751 0.0243818
-0.0011747105 -0.011131103 -0.009224442 -0.008095639 0.00851967 0.025801804 0.009704385 -0.0660292

layers.3.bias f4 [4]
00000000: b205 bebc b25a b6bc 957a e1bc ad85 d2bc
-0.023196075 -0.022260044 -0.027524272 -0.025698507
