modeloB.pth (torch, 150984 bytes, 6 tensors)

layers.1.weight f4 [128, 256]
000000 6c 5d 85 3c 36 7d a1 bc ae 9f 2c bd 59 b1 5b 3b
       0.016279899 -0.019713026 -0.04214447 0.0033522455
000010 0a e1 a8 bc 76 c0 8b bd 9e 8b ef bc 27 39 a8 bd
       -0.02061512 -0.068238184 -0.02924138 -0.08214026
000020 80 ca 16 3d aa e5 89 bd f6 67 15 3d 5b 6e 5b bd
       0.036814213 -0.06733258 0.036476098 -0.05357204
000030 07 ae 19 3b 2b 28 76 bd 64 bc bd 3c 00 78 8d ba
       0.0023449676 -0.0600969 0.02316112 -0.0010793209
000040 98 a6 6d 3b f1 26 88 3b d5 79 95 3c 7e e1 ac bd
       0.0036262628 0.004155033 0.01824657 -0.08441447
000050 81 26 bb 3b a4 e4 d9 3c 72 9d fd 3c d6 9d f6 3b
       0.005711377 0.026598282 0.030958865 0.0075261397
000060 0c 68 81 bd fb 9f fa 3c e0 4a 2c bd 50 d2 75 bc
       -0.063186735 0.030593863 -0.042063594 -0.015003756
000070 18 68 be bc a5 70 aa bd 41 fe 24 bd 63 ab 1d bd
       -0.023242995 -0.083222665 -0.040281538 -0.038493525
000080 f7 1f c1 bc b6 fc 9a bd 28 68 ae bb b3 22 8f bc
       -0.023574812 -0.07567732 -0.005322475 -0.0174726
000090 d7 33 2a bd 86 14 42 bc 11 2a 3d 3d b6 0b a8 bd
       -0.041553345 -0.0118457135 0.046182696 -0.08205359
0000a0 93 79 18 bd 56 f5 4e bb 82 23 4b bd ec 7a 38 3c
       -0.037225317 -0.0031579337 -0.04959441 0.011259776
0000b0 a4 6d 11 3d 31 f2 a6 bd 35 31 23 bd da 4f ad bd
       0.035504952 -0.08151663 -0.03984185 -0.08462496
0000c0 82 59 fc bb 4f bd 85 bb dd 8b 84 bd a2 8d 03 bb
       -0.0077011 -0.0040814052 -0.06471989 -0.0020073433
0000d0 e9 43 f8 ba 65 98 8d bc 48 80 0e bc 7d 01 69 bd
       -0.0018941137 -0.017284581 -0.008697577 -0.056886185
0000e0 91 91 22 3c 34 04 05 3b 1a 5c 00 bd f6 9f ff bb
       0.009922401 0.0020296695 -0.031337835 -0.0078010513
0000f0 c8 e4 45 bd 38 99 31 3d 09 e5 56 bd a0 c8 11 3d
       -0.048313886 0.04335901 -0.05246452 0.03559172
000100 05 54 84 bd 94 3f 90 bc dc 69 18 bb 8c 4e 0c 3c
       -0.06461338 -0.017608441 -0.0023256456 0.008563649
000110 53 86 54 3d f2 0a 52 bc e2 89 8c bd c5 d5 74 3d
       0.051885914 -0.012819992 -0.068622366 0.05977418
000120 68 c5 41 bd b5 7a 00 3d 8c a4 2b 3d dd da 6d 3d
       -0.047307402 0.031367023 0.04190497 0.058070052
000130 b2 2e 44 3b 46 89 2c bc 94 52 c5 3c 5e 50 32 3d
       0.002993506 -0.010530775 0.024087228 0.043533675
000140 6c 5c df 3c c3 ee 79 3d 43 00 8d bd cb 0f ad 3d
       0.02726575 0.061018717 -0.068848155 0.08450278
000150 fa 0a da bc a2 60 45 3d 8c 16 8a bd 76 1c 87 3d
       -0.026616562 0.04818786 -0.06742582 0.06597225
000160 f1 24 09 bd d5 fa e4 bc 63 26 7f 3c 1a 9a b2 bc
       -0.033482496 -0.027951637 0.015573117 -0.021801997
000170 d9 15 15 3d ff 7c 40 3d b5 ff 3c 3d 54 d0 03 bc
       0.03639779 0.046994206 0.0461423 -0.008045275
000180 42 83 67 bc fd fc 00 3d 8e ba 0e bc b5 b4 4b bd
       -0.014130415 0.03149127 -0.00871147 -0.049732883
000190 d1 f3 62 bc a7 ee 00 3d 06 5e b1 bb 36 32 80 3c
       -0.013852076 0.031477597 -0.00541282 0.015648942
0001a0 36 76 fe 3b ed 44 36 3c 9c d8 43 3d a2 ff c9 3b
       0.0077655567 0.011124832 0.047813997 0.006164507
0001b0 cf 77 8a 3a 79 0d 2b 3d 64 6a 9e bc 09 52 7b 3d
       0.001056427 0.041760895 -0.01933784 0.06135753
0001c0 ac 9b a5 3c c7 0c 24 3d 78 3b 17 bc 50 dc 84 3d
       0.020215832 0.040051248 -0.009230487 0.06487334
0001d0 0f ea e8 bc 83 c5 07 3d 33 dd 36 bc 4d 90 49 bd
       -0.02843192 0.033147346 -0.011161136 -0.04920988
0001e0 28 3b b7 bb 16 05 55 3d 0e d4 8d 3c 1b 7c 23 3c
       -0.005591769 0.052006803 0.01731303 0.0099783195
0001f0 2d b9 74 bd 72 27 66 3b 00 01 23 bd 73 f8 a1 bc
       -0.05974691 0.0035118726 -0.039795876 -0.01977179
000200 c7 d6 3f bd 7b b7 28 bd cd 13 57 bd d4 91 f5 3c
       -0.046835687 -0.041190606 -0.052509118 0.029976763
000210 49 ae b8 bc d2 40 a2 3c 81 9a ab bc 0d ee 23 bd
       -0.022544043 0.0198063 -0.020947697 -0.040021945
000220 32 65 d5 bc 2d 9c 1a bd 41 1f 9f bc 84 dc 07 bd
       -0.02604923 -0.037746597 -0.019424083 -0.033169284
000230 a7 ac 4b bd 33 93 09 3d 75 34 7d bc 58 0b 80 bc
       -0.0497252 0.033587646 -0.015454401 -0.01563041
000240 c9 65 35 bd 86 77 e3 bc 99 d3 f7 3c f7 79 8b bc
       -0.044286523 -0.027766954 0.030252265 -0.01702593
000250 51 ac f8 bc ce 57 ad bc 87 81 6f bc d3 8f e3 3c
       -0.030355604 -0.021160033 -0.014618284 0.027778542
000260 f8 7f 62 3d b3 09 45 bd 3f d3 52 bd 34 5a 4a bd
       0.05529782 -0.048104953 -0.05147099 -0.04940243
000270 3b 69 03 bc 68 3c 5b 3b 3e a6 5a 3d 75 67 54 3b
       -0.008020694 0.0033452753 0.053381197 0.0032410298
000280 dd 01 10 3d 29 1d 88 bb 4c ce e1 bc 19 67 65 3c
       0.035158027 -0.004153867 -0.02756419 0.014001631
000290 fb 9f 1f 3c 7b e3 50 3d 1b 92 05 bc c8 c3 51 3d
       0.009742732 0.050998192 -0.00815251 0.051212102
0002a0 1c 98 61 bd ea 6f 2b 3d 8b dc fa bc f9 54 0b 3d
       -0.055076703 0.041854776 -0.030622741 0.034016583
0002b0 45 3d c5 3a 42 9c 3a 3d 7b d4 39 bd 99 22 0c bd
       0.0015048167 0.045559175 -0.045368653 -0.034212682
0002c0 5c 93 64 3c 12 2c 3f 3d b3 81 85 3b ed e6 6f 3d
       0.013951149 0.046672888 0.0040742992 0.058569837
0002d0 f4 c9 1e 3d 7d 34 8e 3c 29 40 f4 bb df 87 16 bd
       0.038766816 0.017359013 -0.0074539375 -0.03675067
0002e0 7b ae 89 3c 7d 32 49 3c bb 57 6f 3d a3 d9 03 bd
       0.016806832 0.012280104 0.058433276 -0.032189976
0002f0 a9 8a 3a 3d d6 32 ac 3c 13 7a d4 3c d7 85 8c bd
       0.045542393 0.021020334 0.025937116 -0.068614654
000300 31 04 08 bc d2 35 82 bd a7 a7 5d 3d d8 d7 86 bd
       -0.008301781 -0.06357922 0.054114964 -0.06584138
000310 08 bc e8 bc 05 7d a6 bd 59 38 1f ba 2f 5f 77 3b
       -0.028409973 -0.08129314 -0.0006073765 0.0037745943
000320 05 f5 09 bd fa 01 a9 bc aa 8e ac bc 8c 7d 29 3c
       -0.033680934 -0.020630825 -0.021064121 0.010344874
000330 2a 02 d1 3c 7c c8 8d bd 51 52 7b bc 1a a4 88 bd
       0.025513727 -0.06923005 -0.01533945 -0.06671925
000340 4f ca 4f 3d 2b 31 8b bc 3e 1d 06 bd b1 b9 69 bd
       0.050730046 -0.016991219 -0.03274273 -0.057061855
000350 51 5b 41 3c ec 57 20 3d 72 e1 ae 3c c1 d8 3f 3b
       0.011801557 0.03914635 0.021347735 0.0029273483
000360 b3 10 92 3c b4 b1 49 bd 33 b1 65 3d cb c5 36 bc
       0.017830228 -0.049241737 0.056077193 -0.011155556
000370 ba 6b 15 3d a8 45 a4 3c 9a d1 81 bd 5d 5a 82 bb
       0.03647969 0.020052746 -0.063388065 -0.0039780573
000380 87 54 2c 3d 8e 15 ea bc 41 19 5f bd 06 ec fb 3c
       0.0420728 -0.028574731 -0.054467443 0.030752193
000390 ac 9c 80 bc e2 4c 1e bd c6 b7 4f bd 84 4d 97 bd
       -0.015699707 -0.03864754 -0.05071237 -0.07387832
0003a0 fc 49 1b bd 0a 43 22 3c 7f 05 08 bd b6 5f 93 bd
       -0.037912354 0.009903679 -0.033208366 -0.0719599
0003b0 e1 e9 17 bc 7a 23 3b bd 00 21 12 bd 07 9c 43 bd
       -0.00927207 -0.04568813 -0.035676003 -0.04775622
0003c0 c6 6e 3c bb 2f 42 92 bd 52 c6 3b 3d 7a 0f 9b bd
       -0.002875255 -0.0714153 0.04584343 -0.07571311
0003d0 7a 4d cc 3c 95 4d 6a 3d 9e a0 2f 3c 60 14 2c bd
       0.024939287 0.057202894 0.010719446 -0.04201162
0003e0 67 31 74 3b 3a f5 20 3d 3f 14 01 3c 64 83 54 bd
       0.0037260891 0.039296366 0.007878362 -0.051883116
0003f0 12 13 55 bd c1 84 4a bd 40 ac 3b 3b 28 14 25 3d
       -0.05202014 -0.04944301 0.0028636605 0.040302426

layers.1.bias f4 [128]
000000 91 13 76 3d cc 11 a3 bc fd 28 45 3d a4 37 f4 bc
       0.060077254 -0.019905947 0.048134793 -0.029811688
000010 42 0c 71 bd 6c 6d e1 bc 9f b1 48 3c 81 f1 23 bd
       -0.05884958 -0.027517997 0.012249379 -0.040025238
000020 b5 d8 8e bc f8 09 6b 3d 20 61 e9 3c 92 b7 62 3d
       -0.017437318 0.057382554 0.028488696 0.055350848
000030 69 01 9e bc 39 bc b4 3d 12 a4 82 bb 4f d7 93 bd
       -0.019287782 0.08824963 -0.003986844 -0.07218801
000040 1a 20 b7 bd e1 d1 9b bd d4 c7 56 bc 12 d5 07 bb
       -0.0894167 -0.076083906 -0.013109166 -0.0020726365
000050 b6 1e 4e 3c 6f 95 d0 bc 25 80 d9 3c e8 05 87 3a
       0.012580564 -0.02546188 0.026550362 0.0010301443
000060 4b 16 b5 3d 99 11 64 bd 67 2a 5c bc c6 ad a7 bd
       0.08842143 -0.055680845 -0.013437844 -0.081874415
000070 1a 92 f1 bc e3 9d 28 3d b6 43 35 bd 9e c3 8b bb
       -0.029488612 0.041166198 -0.044254027 -0.0042652627
000080 d3 9a ab 3c 7c d9 e5 3b 39 a8 ce bc 66 0c 48 3d
       0.02094785 0.0070144515 -0.0252267 0.04883995
000090 45 ea 8b 3d ce 50 90 bb 74 5d 13 3d 6b 35 88 3d
       0.06831793 -0.004404164 0.035977796 0.06650814
0000a0 9a 9e 3e 3d 1f 13 47 bd d8 1f 88 bd 80 93 47 3b
       0.046537973 -0.04860222 -0.06646699 0.0030452907
0000b0 94 51 d3 3c 48 67 12 bd c1 3b 53 bd 30 4b b8 3c
       0.025795735 -0.035743028 -0.051570658 0.02249679
0000c0 40 8d 50 bd 46 bb 7a bd 5b d5 84 bd 2b 15 84 bd
       -0.050915956 -0.061213754 -0.06486007 -0.0644935
0000d0 b4 b0 59 3d 40 a0 16 3d 17 9e 0f bd 4c 0f 0d 3d
       0.053147033 0.03677392 -0.035062876 0.034438416
0000e0 36 cb 1e bd ec 46 94 3c 3d 72 f3 3b 7c 1f 94 bd
       -0.038768016 0.018100224 0.0074293897 -0.07232568
0000f0 2f bf 57 3d 9b ec 96 bb 5b 57 42 3a d4 c8 c7 3d
       0.05267256 -0.0046058423 0.00074135297 0.09755102
000100 55 e5 81 3d d0 15 cf 39 a0 c0 f3 bb 50 f5 1f 3d
       0.0634257 0.00039498368 -0.007438734 0.039052308
000110 38 02 9a 3d 67 dc 54 bd 3d e7 8b 3d 74 92 fd bc
       0.075199544 -0.051968005 0.068312146 -0.030953623
000120 da b7 a7 bd fb 7e 01 bd c4 c3 73 ba ae c6 71 bd
       -0.08189364 -0.03161524 -0.00092988857 -0.059027366
000130 af 1e 36 bd 83 cc c4 bc a9 fd 11 3d fa 7c 91 bd
       -0.044462856 -0.0240233 0.0356423 -0.071039155
000140 d6 21 86 bd 6c 78 6f 3d 11 fa eb bc e0 23 22 bd
       -0.065494224 0.058464453 -0.028805764 -0.039584994
000150 7c 26 a5 3c db 6a 07 bd cf 3e 14 bb 0c 85 5a bd
       0.020159952 -0.03306089 -0.0022620445 -0.05334954
000160 a0 e5 11 3d fb 24 e9 bc ca 21 3d bd af a0 98 3d
       0.035619378 -0.028460016 -0.046174802 0.07452523
000170 ba 57 3e bc cd 08 1b 3d 92 88 53 3d 1f c4 63 ba
       -0.011617595 0.03785019 0.051643915 -0.0008688587
000180 94 19 36 bd 5a 16 8e bd e3 7e 77 3c cc 6b 84 bc
       -0.044457987 -0.06937857 0.015105936 -0.016164683
000190 ed 4a bc bb 08 ca b1 3c a2 04 9b bd 13 7b c7 3c
       -0.0057462365 0.021702781 -0.07569243 0.024350679
0001a0 c5 b9 6c bc e1 9f 8d 3d 1e 0d 4f bd b3 11 90 3d
       -0.014448588 0.0691526 -0.05054962 0.07034626
0001b0 e8 22 58 3d 17 0f 09 3d d6 f9 c5 bc f4 d6 8e 3b
       0.052767664 0.033461656 -0.024166983 0.0043591205
0001c0 b5 bb aa bc 04 76 a6 3c 21 84 88 3d 02 ad 1e 3d
       -0.020841459 0.020319946 0.066658266 0.03873921
0001d0 d1 f3 75 3c df 58 31 bd 00 8e bf 3c 0d c6 d4 bc
       0.015011744 -0.043297645 0.02338314 -0.025973344
0001e0 5f f3 61 3c 13 32 3e 3d d2 15 74 3b 62 89 a8 3c
       0.013790934 0.046434473 0.0037244451 0.020573322
0001f0 7f 3e 4b bd 27 df 3d 3c 7d da 2e bd 7c 61 8b 3d
       -0.049620148 0.011588848 -0.042688835 0.06805703

layers.2.weight f4 [32, 128]
000000 d4 64 d5 3c 66 10 6f 3c c4 f6 05 3d b9 40 98 3d
       0.026049055 0.014591312 0.032706037 0.0743422
000010 f2 30 7e 3d 4d cb 86 bd b4 c2 af bd 8b 9d 97 3d
       0.062058397 -0.06581745 -0.085820585 0.07403096
000020 c7 7b 45 3d d3 f6 84 bc 37 0f 4d bd 0e cf cc 3d
       0.048213746 -0.016230976 -0.050063338 0.1000043
000030 f7 81 b8 bd ae f0 8f bd bb d2 82 bd 60 1c ea 3b
       -0.09009164 -0.07028328 -0.0638785 0.007144496
000040 15 ca 63 3d 59 14 df 3d 87 20 10 3d a1 ae a2 bd
       0.055612642 0.10892553 0.03518727 -0.07943464
000050 08 55 ba bd b7 65 9b 3d fb 84 89 bc c1 4e 90 bd
       -0.0909825 0.0758776 -0.016787043 -0.07046271
000060 ae c4 b3 bc 53 11 d0 bc e3 e0 7e bd 78 19 0e bd
       -0.02194437 -0.025398886 -0.062226187 -0.034692258
000070 81 30 0f bd 0f 98 5f 3c b7 3c 71 bd 46 fc 0c 3d
       -0.034958366 0.013647093 -0.058895793 0.034420274
000080 e1 70 d2 bc b4 dd 22 bd 39 5e 1c bd c4 6d f6 bc
       -0.02568859 -0.039762214 -0.038175795 -0.030081637
000090 b2 9b 51 3d 7f 3b 8c bd e0 bf 7e bb 02 e7 89 bd
       0.051173873 -0.068472855 -0.003887169 -0.06733514
0000a0 18 cf 2d bc b7 b6 a5 3d c1 08 7d bd 59 d6 55 3d
       -0.010608457 0.08091491 -0.061775927 0.05220637
0000b0 9b ea b8 3d 59 9b c7 bc 8c ff a3 bd 7b 8b 3f bd
       0.090291224 -0.024366068 -0.08007726 -0.04676388
0000c0 01 0c ed 3c 2e a7 fa 3c e4 0a 95 3d a9 67 30 3d
       0.028936388 0.030597296 0.07277468 0.043067608
0000d0 0a be 41 3d b2 04 5d 3d 71 9e 91 bd cb 96 ae 3d
       0.047300376 0.053959556 -0.071102984 0.08524855
0000e0 58 9d cd 3b ae f5 02 3d 21 7d b1 bd ff 29 84 3c
       0.0062748604 0.03197258 -0.086664446 0.016133307
0000f0 3e f4 58 bb e0 83 4d 3d c2 e9 16 bc 5f 95 73 3d
       -0.0033104564 0.050174594 -0.009211006 0.059468623
000100 0b a7 17 bd 9a c4 af 3d 69 f0 1d bd 01 f6 93 bd
       -0.03702454 0.08582421 -0.03855935 -0.07224656
000110 6a 5f 9f 3d 00 c4 16 bd 1e f9 41 bd e7 04 6e bd
       0.07781871 -0.036808014 -0.047356717 -0.058110144
000120 f6 d0 6e bb be 44 1b 3d 19 fd 8b bb ad cc 09 3d
       -0.0036440468 0.037907355 -0.004272115 0.03364246
000130 a1 d2 1f 3d 02 77 83 bd 3d 2f d1 3c d8 1e 84 3d
       0.03901923 -0.06419183 0.02553522 0.064511955
000140 f6 8e 08 bd b5 0a 7c 3d da a6 4c bd 9d 18 86 3d
       -0.033339463 0.06153365 -0.04996381 0.06547663
000150 71 9f 86 3d 20 35 c8 bc 85 ac 3f 3d f8 5f d5 3d
       0.0657338 -0.024439394 0.046795387 0.10418695
000160 a9 88 a8 3d 85 83 6a 3d 84 32 9d 3d af e9 bb bd
       0.08229191 0.057254333 0.07675651 -0.09175431
000170 24 df a8 3d a7 54 f4 bc 50 03 11 bd 2b 45 e0 bd
       0.08245686 -0.029825522 -0.03540355 -0.10950693
000180 2f 26 cf 3b 36 b6 60 bd e1 8f 9e bd 05 c8 7a 3d
       0.0063216905 -0.05486127 -0.077422865 0.06122591
000190 fa 60 3e bd 7f e4 30 3d 25 e8 22 bb 9f 0a e8 bc
       -0.046479203 0.04318666 -0.0024857607 -0.028325377
0001a0 cf aa 0b bd 35 90 82 bd e7 5d 59 bd 97 08 9b bd
       -0.034098443 -0.063751616 -0.053068068 -0.07569998
0001b0 c8 e7 bc 3c f0 e0 aa bd 7e 91 df bc 60 c3 cb bc
       0.02305974 -0.08343685 -0.027291056 -0.024873435
0001c0 e2 72 30 bd 21 f6 99 3c 1f a1 42 3c e5 51 08 3e
       -0.04307831 0.018794121 0.011879235 0.1331249
0001d0 91 90 47 3d d9 3c d5 bd 5d a8 ab bc 7e 9f c3 3c
       0.048721854 -0.104119964 -0.020954305 0.023879763
0001e0 c5 b6 04 3d b5 5b c1 bd b0 b8 86 3d 04 31 00 bc
       0.032400865 -0.0944132 0.06578195 -0.007824186
0001f0 19 bf 05 bd 21 80 97 3d 6c 10 6c 3b ad 4d 3a 3c
       -0.032652948 0.073974855 0.003602053 0.011371058
000200 e9 94 4a bd ac a5 11 3b 56 18 4a bd 0a ad a4 bd
       -0.049458418 0.0022223992 -0.049339615 -0.08040817
000210 35 ad 15 3d 15 3c 98 3d eb db c5 3d 3b a3 b0 3a
       0.036542136 0.07433335 0.09661087 0.0013476381
000220 0e ff bd 3d 74 f1 03 bd 20 74 3b bc f0 46 13 3c
       0.092771634 -0.03221269 -0.011441261 0.008989081
000230 8d a9 10 bd bc 5c c0 3d cb 42 67 bd 2e 64 4b bc
       -0.035317946 0.09392688 -0.056460183 -0.012414021
000240 d9 aa 8c 3d ed 4f de 3c 51 9a b6 3b 6b 67 5c bd
       0.06868524 0.027137721 0.005572595 -0.053809565
000250 6e ed 99 3b 65 41 1f bd 96 26 19 bd 18 86 2b 3d
       0.0046974933 -0.038880724 -0.037390314 0.04187593
000260 38 6a c3 3d 1e df b0 3d 85 f2 77 ba be 0d 0f bd
       0.09541744 0.08636306 -0.00094584405 -0.034925215
000270 b7 51 63 3d 5a 3d d1 3c 7d 41 72 3d 2a 9b 13 3d
       0.05549785 0.02554195 0.059144486 0.036036648
000280 80 e1 d2 bc 57 ff 88 bd cf 07 31 bd 3b f3 de bc
       -0.025742292 -0.06689327 -0.043220337 -0.02721559
000290 44 f3 da 3c 24 dc 48 bd d9 0d 12 3d 74 0f 44 3b
       0.026727326 -0.049038067 0.035657737 0.0029916437
0002a0 2d 83 c6 3c d8 58 41 bd c4 4f f0 bc 2b 87 64 bb
       0.024232471 -0.04720387 -0.02933491 -0.0034870605
0002b0 c9 b9 89 bc 01 d0 b6 bd 9f 4d 24 bd b2 20 22 bb
       -0.016812222 -0.08926392 -0.040113088 -0.0024738726
0002c0 d6 3c b2 bd 37 90 b5 bc 8b 59 15 bc c3 43 59 bd
       -0.0870301 -0.022163494 -0.009115587 -0.05304314
0002d0 a0 ed 12 3c 99 bc b4 bc 36 6d b5 bd e5 81 34 bd
       0.008967787 -0.022062587 -0.08858721 -0.04406919
0002e0 c4 b6 a4 bc b0 d9 a4 3d c5 65 53 3d 99 f5 46 3d
       -0.02010668 0.08049333 0.051610727 0.048574064
0002f0 27 78 c2 3c a6 ad a9 bd 6b 14 d7 bc 5b ca 3f bd
       0.023738934 -0.08285074 -0.026254853 -0.04682384
000300 d3 a1 e0 3c f5 7a d3 3c d4 ac 82 bd d2 4b 9e 3d
       0.027420914 0.025815466 -0.063806206 0.07729305
000310 a1 5a 40 3d f1 25 a9 bd ec 5b 12 3d 94 f7 a5 3d
       0.04696143 -0.0825919 0.035732195 0.081038624
000320 6c 88 59 3b 20 d3 d1 3d b6 06 26 3b 49 6d 2a 3d
       0.0033192886 0.10245347 0.002533359 0.04160813
000330 de 99 12 bd 14 41 4f 3d e8 27 08 3d e9 06 2d bd
       -0.03579127 0.050599173 0.033241183 -0.04224292
000340 20 61 8a 3d 8f 13 b9 3c ae 29 47 3d bf 6b ee bc
       0.067568064 0.022592334 0.048623733 -0.029104112
000350 90 4b d3 bc 4c c3 c7 bc e7 0d 33 3d 65 9f aa bd
       -0.025792867 -0.024385117 0.04371443 -0.08331183
000360 eb d4 b7 3c 2b b9 a1 3d 51 37 a3 3d 1f fb 37 bd
       0.022440394 0.07896646 0.07969535 -0.044917222
000370 3a 00 c5 bc 8d 4a 55 bd ed 60 51 bc f6 18 83 3d
       -0.02404796 -0.05207305 -0.012779457 0.06401245
000380 1e 0a d6 3b d3 6e a9 bd 9c bd bb bd aa d5 ba 3b
       0.006531968 -0.08273091 -0.091670245 0.0057017403
000390 48 eb a0 bd 33 f3 94 bd bf a6 a8 3d 39 f6 5c 3d
       -0.07857376 -0.07272949 0.08234929 0.053945754
0003a0 db 9e 35 bd 69 cf 28 bd 2b ce 8f 3d 45 68 2b bd
       -0.04434095 -0.041213427 0.07021745 -0.041847486
0003b0 e9 4f b7 3c b6 62 3b bc 80 4b bd bb 98 df a9 3d
       0.022376971 -0.011437109 -0.0057768226 0.082946
0003c0 1d 48 14 bb 90 33 0d 3c 87 ef 8d 3d 1a c2 21 bd
       -0.002262599 0.0086182505 0.06930452 -0.03949175
0003d0 a4 3e 8c 3c 28 f4 0d 3b 76 f0 a0 3d 1c a8 3e 3d
       0.017119713 0.002166042 0.07858364 0.04654704
0003e0 be 0b 3f bd 32 1b ef bc 46 0c fc 3c 68 0c 43 3d
       -0.046642058 -0.029187772 0.030767571 0.047619253
0003f0 6c 6f 82 3d 6f 86 ed 3c 4c 3e 2a bc dc 79 8e 3d
       0.06368908 0.028994767 -0.010390829 0.069568366

layers.2.bias f4 [32]
000000 38 11 37 3d af c6 c5 bc 91 5b 83 bd 78 ae 61 bd
       0.044694155 -0.024142591 -0.06413949 -0.055098027
000010 ba a1 58 3d 83 1a 62 3b 9d af 77 bc de 91 c3 3c
       0.05288861 0.0034500665 -0.015117553 0.023873266
000020 3a b9 57 3d 1f 23 a9 bc 5f ec 4e 3d 4e 42 d9 bc
       0.05266688 -0.02064663 0.05051839 -0.026520874
000030 e9 e9 53 bd 41 59 0e bc 9a 90 89 bd 46 22 bd bd
       -0.051736746 -0.008688272 -0.06717034 -0.09235053
000040 62 5e b3 3d ce 08 a2 bc dc de 99 bd 5d 02 47 3d
       0.087582365 -0.019779589 -0.0751321 0.04858624
000050 a7 68 f6 3c 3b 0e 6b bd fa 1c 1b bd 99 fd c6 3d
       0.030079199 -0.057386618 -0.03786943 0.09716339
000060 21 7e 0e 3d 35 5b 3e 3d 92 d1 97 3c cd 06 47 bd
       0.034788255 0.0464737 0.018532548 -0.04859047
000070 c4 69 19 3b d6 83 5e bd 18 35 a0 3c a0 02 ac 3a
       0.0023408988 -0.054324947 0.019556567 0.0013123341

layers.3.weight f4 [4, 32]
000000 ee 88 8a bd a3 03 2d 3d 83 5d 37 bd 7e 9a 1b 3e
       -0.067643985 0.042239796 -0.044766914 0.15195653
000010 b7 ba 71 be 47 e0 24 be 3e d2 74 bc c4 94 0b be
       -0.23606382 -0.1610118 -0.014942704 -0.13630968
000020 c7 e1 dc 3d b8 76 bc 3d 2b b1 32 be 15 c2 d3 3d
       0.10785251 0.09202331 -0.17450397 0.103397526
000030 be bf 49 3e 24 ee 0a 3e d4 79 98 bd dd b2 c5 3d
       0.1970205 0.13567406 -0.07445112 0.09653256
000040 5a ff 49 be 8f 25 4c 3e 63 06 0b 3e 1a f8 1c be
       -0.19726315 0.19936202 0.13576655 -0.15329018
000050 63 33 b8 3d 43 11 d3 bd f1 f0 b0 3c b2 42 26 3e
       0.08994176 -0.10306027 0.021599265 0.1623638
000060 f4 00 e0 b9 cd 46 f7 bd 14 4b 32 3e 9e 7c 40 bd
       -0.0004272532 -0.12074051 0.17411453 -0.046993844
000070 71 c2 56 3d 24 d9 56 3e 24 76 1c be 2e 5e 16 be
       0.052431528 0.2098127 -0.15279442 -0.14684364
000080 d8 f0 0d 3e 1e ff d0 bd 68 ef ba 3d 20 c7 6b bd
       0.13861406 -0.1020491 0.09127694 -0.057562947
000090 4a 4c d2 3b e6 82 b8 bc ea b2 ff 3a a2 8e 56 be
       0.006417786 -0.022523355 0.0019508277 -0.20952848
0000a0 98 55 98 bd 38 a7 9f bd 1f 97 1a be 6d 03 c3 3d
       -0.07438201 -0.07795566 -0.1509671 0.09522138
0000b0 5d 16 dd bc 32 7d 06 3e ba 7f f2 3c 58 ef 5c 3e
       -0.026988203 0.13133696 0.02960192 0.21575677
0000c0 f1 af 01 be b4 85 2a be 89 54 2f be 72 fc ed bc
       -0.12664773 -0.16652566 -0.17122091 -0.02905104
0000d0 78 4a 5f be c9 ab 1e be b5 af 9f bc d3 32 81 be
       -0.21805751 -0.15495218 -0.019492963 -0.25234088
0000e0 cd 64 16 3e 00 4a 6e bd e6 ad 97 3d 0d 1e 2a 3a
       0.1468689 -0.05817604 0.07406215 0.0006489463
0000f0 fc b5 87 3e 56 33 e0 bc d3 39 19 be 7f 0d 40 3c
       0.2650603 -0.027368229 -0.14963464 0.011721968
000100 49 5e 02 be 69 06 07 3e 9e 9c c7 bd 84 77 d7 bd
       -0.1273128 0.13186039 -0.09746669 -0.10520843
000110 4e 0e ff 3d 84 39 5f bd c6 a4 da 3d 81 59 0e 3e
       0.124539 -0.05449821 0.10675959 0.1390133
000120 47 7e 44 bb c8 6a 03 be 1f 34 bc 3d 74 5c eb 3d
       -0.0029982494 -0.12833703 0.09189629 0.114922434
000130 56 67 12 bb 81 c4 c1 bc 0d 89 c9 bd 6b fa 17 be
       -0.0022339425 -0.02365327 -0.098405935 -0.1484162
000140 c2 3b 07 be 5f 1c 44 bd 73 e1 8d 3d 95 88 dd bd
       -0.1320639 -0.04787862 0.06927767 -0.108170666
000150 48 81 1d bd 61 18 27 be a5 00 fc bd 29 28 cc bd
       -0.03845337 -0.16317894 -0.123048104 -0.099685974
000160 3d b5 f8 bd 83 cf 25 bc cb 3d 31 3c 50 ed 33 3e
       -0.121439435 -0.010120275 0.010817955 0.17570996
000170 18 ac 85 3d 6b bf 80 bd fb 44 c4 3d 8d bb 9e bb
       0.06526965 -0.0628651 0.095834695 -0.004844135
000180 ca 73 25 bd 6a c2 ae 3d 60 ac 1a 3e 08 e1 7a bd
       -0.04039363 0.08533175 0.15104818 -0.061249763
000190 38 ab 97 bd fd ac 2f be 84 e9 4e 3d 2e 10 1e be
       -0.07405704 -0.17155834 0.050515667 -0.1543586
0001a0 1f 0c 8c 3c 41 a3 ae 3d a9 da d4 bd 44 1d 88 3d
       0.017095624 0.08527232 -0.103932686 0.06646207
0001b0 8a 3b b8 3d f3 a5 05 3e 8a 1f 0e be bc f7 99 bc
       0.08995731 0.13051586 -0.13879219 -0.018794887
0001c0 63 ed 1b 3e 7b aa 09 be 6a 62 3e be 03 56 93 3d
       0.15227275 -0.1344394 -0.1859223 0.0719414
0001d0 20 72 99 3d 6e a9 d2 bd dc c5 03 3e e6 94 5c bd
       0.07492471 -0.102862224 0.12868446 -0.053852938
0001e0 d2 5c ab bd ef 51 9f bd a3 d5 19 3e c6 da be bd
       -0.083673134 -0.077792995 0.15022902 -0.093190715
0001f0 f6 26 fc bd 0c 89 29 3e 33 b4 9f 3d fd ee 84 bc
       -0.12312119 0.16556185 0.07798042 -0.01622724

layers.3.bias f4 [4]
000000 52 81 04 3e 86 d8 01 3e 7b 33 da bc 08 e3 0a be
       0.12939957 0.12680253 -0.026635876 -0.13563168
