tcc_scripts/repo/modelo.pth (torch, 167934 bytes, 6 tensors)

fc1.weight f4 [128, 256]
0	0x3dab774a	0.08372362
1	0x3e830e18	0.2559669
2	0xbe47398e	-0.19455549
3	0xbe754a92	-0.23954228
4	0x3e095171	0.13409974
5	0x3e47f797	0.19528042
6	0xbe888baf	-0.2666907
7	0x3eab4711	0.33452657
8	0xbe0ef105	-0.13959129
9	0xbe88e770	-0.26739073
10	0x3ecd6acf	0.4012055
11	0x3d8813b4	0.06644383
12	0xbdcebc29	-0.100944825
13	0x3ee0f145	0.43934074
14	0xbd657db2	-0.056028076
15	0x3dc8857d	0.09791086
16	0x3e6d8c19	0.23197974
17	0x3e3fe26e	0.1873872
18	0x3e22888f	0.15872405
19	0x3e60e12e	0.21960899
20	0x3d6e85d7	0.05823311
21	0x3e95d7a6	0.2926609
22	0x3d35ad72	0.044354863
23	0xbddf358c	-0.10898885
24	0x3c6ceffc	0.014461514
25	0xbd859676	-0.06522839
26	0x3e80f0b6	0.25183648
27	0xbe045588	-0.12923253
28	0xbdd257e2	-0.102706686
29	0xbe646594	-0.22304374
30	0xbe532fd6	-0.20623717
31	0x3e7a43bb	0.244399
32	0xbd949b33	-0.072561644
33	0xbee2a640	-0.44267464
34	0xbe8de10c	-0.2771076
35	0x3da6616a	0.08124049
36	0xbd11dbf5	-0.035610158
37	0x3df8fd57	0.12157696
38	0xbe4526ff	-0.19253157
39	0xbe56734e	-0.20942423
40	0xbe8b3fa4	-0.2719699
41	0xbebda3ce	-0.37039036
42	0x3e0fac05	0.14030464
43	0x3e5525ef	0.20815252
44	0xbe18371d	-0.14864774
45	0x3ee00714	0.437554
46	0xbe92ca20	-0.28669834
47	0x3e6e8696	0.23293528
48	0xbe0ab365	-0.13544996
49	0x3ef4c64e	0.47807544
50	0xbe8238ad	-0.25433865
51	0x3d52c7da	0.051460125
52	0x3dde127e	0.10843371
53	0xbdff15d6	-0.12455337
54	0xbe0dc7df	-0.13845776
55	0x3e0b8901	0.13626482
56	0x3e188408	0.14894116
57	0x3e280671	0.16408707
58	0x3d34ac91	0.044109885
59	0xbe9833e2	-0.29727083
60	0xbce92118	-0.028458163
61	0x3e961f98	0.2932098
62	0xbeaad9c7	-0.33369276
63	0x3e937d49	0.28806522
64	0xbdb3c840	-0.08778429
65	0xbe41295c	-0.18863434
66	0xbd9f35d7	-0.07773941
67	0xbde08326	-0.109625146
68	0x3d434853	0.047676396
69	0x3e6a2cd8	0.22868669
70	0xbe1d81dc	-0.15381569
71	0x3d930fb8	0.071807325
72	0xbdcea62a	-0.10090287
73	0xbd4ef8a1	-0.05053008
74	0xbd6f9b2d	-0.058497597
75	0x3d119d64	0.03555049
76	0x3e749ef7	0.23888765
77	0x3db45b7d	0.088065125
78	0xbd103928	-0.03521076
79	0x3d3dbbb6	0.046321593
80	0x3e8f357f	0.27970502
81	0x3e0370f4	0.12836057
82	0x3db59f1b	0.088682376
83	0x3d7fa1fe	0.062410347
84	0xbe8e0a98	-0.27742457
85	0x3e805888	0.25067544
86	0x3cdcf338	0.026971444
87	0xbd534bb2	-0.05158586
88	0x3bc362ac	0.0059626903
89	0xbddc3dff	-0.10754012
90	0xbe23afc0	-0.15985012
91	0x3d9f8cbf	0.07790517
92	0xbd78ec96	-0.0607725
93	0xbdacd5d0	-0.08439219
94	0x3cdfe529	0.027330952
95	0x3c4388a9	0.011934438
96	0x3daa3a10	0.08311856
97	0x3c22752d	0.009915632
98	0xbe31369e	-0.17305991
99	0x3e68d62a	0.22737947
100	0xbd72c755	-0.05927213
101	0xbd9232ca	-0.071385935
102	0xbbbc4b76	-0.0057463003
103	0x3e505658	0.20345438
104	0x3e6c6805	0.23086555
105	0xbe133232	-0.14374617
106	0x3dd685d3	0.10474744
107	0xbd12f042	-0.03587366
108	0xbd5539f2	-0.052057214
109	0x3cde3048	0.027122632
110	0x3bfaaf8e	0.0076503223
111	0x3d686cae	0.05674427
112	0x3cafca70	0.021458834
113	0xbe05971a	-0.13045922
114	0x3ce90f29	0.028449612
115	0x3d86b32d	0.06577144
116	0xbe0a6b0a	-0.13517395
117	0xbd48ab4d	-0.04899149
118	0xbeafc3e8	-0.34329152
119	0x3c4d7b91	0.012541668
120	0xbc9eb5ac	-0.019373737
121	0x3e2a987b	0.16659729
122	0x3d2102fa	0.03930948
123	0xbd9e17f8	-0.077194154
124	0xbd9f47fa	-0.077774
125	0x3da2256b	0.07917293
126	0xbd2cbd1e	-0.042172544
127	0x3ea0f91f	0.31440064
128	0x3de4f34d	0.111792184
129	0xbe4f1665	-0.20223387
130	0xbcb571ea	-0.022149045
131	0xbe2a9294	-0.16657478
132	0xbde63333	-0.11240234
133	0x3e252d56	0.16130576
134	0xbe417ed3	-0.18896036
135	0x3d49830b	0.049197238
136	0xbdb187e9	-0.08668501
137	0x3d15d0a4	0.03657593
138	0xbd9dc5d5	-0.07703749
139	0xbe26b864	-0.16281277
140	0x3d755992	0.059899874
141	0x3cd47536	0.025934797
142	0x3e302910	0.17203164
143	0x3d729b16	0.059229933
144	0x3d8e4725	0.069471635
145	0xbd7180f1	-0.05896086
146	0x3e15b112	0.14618328
147	0x3d7ca766	0.06168308
148	0xbe0d826b	-0.13819282
149	0xbd573cea	-0.052548327
150	0x3d85f423	0.06540706
151	0x3d345424	0.044025555
152	0xbb90a855	-0.004414598
153	0x3db32fcc	0.08749351
154	0xbe2ef5d1	-0.17085959
155	0xbe468f87	-0.19390689
156	0x3c2e2e54	0.010631163
157	0x3e10993c	0.14120954
158	0xbcce7eb9	-0.02520691
159	0xbdc60454	-0.09668794
160	0xbd9de233	-0.0770916
161	0x3d718278	0.058962315
162	0x3cd4cc4a	0.025976319
163	0xbe165de0	-0.14684248
164	0x3e1cda88	0.15317738
165	0x3e052449	0.13002123
166	0x3b2855c0	0.0025685877
167	0xbdedc259	-0.116093345
168	0xbd2bc2f2	-0.04193396
169	0xbd83ca2b	-0.06435045
170	0x3e4c12dc	0.1992907
171	0x3d0fd87f	0.035118576
172	0x3d701fd8	0.05862412
173	0x3d91495c	0.0709407
174	0x3d201439	0.039081786
175	0x3dc118df	0.09428572
176	0xbde0867c	-0.10963151
177	0x3de8de13	0.11370482
178	0x3c9e9360	0.019357383
179	0xbb177109	-0.0023108146
180	0x3c00a64d	0.007852149
181	0x3dce4088	0.10070902
182	0xbe123432	-0.14277723
183	0xbcffe2d0	-0.031236082
184	0xbd440fe4	-0.047866717
185	0xbe613bcb	-0.21995465
186	0x3e173c50	0.14769101
187	0x3d5afd33	0.053464126
188	0xbb1caee1	-0.0023907947
189	0x3d0213c2	0.031757124
190	0xbd811024	-0.06301907
191	0xbe946788	-0.28985238
192	0x3c8d56a2	0.017253224
193	0x3b2bbc31	0.00262047
194	0xbd1629e2	-0.036661036
195	0xbe844777	-0.25835773
196	0x3e12eea3	0.14348845
197	0x3db8fa0f	0.0903207
198	0x3db9fe8f	0.09081756
199	0xbe71168c	-0.23543757
200	0x3da89210	0.08230984
201	0x3c3fc34b	0.011704276
202	0x3dde6d7e	0.10860728
203	0x3e0d1d01	0.13780595
204	0x3d76fb3a	0.060298182
205	0xbd2de19c	-0.042451486
206	0xbd398204	-0.04529001
207	0x3ed30afd	0.4121932
208	0x3afdc5d0	0.0019361321
209	0x3f0555ff	0.52084345
210	0xbe37dc73	-0.17955188
211	0x3dd24d45	0.10268644
212	0x3b2b18b6	0.0026107258
213	0x3ec44653	0.38334903
214	0x3d367904	0.044549003
215	0xbdbc7edb	-0.09203883
216	0x3d57363b	0.052541953
217	0x3e7c0ac5	0.24613483
218	0xbced5812	-0.02897266
219	0xbc29ba61	-0.010359378
220	0xbd505bac	-0.050868675
221	0x3eb2bcd6	0.34909695
222	0x3d432a0f	0.047647532
223	0xbe30951f	-0.17244385
224	0x3ddb9c5d	0.10723183
225	0xbe3a1571	-0.18172242
226	0x3e05963b	0.1304559
227	0xbdab67e4	-0.08369425
228	0x3d2ea4bc	0.04263757
229	0xbdb6ea63	-0.089314245
230	0x3d8db386	0.06919007
231	0xbb3298ad	-0.0027251646
232	0x3cc4b934	0.024014093
233	0xbd38c4dc	-0.045109615
234	0x3d330f55	0.043715794
235	0x3df9ac7a	0.121911004
236	0xbabafd8a	-0.0014266234
237	0xb953e794	-0.00020208798
238	0xbd96b8db	-0.07359477
239	0x3e3b74ff	0.18306349
240	0xbe03ff51	-0.12890364
241	0xbdcb6211	-0.09930814
242	0xbd709077	-0.058731522
243	0xbea8d7cf	-0.3297715
244	0x3cb5efef	0.022209136
245	0x3dca6ed3	0.09884419
246	0x3d00ed7a	0.031476475
247	0xba862977	-0.0010235746
248	0xbdfdc20c	-0.12390527
249	0x3cff4c40	0.031164289
250	0x3d5dfb72	0.054194875
251	0x3e82f5f2	0.25578266
252	0xbd94c004	-0.072631866
253	0x3f199ace	0.6000184
254	0x3d1a6586	0.037694477
255	0xbe96d557	-0.2945964

fc1.bias f4 [128]
0	0xbe89b9ec	-0.2689966
1	0xbd8ce453	-0.06879487
2	0xbede21db	-0.43385205
3	0xbd581394	-0.052753046
4	0xbc7e49a0	-0.015520483
5	0xbca0f6c6	-0.01964892
6	0xbecc8bf0	-0.39950514
7	0x3da9b44b	0.08286341
8	0x3cfc7da9	0.030821638
9	0xbc216c13	-0.009852427
10	0xbe8e21ba	-0.27760106
11	0xbe1c8bf3	-0.15287761
12	0xbcf732c1	-0.030175569
13	0xbd8172f5	-0.063207544
14	0xbe4d87b1	-0.20071293
15	0xbb09510a	-0.0020952844
16	0xbe3fcd6d	-0.18730707
17	0xbd15f9d6	-0.036615215
18	0xbd195e4e	-0.03744345
19	0xbd5e4719	-0.054267023
20	0xbea3e6fc	-0.32012165
21	0xbd8b1b2a	-0.067922905
22	0x3ca0b042	0.019615296
23	0xbd842871	-0.06453026
24	0xbea0e309	-0.31423214
25	0xbe821450	-0.25406122
26	0xbe2a73f9	-0.16645803
27	0xbce82b19	-0.028340863
28	0xbd242486	-0.040073894
29	0xbc777c62	-0.015105339
30	0xbd7a3198	-0.061082453
31	0xbc5f1f65	-0.013618325
32	0x3d422bbf	0.047405
33	0xbd269aec	-0.04067509
34	0xbcdfe83c	-0.027332418
35	0x3cfd44dc	0.030916624
36	0x3d18feba	0.0373523
37	0x3c7d2189	0.01544989
38	0xbdae4bdc	-0.08510563
39	0xbd47c468	-0.048771292
40	0x3d4f65ed	0.050634313
41	0xbc996cc5	-0.018728623
42	0x3d8067e9	0.06269819
43	0x3ca0fb1a	0.019650985
44	0xbd35cd44	-0.04438521
45	0xbdc9a451	-0.09845794
46	0x3cb5203b	0.022110095
47	0xbd525407	-0.051349666
48	0xbd0b0653	-0.033941578
49	0xbd3ca9d7	-0.04606041
50	0xbce9bbfb	-0.028532019
51	0xbc30d8d0	-0.01079388
52	0x3d0a9e57	0.03384241
53	0xbea17abd	-0.31538954
54	0xbd80e527	-0.06293707
55	0x3d5d9fb6	0.05410739
56	0xbc52c898	-0.012865208
57	0xbdc0236c	-0.09381756
58	0xbd8c9ffe	-0.068664536
59	0x3c9b80b4	0.018982269
60	0xbcbe3504	-0.02321864
61	0x3c3ebb7e	0.011641381
62	0xbdada601	-0.08478928
63	0x3d1f98ba	0.03896401
64	0xbe6ef69e	-0.23336264
65	0xbec76485	-0.38943878
66	0xbc66179c	-0.014043715
67	0x3ac6c5cd	0.001516515
68	0x3cd6b3b5	0.026208738
69	0x3a90ec2a	0.001105671
70	0x3d3ea344	0.04654242
71	0xbd088726	-0.033332013
72	0x3c0fc4c7	0.008774943
73	0x3d21c23b	0.039491873
74	0xbeb761cb	-0.35816798
75	0xbe91afc1	-0.28454402
76	0xbcc3e9dc	-0.023915224
77	0xbc1b30f0	-0.009472117
78	0xbd36a8a2	-0.044594415
79	0xbd5add84	-0.05343391
80	0x3d3e11ee	0.046403818
81	0xbcde4079	-0.027130352
82	0xbd872c25	-0.06600217
83	0x3c59b530	0.013287827
84	0xbc58457f	-0.013200163
85	0xbd271507	-0.040791538
86	0xbc827b24	-0.015927859
87	0xbd5ab7a0	-0.053397775
88	0xbeab2430	-0.33426046
89	0x3d115325	0.035479683
90	0x3d48a09c	0.048981294
91	0xbd13e81e	-0.036110036
92	0x3c30c60d	0.0107894065
93	0x3a66cf42	0.00088046875
94	0x3bd28230	0.006424211
95	0xbcff785c	-0.031185322
96	0x3ca185c8	0.019717112
97	0xbc771002	-0.0150795
98	0xbd75f3d7	-0.060046997
99	0x3d35723b	0.04429839
100	0xbd1c1668	-0.038107306
101	0x3d36f567	0.044667628
102	0xbe211793	-0.15731649
103	0xbc7f340b	-0.015576373
104	0xbc8020a8	-0.015640572
105	0x3d38a1ce	0.045076184
106	0xbd0e9a96	-0.034815393
107	0xbd90c01b	-0.07067891
108	0x3c6ea251	0.014565066
109	0x3cd86c12	0.02641872
110	0x3e21f483	0.1581593
111	0x3cc92df9	0.024558054
112	0xbea77c22	-0.32711893
113	0x3ba0cd00	0.0049072504
114	0xbe16a4e9	-0.14711346
115	0xbd3f1791	-0.046653334
116	0x3d1c9ff4	0.03823848
117	0xbe7f309a	-0.24920884
118	0x3bc4e883	0.006009163
119	0x3d65737a	0.05601833
120	0x3bc14916	0.005898605
121	0x3cf2a887	0.029621376
122	0xbd3adfb4	-0.045623496
123	0x3d3aebd3	0.045635056
124	0xbd422d36	-0.047406398
125	0xbd42c7b0	-0.047553718
126	0x3ae0a740	0.0017139688
127	0xbd273ad8	-0.040827602

fc2.weight f4 [64, 128]
0	0x3d69491a	0.05695448
1	0x3d834e43	0.064114116
2	0x3d1cdf4f	0.0382989
3	0xbca29a4c	-0.019848965
4	0x3d6dac7a	0.058025815
5	0xbdc1fe7e	-0.09472369
6	0x3c463f9d	0.0121001275
7	0xbce9d7fd	-0.028545374
8	0xbd916687	-0.07099634
9	0xbdc6c433	-0.09705391
10	0xbd79ca26	-0.0609838
11	0x3d9064ec	0.07050499
12	0xbcf7751e	-0.030207213
13	0x3d9d5ca9	0.07683689
14	0xbce12ac1	-0.027486207
15	0x3d94d331	0.07266844
16	0x3ce7f4c0	0.028314948
17	0xbba99010	-0.0051746443
18	0x3da522c3	0.08063271
19	0xbdb18daa	-0.086695984
20	0xbd47d36b	-0.04878561
21	0xbd454c13	-0.048168253
22	0xbd86891e	-0.06569122
23	0x3d6e8bae	0.058238678
24	0x3d6e06be	0.0581119
25	0xbd43f5b6	-0.04784175
26	0x3b00e298	0.001966631
27	0xbda9cd6f	-0.082911365
28	0xbc4f5e00	-0.012656689
29	0xbc33942e	-0.010960622
30	0xbcfde7b0	-0.030994266
31	0xbbf0d7a0	-0.0073499233
32	0x3d781e1c	0.06057559
33	0xbbbe3070	-0.005804114
34	0xbda7ee72	-0.08199777
35	0xbcabd994	-0.020977773
36	0x3d18e9f5	0.037332494
37	0x3a7e4190	0.00096991006
38	0xbd478438	-0.048710078
39	0xbd83c44d	-0.06433926
40	0x3cbd9a70	0.02314493
41	0xbd66b2ab	-0.056322735
42	0xbd9776fb	-0.073957406
43	0xbb13f6a0	-0.002257742
44	0xbd8b82cb	-0.06812056
45	0xbddc64ce	-0.107614145
46	0x3c6ae7f0	0.014337525
47	0xbd134c92	-0.035961695
48	0xbd3a56b0	-0.045492828
49	0xbd5a0cda	-0.053234912
50	0x3d13d0b8	0.03608772
51	0x3d694c85	0.05695774
52	0xbd5fbc83	-0.05462314
53	0xbba7f4f9	-0.0051256386
54	0xbd140e59	-0.036146495
55	0xbcdbe284	-0.02684141
56	0xbd685a08	-0.056726485
57	0xbd7dfa4d	-0.062006284
58	0x3d02c9eb	0.031930845
59	0x3d9699c7	0.073535495
60	0x3da8554d	0.08219395
61	0x3d1e3c30	0.038631618
62	0xbd989cbd	-0.074517705
63	0x3da23ff3	0.079223536
64	0xbd9b69cc	-0.075885385
65	0xbd00261a	-0.031286336
66	0xbdc7f45d	-0.097634055
67	0x3d1f9ece	0.038969807
68	0x3d561adb	0.052271705
69	0x3d34ad43	0.044110548
70	0xbd63cf8f	-0.055617865
71	0x3da66baf	0.08126008
72	0x3b7e716a	0.0038824924
73	0xbd3f61db	-0.04672418
74	0xbdcee0a3	-0.1010144
75	0x3d39b1e3	0.04533566
76	0x3dab1487	0.08353525
77	0xbcfa5b3c	-0.030561082
78	0x3b91bac8	0.004447315
79	0xbd1a418c	-0.037660167
80	0xbd962efb	-0.073331796
81	0x3cdb6848	0.026783124
82	0x3d84f417	0.06491869
83	0xbda5815e	-0.080813155
84	0xbd06c4e3	-0.03290261
85	0x3c85d55c	0.01633709
86	0x3c99e6dc	0.01878684
87	0xbd07aba6	-0.03312268
88	0xbdd54fa6	-0.10415582
89	0xbd35f156	-0.04441961
90	0x3c9b05cc	0.018923663
91	0xbd632f85	-0.05546524
92	0xbbbdf8e0	-0.0057974905
93	0xbd0e9a73	-0.034815263
94	0x3d9213ab	0.071326576
95	0x3c870564	0.016482063
96	0x3d471fb0	0.048614204
97	0x3d5e73d2	0.054309674
98	0xbd43f5bc	-0.047841772
99	0xbd090896	-0.033455454
100	0x3cf0aac8	0.02937831
101	0xbd7a033e	-0.06103825
102	0xbc480e9a	-0.0122105125
103	0x3cb3b140	0.021935105
104	0x3d2e6ad5	0.04258235
105	0xbcc420bd	-0.023941392
106	0xbc359d95	-0.011084934
107	0x3d3fa0c4	0.046784177
108	0x3d6ef602	0.05834008
109	0x3c3f2808	0.011667259
110	0x3d889c97	0.06670492
111	0xbd8b7ceb	-0.068109356
112	0x3d4665fb	0.0484371
113	0xbd7c9700	-0.061667442
114	0x3d1a515c	0.037675247
115	0x3d2aef27	0.04173198
116	0x3d72a83e	0.05924248
117	0xbd00213c	-0.031281695
118	0xbb9f7217	-0.0048658955
119	0x3c9950a4	0.01871521
120	0x3ca673d9	0.020318912
121	0xbc57e3f3	-0.013176906
122	0xbcaaeb57	-0.020864172
123	0x3d1d1da5	0.03835835
124	0x3d525aae	0.05135601
125	0xbd8e2a7a	-0.069416955
126	0x3d1067a2	0.035255082
127	0xbd9d4985	-0.07680038
128	0xbe77b74d	-0.24191017
129	0xbd3533d9	-0.0442389
130	0x3d824e19	0.06362552
131	0x3ad40dc0	0.0016178414
132	0xbd944628	-0.07239944
133	0xbd720a88	-0.059092075
134	0x3c5584b7	0.01303213
135	0xbdab7faf	-0.08373963
136	0xbdbe4607	-0.092907004
137	0x3d4b8707	0.04968932
138	0xbdf3c91e	-0.119035944
139	0x3e96495e	0.2935285
140	0x3df4f009	0.119598456
141	0x3d167d6a	0.036740698
142	0x3d765ddf	0.060148116
143	0xbd8e9e32	-0.06963767
144	0x3e924174	0.28565562
145	0x3c90ac88	0.017660394
146	0xbcd7b000	-0.02632904
147	0x3db0d314	0.0863401
148	0xbb869082	-0.004106582
149	0xbd83e975	-0.06441013
150	0xbd3166e5	-0.04331102
151	0xba949a8c	-0.0011337562
152	0xbe9d2ddb	-0.30699047
153	0x3dad5b83	0.0846472
154	0x3e1bc0cf	0.1521027
155	0xbd299380	-0.041400433
156	0x3cdf5d84	0.027266271
157	0xbd1dbc5e	-0.03850972
158	0x3cfe0e10	0.031012565
159	0x3d0fa867	0.03507271
160	0xbd9327d4	-0.07185331
161	0xbaca4428	-0.0015431689
162	0xb8c66800	-9.460747e-05
163	0x3ca4bd28	0.020109728
164	0xbdc1c12a	-0.09460671
165	0x3d666a4c	0.056253716
166	0x3ea47c96	0.32126302
167	0xbd95d00c	-0.073150724
168	0xbc9c7af3	-0.019101596
169	0x3c5cad0c	0.013468992
170	0xbbe6e103	-0.0070458665
171	0xbd96dae4	-0.07365969
172	0x3da12717	0.07868784
173	0xbccd9365	-0.025094697
174	0xbd3dfa28	-0.046381146
175	0x3bb9159a	0.005648327
176	0x3ce44f19	0.027869748
177	0x3da61132	0.081087485
178	0xbd2d8d9d	-0.04237138
179	0xbd5f5fd4	-0.05453475
180	0xbda80e52	-0.082058564
181	0x3e1c2a29	0.15250458
182	0x3c1c3f22	0.009536536
183	0xbc0e4918	-0.008684419
184	0x3d7d7e8e	0.06188827
185	0x3f016cc4	0.5055659
186	0x3ceb2c56	0.028707664
187	0x3d8b89d3	0.06813397
188	0xbd87a090	-0.06622422
189	0xbd8fec08	-0.07027441
190	0xbdfb288c	-0.12263593
191	0x3c3ff539	0.0117161805
192	0xbcee7fbe	-0.029113647
193	0x3da9c3cf	0.08289301
194	0xbb2b5f97	-0.0026149505
195	0x3dc53743	0.09629681
196	0x3d43f420	0.047840238
197	0x3db35214	0.087558895
198	0x3dc898f7	0.09794801
199	0xbd37b655	-0.04485162
200	0x3db72fe0	0.08944678
201	0x3beda642	0.0072524855
202	0x3d5f1ea5	0.054472584
203	0xbdf102b8	-0.11768097
204	0xbd9c29d7	-0.07625168
205	0x3b947248	0.004530225
206	0xbbdbecfe	-0.0067116013
207	0x3c43d5d3	0.011952835
208	0x3d012bd4	0.03153594
209	0xbd10cb34	-0.03535004
210	0xbd8e6075	-0.069519915
211	0x3d8e8d2d	0.06960521
212	0xbd76fac6	-0.06029775
213	0xbc8964e6	-0.016771745
214	0xbd8dd1b8	-0.06924766
215	0xbd269243	-0.04066683
216	0x3d4df55d	0.050282825
217	0xbca3b991	-0.019985946
218	0x3ceff375	0.029290894
219	0xbd8c98a7	-0.068650536
220	0xbcc0ebf8	-0.023550019
221	0x3b0f6e54	0.002188583
222	0xbd95dec1	-0.073178776
223	0x3ce721e9	0.028214412
224	0x3bccae24	0.006246345
225	0xbc6556aa	-0.013997713
226	0xbc7b5d93	-0.015342134
227	0x3c3cf0ac	0.01153199
228	0x3d06009c	0.032715425
229	0xbd84b1e5	-0.06479243
230	0x3e44b10f	0.19208167
231	0xbd7a7b57	-0.061152782
232	0x3d3db6a3	0.046316754
233	0x3e80da18	0.25166392
234	0x3d56976e	0.05239051
235	0x3d37aaac	0.0448405
236	0x3da70e4a	0.08157022
237	0xbd006f08	-0.031355888
238	0x3cac0198	0.020996854
239	0x3e4720d0	0.1944611
240	0x3d72684c	0.059181497
241	0xbd5322bf	-0.05154681
242	0x3e237c7a	0.15965453
243	0xbd95fa81	-0.073231705
244	0xbceac802	-0.028659824
245	0xbe6e27ac	-0.23257321
246	0x3dd4c83a	0.10389753
247	0x3d6e90ca	0.05824355
248	0xbc78472e	-0.015153689
249	0x3d59cb01	0.053172115
250	0xbd9ed615	-0.07755677
251	0x3cc2b389	0.02376725
252	0x3cebefb8	0.02880083
253	0xbd05a959	-0.032632206
254	0xbdb0dee0	-0.0863626
255	0x3d129f4e	0.035796456

fc2.bias f4 [64]
0	0x3d3226e4	0.04349412
1	0xbd5e4454	-0.05426438
2	0xbdd92c59	-0.10604162
3	0xbd7d050a	-0.061772384
4	0xbda38f25	-0.07986287
5	0xbdb3989f	-0.087693445
6	0xbd8eb6e5	-0.06968478
7	0xbd6f9e6a	-0.058500685
8	0xbd8fbf46	-0.070189044
9	0x3c869663	0.016429132
10	0xbd7f6c38	-0.062359065
11	0xbdf052d5	-0.11734549
12	0xbe4a1910	-0.19736123
13	0x3e793f5d	0.24340577
14	0xbb72937f	-0.0037014184
15	0x3d96fa67	0.07371979
16	0xbd3f0e0e	-0.046644263
17	0xbd430b7f	-0.047618385
18	0x3daa1613	0.083049916
19	0xbcaf16ac	-0.021373115
20	0xbda66015	-0.08123795
21	0x3bc450be	0.0059910705
22	0x3d5b1a77	0.053492036
23	0xbdf171a5	-0.11789254
24	0x3df84d4c	0.12124118
25	0x3e615a1d	0.22007032
26	0x3d8f4147	0.069948725
27	0xbdd05fc5	-0.101745166
28	0xbd231076	-0.03981062
29	0xb93b243e	-0.00017847211
30	0xbe39971d	-0.18124051
31	0xbdb4f102	-0.08835031
32	0xbdb068b0	-0.086137176
33	0x3e5beee6	0.21477851
34	0xbd8eb0dd	-0.06967328
35	0xbdca031e	-0.09863876
36	0xbdbbe94d	-0.09175358
37	0xbbbce161	-0.005764172
38	0xbd607ff4	-0.054809526
39	0xbde45404	-0.11148837
40	0xbcba54ab	-0.022745451
41	0xbdca5bac	-0.09880766
42	0xbd973382	-0.07382871
43	0xbd17336d	-0.036914278
44	0xbd8a96bf	-0.06767034
45	0x3e287130	0.16449428
46	0xbd89200d	-0.06695566
47	0xbdaf71cf	-0.08566629
48	0xbd535ef0	-0.05160421
49	0xbcdb81d8	-0.026795313
50	0x3e64b835	0.22335894
51	0xbe587ade	-0.2114062
52	0xbd8bb326	-0.06821279
53	0xbd92b712	-0.07163824
54	0xbd4d6c4a	-0.0501521
55	0x3ca2a68c	0.019854806
56	0xbe03b641	-0.12862493
57	0x3cc2dce2	0.023786966
58	0x3bdc0a13	0.006715068
59	0xbd9f5a60	-0.077809095
60	0xbdadff6b	-0.08495983
61	0xbe7f592a	-0.24936357
62	0x3b344385	0.0027506065
63	0x3cae1a50	0.021252781

fcn.weight f4 [4, 64]
0	0xbd1f55de	-0.03890025
1	0x3e4e3276	0.20136437
2	0x3e129a44	0.1431666
3	0x3dff6833	0.12471046
4	0x3d7cbd48	0.06170395
5	0x3d8e823f	0.06958436
6	0x3c0a6d3f	0.008448898
7	0xbc0b9ce4	-0.008521292
8	0xbde63240	-0.11240053
9	0x3e68d75d	0.22738405
10	0x3ecd9f8e	0.40160793
11	0xbde9dff1	-0.114196666
12	0x3e46fe2b	0.19432895
13	0x3df52570	0.11970031
14	0x3d27e080	0.040985584
15	0xbda1134d	-0.078650095
16	0xbcb12267	-0.02162285
17	0x3d25b20f	0.040453013
18	0x3dea6e20	0.11446786
19	0xbda8c62d	-0.08240924
20	0x3db7564e	0.08952008
21	0x3e6f9771	0.23397614
22	0x3dba46dd	0.09095547
23	0x3d263ddc	0.040586337
24	0x3caac3cb	0.020845314
25	0xbf44817a	-0.76760066
26	0xbd9701f7	-0.07373422
27	0x3dc4fad6	0.09618156
28	0xbd63cd2e	-0.055615596
29	0xbdaa8b21	-0.08327318
30	0xbccb9129	-0.024849491
31	0x3dd05c2a	0.10173829
32	0x3d5bdff2	0.053680368
33	0x3e4c9121	0.19977237
34	0xbd1156a7	-0.03548303
35	0x3a93ba7b	0.0011270785
36	0x3dc1d1f5	0.09463874
37	0xbddfdc79	-0.10930724
38	0x3dff061c	0.12452337
39	0x3bc2a945	0.0059405887
40	0xbd813c0c	-0.06310281
41	0xbd10cb4b	-0.035350125
42	0x3c94ea71	0.018178197
43	0x3d8ec353	0.06970849
44	0x3de437b2	0.111434355
45	0xbdf7515d	-0.12076066
46	0xbda3e79f	-0.080031626
47	0x3dcfb00c	0.10141
48	0x3e1ce51b	0.15321772
49	0x3d7bc0c0	0.061463118
50	0xbe5ad7e2	-0.21371415
51	0xbc9164c9	-0.017748253
52	0xbd7e9578	-0.062154263
53	0x3d15f7e2	0.036613353
54	0xbcde1b41	-0.027112605
55	0xbc343e06	-0.011001116
56	0x3d0b2ef6	0.033980332
57	0xbd1d004d	-0.038330365
58	0x3d9fef67	0.07809334
59	0x399fba00	0.00030465424
60	0x3e5f5e2d	0.21813269
61	0x3da38b93	0.07985606
62	0x3d9943d7	0.074836425
63	0xbdcdaa9c	-0.10042307
64	0x3dd7d519	0.10538692
65	0x3e30111f	0.17194031
66	0xbee43d4b	-0.44578013
67	0x3c0696d5	0.008214672
68	0x3da951b5	0.082675375
69	0x3d668be3	0.05628575
70	0xbd57f3e3	-0.052722823
71	0x3dcd4ccf	0.10024416
72	0x3c0c02f0	0.008545622
73	0xbe01d8c8	-0.12680352
74	0xbd9cf1ca	-0.07663305
75	0x3e49138e	0.19636366
76	0x3dc5af57	0.09652584
77	0x3dab4be5	0.08364085
78	0xbdcb5747	-0.09928756
79	0x3d59eff2	0.053207345
80	0xbd5cca71	-0.053904
81	0x3de7335d	0.11289094
82	0x3dbac74d	0.09120045
83	0xbde9ade1	-0.11410118
84	0xbaad8381	-0.0013238044
85	0xbd037b7a	-0.03210018
86	0xbd11d129	-0.03559986
87	0xbd1278d2	-0.035759754
88	0x3e594603	0.21218114
89	0xbd98c1fc	-0.074588746
90	0xbca0cde7	-0.019629432
91	0xbbc1db55	-0.005916039
92	0x3d81c0df	0.06335615
93	0x3cb4d062	0.02207202
94	0xbd0512c2	-0.032488592
95	0xbdab6424	-0.0836871
96	0xbdf829f3	-0.12117376
97	0xbe175c97	-0.14781414
98	0xbd9dacad	-0.07698951
99	0xbd933f80	-0.07189846
100	0x3d60d37f	0.0548892
101	0xbd1cc9de	-0.038278453
102	0x3e1135f6	0.1418074
103	0xbbe0cb12	-0.0068601454
104	0x3d0fee16	0.035139166
105	0x3d76623a	0.06015227
106	0xbc6698ef	-0.014074548
107	0x3da08301	0.07837487
108	0xbc01dd92	-0.007926362
109	0x3f0f6034	0.5600617
110	0x3b08989c	0.0020842915
111	0xbc7776d7	-0.015104017
112	0x3e161dfe	0.14659879
113	0x3d748f04	0.059706703
114	0x3dcd3df0	0.10021579
115	0x3d3c6045	0.045990247
116	0x3d86b135	0.06576768
117	0xbd973381	-0.073828705
118	0x3c961a8b	0.018323204
119	0x3cb8ba11	0.02254966
120	0x3e6a1dae	0.22862884
121	0xbd91ddba	-0.07122369
122	0x3d1fca30	0.03901118
123	0xbc409ab0	-0.01175563
124	0xbe4783c3	-0.19483857
125	0x3dcf217b	0.10113808
126	0xba388ec0	-0.00070403144
127	0xbd52d82c	-0.05147569
128	0xbda65070	-0.08120811
129	0xbe00848e	-0.12550566
130	0x3e4a8928	0.19778883
131	0x3dad083b	0.084488355
132	0x3ddcf7d5	0.10789458
133	0x3c7a91ca	0.015293548
134	0x3cc44e73	0.023963189
135	0x3d0e74ee	0.03477948
136	0xbddf95f5	-0.10917274
137	0x3d8b9c38	0.06816906
138	0x3eb73ff8	0.35790992
139	0x3e30aa1d	0.17252393
140	0x3d4ad9a1	0.049523953
141	0x3e00dbc6	0.12583837
142	0xbdbd025d	-0.092289664
143	0xbd8ca8bd	-0.06868122
144	0x3d87330f	0.066015355
145	0x3dcd45a4	0.100230485
146	0x3dceb29b	0.1009266
147	0xbb69dd5a	-0.0035684914
148	0xbc67dc51	-0.014151649
149	0xbf0698d6	-0.5257696
150	0xbd659b88	-0.05605653
151	0x3e603493	0.21895055
152	0xbf01d4ca	-0.50715315
153	0xbdc011b2	-0.09378375
154	0xbd556467	-0.052097704
155	0x3ccf2a4b	0.025288722
156	0x3d816a03	0.06319048
157	0xbd3363d4	-0.043796375
158	0x3e1db5ae	0.15401337
159	0xbd72592c	-0.059167072
160	0x3d9111ab	0.07083448
161	0xbe049196	-0.12946162
162	0x3d2aa831	0.041664306
163	0xbadcddbe	-0.0016850752
164	0xbca1e807	-0.01976396
165	0x3d0ac071	0.033874933
166	0x3dd24d85	0.10268692
167	0x3d7aa60d	0.061193515
168	0x3d933a79	0.07188887
169	0xbda5a98d	-0.0808898
170	0xbc0251ad	-0.007954043
171	0x3c176b69	0.009241917
172	0xbd7964cd	-0.060887147
173	0x3d6f212d	0.05838125
174	0xbd670d8a	-0.056409396
175	0x3d69f6e6	0.057120226
176	0x3e462b9b	0.19352572
177	0xbd10b3fc	-0.035327896
178	0x3d1eb492	0.038746424
179	0x3e4977d5	0.19674619
180	0xbcb3ff97	-0.02197246
181	0x3d6a6616	0.057226263
182	0xbd484664	-0.048895255
183	0xbdc2d33f	-0.09512948
184	0x3d38eb24	0.045146123
185	0xbdbdbd38	-0.09264606
186	0x3ccd7795	0.025081435
187	0x3d6700e4	0.056397334
188	0xbde75884	-0.1129618
189	0x3ce21f68	0.027602866
190	0x3db534b5	0.08847944
191	0xbdd2d7ec	-0.1029509
192	0xbd0e784b	-0.03478269
193	0x3da351a0	0.07974553
194	0x3dd3e443	0.10346272
195	0xbde57962	-0.112047926
196	0xbd6d19cc	-0.05788593
197	0xbda31928	-0.079637825
198	0xbd34cdcf	-0.044141587
199	0xbd87a986	-0.06624131
200	0x3e009f14	0.12560683
201	0xbdc09c78	-0.09404844
202	0xbe132221	-0.14368488
203	0x3e2dfa38	0.16989982
204	0x3e263969	0.16232838
205	0xbeba0845	-0.36334434
206	0xbd058564	-0.032597914
207	0xbdaebbd3	-0.085319184
208	0x3d016f9c	0.03160058
209	0xbd78303e	-0.060592882
210	0xbd7a7e0c	-0.061155364
211	0xbd981b04	-0.07427028
212	0xbd4c05e2	-0.049810298
213	0x3d58f7e2	0.052970774
214	0xbd6e390c	-0.058159873
215	0x3cb56bfa	0.022146214
216	0x3e5a1ed9	0.2130083
217	0xbd94c32d	-0.07263789
218	0xbcd6fd64	-0.026243873
219	0xbdb4e3db	-0.088325225
220	0x3d72b839	0.05925772
221	0x3d625654	0.05525811
222	0x3e4e0cf4	0.20122129
223	0xbd1412c8	-0.036150724
224	0xbc43c801	-0.01194954
225	0xbeb49017	-0.35266182
226	0xbd19ecc2	-0.037579305
227	0x3d5517fb	0.052024823
228	0xbdd8ac64	-0.10579756
229	0xbc1069e1	-0.008814306
230	0x3e0e59bd	0.1390142
231	0xbd2ec86c	-0.042671606
232	0xbcb1fea4	-0.021727867
233	0x3dde5453	0.10855927
234	0xbd0f0d82	-0.03492499
235	0xbcf5de4b	-0.030013224
236	0xbd5078e2	-0.050896533
237	0xbe88f4b6	-0.267492
238	0xbc33a9fd	-0.010965821
239	0x3ce72c85	0.02821947
240	0xbdb181b8	-0.0866732
241	0x3b6db600	0.003627181
242	0xbf2c4b1f	-0.67302126
243	0x3e2a72e4	0.1664539
244	0x3be84a96	0.0070889695
245	0xbd2636c1	-0.04057956
246	0x3d1b0f3d	0.03785633
247	0x3dabb225	0.08383588
248	0x3dee5cf6	0.11638825
249	0x3b999d3e	0.004687934
250	0xbc01b68b	-0.007917057
251	0xbd9be3b6	-0.07611792
252	0x3ea5c6fd	0.3237838
253	0x3e634c21	0.2219701
254	0xbd6dbf56	-0.0580438
255	0xbcebdc58	-0.028791592

fcn.bias f4 [4]
0	0x3e03216e	0.12805721
1	0xbca41439	-0.020029174
2	0xbd86e3f8	-0.0658645
3	0xbe073cef	-0.13206838
